models/reg_weight/100/prob_model.pth (torch, 851234 bytes, 18 tensors)

params.in_layer.0.weight f4 [32, 3, 3, 3]
00000000: e79c bcbc abea 0c3e b25d 1f3e eac4 1d3d
00000010: 3bf3 763e b1ac 1a3e c897 843d 99d6 2fbe
00000020: cb73 66bd 7247 723e c555 fbbd 7b59 693e
00000030: 0b1c efbd 29c9 0ebd 6e2f 17bd d5ba 66bd
00000040: b541 173d 7a2e 90bd 19ce 15be 26e1 e0bc
00000050: ebb9 5abd 1170 33be fe20 0dbe 663d a1bd
00000060: 7768 283e a866 8ebc 215e 1ebd 4a21 943d
00000070: da9a 04be fb21 3a3e e13c 57be 6ad3 123d
00000080: 5569 b43d 499b 2e3e c042 51ba e853 803d
00000090: 1359 013e 12ac ddbc f1d7 3ebe 3e5f 5e3d
000000a0: 9f02 a63c a17d 63bd 80c8 8bbd 90b7 9ebc
000000b0: c1e9 533d a20b 013e f7f5 103e 511d 22be
000000c0: 6e00 433e 6f10 b8bd 2c66 963c 3873 49be
000000d0: c735 35be 4438 2abe 0bd3 27bc f2c6 93bd
000000e0: fe49 7bbd 27ec 9d3d 0061 bd3c 163d 923d
000000f0: 72f7 3bbe 06a4 8c3d 4408 1dbe 33ac eebc
00000100: 287f a53d f2f6 92bc fdaa 2b3e df1a bf3d
00000110: 21eb ff3c 0606 c6bd 39b5 273e e265 11be
00000120: 5a09 25be 85df 66bd febb 5f3d 2fa8 31be
00000130: 2318 f3bd 9c03 f43d 880c 9bbd 562f 27ba
00000140: 8d38 fd3c c8af 9dbd e476 3bbe bb82 ba3d
00000150: 7d3e e7bd 829d a13c f8de 57be 1aa2 453e
00000160: 44ec 33bd e4a7 743e 58af d53d d1db 34be
00000170: e2ee 0fbe 2af6 5abc 8b74 ae3d 79cc 073e
00000180: 5031 373e 3970 343e 7278 4a3e 845a a93d
00000190: 5892 0ebd a69b 3ebe 729c 9e3d 0327 923d
000001a0: c133 9e3d 942e 0bbe 6921 1abe d377 21be
000001b0: ca01 ba3d a621 e23c aaba 19be 8f15 2fbe
000001c0: 551e 313e 5833 3b3e a5d1 5b3e 33b3 0bbe
000001d0: afec 2b3c c3ec 6abd 3d8e 563d 2f0b 31be
000001e0: 6efc 7e3d 96e6 af3d 94e3 d13d eb2d 9c3d
000001f0: cdba 93bd a962 5fbb e71e 93bd bb82 19be
00000200: 8cc2 c03d 1c3e 48bd 725b 3c3d ec23 30be
00000210: cbcb 04be 4f26 4d3e 5b44 15bc f41e 623e
00000220: 8838 3c3e cbdb be3d 420e eabd 3f50 4abd
00000230: bc93 a2bd 3577 103e 4908 f9bb 5541 20bd
00000240: 8175 c43d 1938 103e 6f3d 67bd e88b 423c
00000250: 05c9 cc3c 6416 2bbe d682 86bd 7498 a5bd
00000260: c819 293e b214 1ebe 6304 0ebe e08f a03d
00000270: fc05 55bd 7994 a2bb af6e 0fbe 2728 463c
00000280: a654 8f3d 75be 79bd 04f8 603e f7a6 d2bd
00000290: 8ca8 4b3e 0c61 9a3d cefc 633e 3dbc c7bd
000002a0: 41ec f73d 0721 213c e619 1abe 2d8c 963d
000002b0: b756 49bd 1a05 49be 8bdc 38be 91a0 5abd
000002c0: 0499 b13c 6753 013e 3a8d 04bd e72a de3d
000002d0: d6da fd3d e49c 8ebd e858 9fbd 1701 cf3c
000002e0: 1e4c 07be e05d 0b3e 8909 323e 2b84 173e
000002f0: 6034 823d 5bb4 b13d b585 e5bd 9bf7 023d
00000300: 94c1 f43d 2362 c6bd e69e 683d 8793 453e
00000310: eeae 193e 1990 8f3e 6268 8bbd b30d 1dbe
00000320: aba0 c2bd 8548 17be 8a96 09bd a7a7 d73d
00000330: 4676 08be 8ef4 853d e912 0b3d bec5 e7bd
00000340: 7694 d73d f312 273e 033c 0cbe 92de ec3d
00000350: ac06 70bd cb6b 2d3d 0feb 37be 1b60 123e
00000360: 4f37 f3bd 2ffc 2bbe 0efa 383e 1fa4 0bbe
00000370: c632 de3d d05d 54bd 773d 273e c84d 1fbe
00000380: 9cef 9dbd 701f e3bc 3553 2abd 2d9d 9fbc
00000390: a5c4 00be 92f2 c9bd 2d20 7bbd 637c 76bd
000003a0: 10a6 fa3d f36b 5f3d a731 5dbd 81a0 39be
000003b0: 380f d9bd 92ca f03d b2b1 8bbc f133 0fbe
000003c0: a322 1a3e 7198 cabd 9677 c7bd 97e5 e53c
000003d0: 7ba2 1c3d 3936 4a3c b1df 813d b2f0 e1bc
000003e0: 0bd5 29bd d5e5 6a3d f644 2bbd da2d 26be
000003f0: 855d c5bd cd67 31be ced5 4dbe 7bef 06be
-0.023024036 0.13761394 0.15563086 0.03851787 0.24116223 0.15104939 0.064742625 -0.17171706
-0.056262773 0.23660067 -0.122722186 0.2278804 -0.11675271 -0.03485981 -0.036910467 -0.05633052
0.036927897 -0.07040115 -0.14629401 -0.02745111 -0.05339996 -0.17523219 -0.13782117 -0.07873039
0.164461 -0.017382935 -0.038663987 0.07232912 -0.12949696 0.18177025 -0.21019317 0.03584615
0.08809153 0.17051424 -0.0007982664 0.06266004 0.12631635 -0.027059589 -0.18637063 0.05429005
0.020264922 -0.05553973 -0.06825352 -0.019374639 0.051736597 0.12602094 0.14156328 -0.15831496
0.19043133 -0.089875095 0.018359266 -0.19672859 -0.17696296 -0.16623026 -0.010243188 -0.0721568
-0.06134986 0.07711058 0.023117542 0.071405575 -0.18356112 0.068672225 -0.15335184 -0.029134845
0.08080894 -0.017940018 0.16764446 0.09331297 0.031240048 -0.09669118 0.16377725 -0.14199021
-0.16116849 -0.05636551 0.054622643 -0.17349313 -0.11869838 0.11914751 -0.075707495 -0.0006377598
0.030910755 -0.07699543 -0.18307072 0.09106966 -0.112912156 0.019728426 -0.2108115 0.19300118
-0.043926492 0.2389217 0.10433835 -0.17661978 -0.1405597 -0.013364354 0.085183226 0.13261594
0.17889905 0.17620935 0.19772509 0.082692176 -0.034807533 -0.18614063 0.07744683 0.07136347
0.07724715 -0.13591987 -0.15051807 -0.15768366 0.090823725 0.027603935 -0.15012613 -0.17098068
0.17296727 0.18281305 0.21466692 -0.13642578 0.0104934415 -0.0573547 0.052381743 -0.17289422
0.062252454 0.08588903 0.10248485 0.07625946 -0.07213364 -0.0034085906 -0.071836285 -0.14991276
0.09412107 -0.048887357 0.045985647 -0.17201203 -0.12968366 0.20034145 -0.0091105355 0.2208212
0.1838094 0.09319266 -0.11428501 -0.049392935 -0.07938334 0.14107974 -0.0075998646 -0.039124805
0.095927246 0.140839 -0.056455072 0.011874177 0.024998197 -0.1670776 -0.06567924 -0.08085719
0.16513741 -0.15437582 -0.13868861 0.07839942 -0.05200766 -0.004961547 -0.14007066 0.012094534
0.06998567 -0.06097265 0.2196961 -0.10285752 0.19888514 0.075380415 0.22264406 -0.097527005
0.12105609 0.0098345345 -0.15048942 0.07350955 -0.049154963 -0.19630852 -0.1805288 -0.053375784
0.021679409 0.12629472 -0.032361247 0.10848027 0.12395255 -0.06963518 -0.077806294 0.025269074
-0.1321263 0.13610029 0.1738645 0.14796512 0.06357646 0.08676978 -0.11207143 0.031974416
0.119509846 -0.09686687 0.056792162 0.19294558 0.15008137 0.28039625 -0.06807019 -0.15337257
-0.09503301 -0.14773758 -0.03359083 0.10530024 -0.13326368 0.06540786 0.03395358 -0.11317013
0.105263636 0.16315822 -0.13694768 0.115658894 -0.058600113 0.042339128 -0.17960761 0.14294474
-0.11875784 -0.16795419 0.18064138 -0.13636826 0.10849528 -0.05184728 0.1633204 -0.15557015
-0.077117175 -0.027724952 -0.04158326 -0.019484127 -0.12575014 -0.0986072 -0.061309982 -0.06017722
0.12238705 0.054546308 -0.05400243 -0.18127634 -0.10598606 0.11757387 -0.017052505 -0.13984658
0.15052275 -0.09892357 -0.09739606 0.028063579 0.03824089 0.012342029 0.06341494 -0.027580593
-0.04146294 0.05734809 -0.041813813 -0.16228428 -0.09636978 -0.17324753 -0.20101091 -0.13177292

params.in_layer.0.bias f4 [32]
00000000: 059c 393e 816f 463e 85ec f53c 597e 3ebc
00000010: e567 673d d207 023e 4893 03be 78cf 0b3e
00000020: b51a 313e 12e6 033e 3b00 f1bd 9643 c73c
00000030: 3440 0ebe d6e2 5a3c cbd2 233e caad b5bd
00000040: 9a5c ee3d dba6 003e 62b0 31be b3fc 713d
00000050: 6e91 a33d 9689 b33d 486c cb3d c944 03be
00000060: 7ac1 3fbc 50bc 0f3d 2892 27be 564f a43d
00000070: 9cc0 053e 3c61 40be 75e7 1f3e cca3 453d
0.18125923 0.19378473 0.030020008 -0.011626803 0.056495566 0.12698296 -0.12849152 0.13653362
0.17295344 0.12880734 -0.11767622 0.02432422 -0.13891679 0.013359746 0.1599838 -0.08871038
0.11638756 0.1256365 -0.17352441 0.059078883 0.07986723 0.08766477 0.099327624 -0.12819208
-0.011703843 0.0350917 -0.16364348 0.08022945 0.13061756 -0.18787092 0.15615638 0.048251912

params.core.0.weight f4 [32, 32, 3, 3]
00000000: b60c 303d ab05 c73d e7c4 993d 2526 5ebd
00000010: ac4c 06ba 881e 263d 0bce b53d ded3 773d
00000020: 033c e43d a3a9 ffbc fbc7 023d 096e ccbd
00000030: 0425 103e b173 ca3d 353a 253d d189 f0bc
00000040: ccd8 b8bd 5cc0 efbd e869 0cbe d1f0 2bbe
00000050: 7f3b 17be 4c97 69be 028c 96be 5a4e 71be
00000060: 37b2 4ebd 794d 56bd e542 a2bd 0a2b 88bb
00000070: ae3c c23c e620 323d 71b6 d73d bb39 d13d
00000080: 5364 ae3d 8dc9 58bd 8626 86bd 3fcd 0dbe
00000090: 8802 b63c 4748 1fbb 1476 8b3c 8787 773d
000000a0: 5c94 b33d eaf5 65bc 46a7 c23d 90f9 b83c
000000b0: 039a ac3d 60ff 083e 2850 c73d 8f8b 1c3e
000000c0: 843f 833d e95a f03d 0b1f 883d df5b 06be
000000d0: eff2 00be 4ad6 1abe f8d8 873d 3eb3 1abd
000000e0: 1007 133a f0fe 4abd 73b0 aabc ef29 42bc
000000f0: 8548 8c3d 57ff 89bc 1b7b 1cbc 5ec1 35bd
00000100: 0cdc 96bd 7f86 96bd d7c6 713d ae97 bf3d
00000110: 1d61 233d c62a 8a3d 39d5 fcbc b4e8 62bd
00000120: 4848 e33a b0c7 77bc af72 b3bc a273 b6ba
00000130: 37b6 213d c99a 123d b36b 01bd c7c6 ccbb
00000140: 6f6f 1d3d 2e5c 6b3d 2ae6 c13d 3b03 7f3d
00000150: d681 9a3d bf35 363d 5c8f 33bc 7cbb 853d
00000160: 6ac3 36bc 8b85 79bd 4e51 0d3e 235f f53d
00000170: af57 043e c344 2cbd 2d6a 5cbd 554f d0bc
00000180: 1088 213d 52ce 693d c979 dd3c f1d9 8dbc
00000190: e7b4 02bc a4dd 04bc f4c8 c43d 5a43 083d
000001a0: e53e 10bd 6af1 d23d c69c 963b b16c 463d
000001b0: c607 46bd 25a9 313d 89c7 073d 4d8a 0a3d
000001c0: a2eb 2cbd f59e 453d 13ad e2bc 251c 4fbd
000001d0: 0154 4e3d 1782 79bd 4961 513a 9730 5abd
000001e0: 18a7 f43d f632 9a3c 943d 943c 7131 a0bc
000001f0: be09 163b 7005 c2bc 8376 2c3d aea8 203d
00000200: cea9 1fbd eb80 7abd 7c1b 10bd 25a4 733c
00000210: 2ac8 c73d 3a7f 603d ddc1 903d ac44 57bd
00000220: 1385 87bc 3a82 47bd f4d9 b4bd 9282 bfbd
00000230: 5f89 0dbe 6ae1 4cbe 3b0f 7fbe fb06 85be
00000240: 24d3 2e3d 958e 653c 0dfb 173c 48ae d3bc
00000250: b45e 3ebd f0c1 5c3d e357 bcbd 6915 d3ba
00000260: 7634 a5bc 10f9 14bc edcd 363d 7dea 2e3d
00000270: 8085 3ebb 29e8 0f3d 125b bfbc 31c5 54bd
00000280: ac60 4abd d2b1 d3bc a635 b23c 47c0 533d
00000290: f874 0fbc adcc 623d 12ef e23c c9de 403d
000002a0: 5400 e6bc 04b3 8bbc df34 383d cd82 2b3d
000002b0: 9e16 2d3d ab88 7b3d 5d91 a83d 854f bd3d
000002c0: 035c 383c dd64 b9bb 990b 3fbd 2a14 8ebd
000002d0: f00a 883d f33b 2e3d d222 f53c b01a 0cbd
000002e0: b1cb 69bd 5271 133d 1008 18bc 3d7e a2bc
000002f0: 9b4b 4d3c 8c70 b13b a937 91bc d9d0 043d
00000300: 066c c7bd 57d8 60be 545e 70be d65a 3bbe
00000310: 7de5 35be 16d9 2bbe f9ba be3b 0bc7 363d
00000320: 3b6e 05bd 096b 1b3d 146d 1bbd 7fcf 3b3d
00000330: 5eb2 983b d5ca e9bb 6171 e4bc 398b 52bd
00000340: f3a0 0ebc 7206 633d 0dab 873d 210e 003c
00000350: d46e 42bb 37bb 62bd 344c 79bd 7e13 f2bd
00000360: 826e 3c3d f017 953c ce99 c43b 99ed 0f3d
00000370: 811d 4dbd 7c5f 34bd b4f6 bd3c a329 f4bc
00000380: 4b0f 333d 6a3b 973d 7da0 d63b c333 c1bc
00000390: 4ae3 243d 3f8b 2e3d 44a3 2ebd 94c2 60bb
000003a0: e2a7 5b3b 5fa5 0bbd f2a4 8f3d 6bd3 98bc
000003b0: 1e9a ffbc 81bf 813c 9cc3 763d 133f 30bc
000003c0: 3526 2a3d e2bd 82bd 24d3 f6bc a484 4dba
000003d0: eec6 213d c685 c5bb 7259 b63d 87cc 143d
000003e0: 158f f03c 0cae 44bd 5c03 91bc f7db dabd
000003f0: f51e 0ebd d18a b93c 3364 9e3b c7de 2abc
0.042980872 0.09717878 0.07508259 -0.054235596 -0.00051231193 0.04055646 0.0887719 0.060504787
0.11144259 -0.031208819 0.031928997 -0.09981925 0.1407662 0.09885348 0.040338714 -0.029362591
-0.09025726 -0.117066115 -0.13712275 -0.16791083 -0.1476879 -0.22811621 -0.29403692 -0.23565045
-0.050462928 -0.052319977 -0.07922915 -0.0041555213 0.023710575 0.043488406 0.10532845 0.10216089
0.08515229 -0.05292659 -0.065503165 -0.13847826 0.022218004 -0.0024304555 0.017024077 0.060431983
0.08768532 -0.014035681 0.09504561 0.022579938 0.08427813 0.13378668 0.097320855 0.15287612
0.06408599 0.1173609 0.06646546 -0.13120984 -0.12592672 -0.15120807 0.066331804 -0.037768595
0.00056086574 -0.049559534 -0.02083609 -0.011850818 0.068497695 -0.016845388 -0.009550835 -0.044373862
-0.07366189 -0.07349872 0.05902752 0.093551025 0.039887536 0.0674644 -0.030863391 -0.055397704
0.0017340267 -0.015123293 -0.021905271 -0.0013919959 0.039480414 0.035792146 -0.03159685 -0.006249282
0.03843635 0.057460956 0.094677284 0.06225894 0.075442955 0.04448485 -0.0109594725 0.065299004
-0.011154989 -0.060918372 0.13800547 0.119810365 0.12924074 -0.042057764 -0.053812195 -0.025428453
0.0394364 0.057081528 0.02703561 -0.017315837 -0.007977701 -0.008109484 0.09608641 0.033267356
-0.03521623 0.10299952 0.0045963256 0.0484435 -0.048347257 0.0433742 0.033149276 0.0338233
-0.042216904 0.048247296 -0.027670419 -0.05056395 0.05037308 -0.06091508 0.0007987214 -0.053268995
0.11945933 0.018823128 0.018095769 -0.019554825 0.002289399 -0.023684233 0.04210521 0.039223365
-0.038980298 -0.061158102 -0.03518246 0.014870678 0.09754975 0.054808833 0.070682265 -0.052555725
-0.016542947 -0.048708178 -0.08830634 -0.09351076 -0.13821934 -0.20007864 -0.24908154 -0.25981888
0.04268183 0.014011045 0.009276164 -0.02583994 -0.046477035 0.05389589 -0.091964506 -0.0016104403
-0.020166617 -0.009092584 0.04462998 0.042704094 -0.0029071271 0.035133515 -0.023358855 -0.05194587
-0.0494086 -0.025841627 0.021754097 0.05169704 -0.008755915 0.055370975 0.027701888 0.047087464
-0.028076328 -0.017053135 0.044972297 0.04187279 0.042257898 0.061409634 0.08230851 0.09243683
0.011252406 -0.005657776 -0.04664192 -0.0693744 0.06642711 0.04253764 0.02992383 -0.03420514
-0.05707902 0.035996743 -0.009279266 -0.019835586 0.012530233 0.005415028 -0.017726736 0.032425735
-0.09737401 -0.21957527 -0.23473483 -0.1829637 -0.17763324 -0.1678203 0.0058206287 0.044623416
-0.032575827 0.037943874 -0.037945822 0.04585218 0.004659935 -0.007134775 -0.027886095 -0.051402304
-0.0087053655 0.05542607 0.06624422 0.007815869 -0.002966811 -0.055354323 -0.06086369 -0.11820124
0.046003826 0.01819989 0.0059997803 0.0351387 -0.050076965 -0.044036373 0.023188926 -0.02980501
0.043715756 0.07384379 0.0065498934 -0.023584252 0.040255822 0.042613264 -0.04263617 -0.0034295665
0.0033516814 -0.034093257 0.07013883 -0.0186555 -0.031201418 0.015838386 0.06024514 -0.010757226
0.041540343 -0.063838735 -0.030129977 -0.00078398944 0.039496355 -0.00602791 0.08903779 0.036327865
0.029365102 -0.048017547 -0.017701797 -0.10686486 -0.03469749 0.0226492 0.004833722 -0.010429091

params.core.0.bias f4 [32]
00000000: cace de3c 33d2 4ebd e352 413d e592 843c
00000010: c2c8 45bd 150b 2dbb f13a 39bd b101 563d
00000020: 9665 03bd 897d 54bd e376 1b3c 386d 543d
00000030: 0a99 653c 7921 0739 816a da3c f574 103d
00000040: d24a a4ba e617 99bc 13d5 1e3d 0253 da3c
00000050: df5f 583a a7d1 323d 6d01 d63c 7968 40bd
00000060: 234b 113d bf9e 013c f7f8 2b3b 2fe0 3b3d
00000070: ab48 c73c 6620 983d ff7e 72bd 5655 65bc
0.027198214 -0.05049343 0.047198188 0.016183326 -0.04828716 -0.002640431 -0.045222227 0.052247707
-0.0320793 -0.051877532 0.009488794 0.05186197 0.014013538 0.00012887073 0.026662113 0.03526779
-0.0012534505 -0.018688153 0.038777422 0.02665091 0.0008254032 0.04365697 0.026123727 -0.046974633
0.035472047 0.007911383 0.0026240924 0.045868095 0.024326643 0.074280545 -0.059203144 -0.013997396

params.core.2.weight f4 [32, 32, 3, 3]
00000000: 3f3a 3f3d 8981 ae3c 4c03 2dbb 31f5 773c
00000010: 6f7f a9bc 9422 c3bc 4312 c53c 8dd6 3abd
00000020: 459a 92bc 2732 d33a 4683 1c3d 35b2 113b
00000030: 384a 27bd 1428 61bd 6f62 4e3c bf83 3c3c
00000040: 10f6 c63c f707 4cbd a7ad e1bc dc60 ecbb
00000050: 48aa 69bc 3092 943b 2abd 4a3d 234b 9eba
00000060: 7ba8 ed3c bb68 87ba e581 8ebb 68fa 243d
00000070: 0afa 91bc 9657 013c cfcd 8abd ec90 10be
00000080: 261b b1bd 65cb b9bb a304 4fbd 9b9e 43bd
00000090: aaa7 9abc 2078 d7bb 7697 1fbd 3399 523d
000000a0: 37c4 5bbd 05ca 3dbd c8a4 e9bb ef17 edbc
000000b0: 1a75 2a3d 2f68 c0bc 5055 febc 67e9 cc3c
000000c0: 8d75 83bc 5626 a93b 12b3 34bc 57a6 2dbd
000000d0: c802 083d 1463 69bc 2a8a 153c e240 a53c
000000e0: d813 23bd 580b d7bc 7edc 5ebd fe36 9abc
000000f0: 9fa2 bf3c c475 49bd 7d65 b53c 821f be3c
00000100: 6366 483c e2da 8f3d 5811 6bbd 7a2a 51bc
00000110: f3dd a9bc 8fa0 bcbd 62fb c9bd ae97 9cbd
00000120: 6baf 5ebd 1b94 18bc 7135 7abd 98e5 cabc
00000130: 7976 823c c2ec 20bd b7fa 6abd 9b76 863a
00000140: 65b0 d53b e728 82bc 1314 ba3d 8686 813d
00000150: 2a10 1a3c 03b6 1b3d fffd 8a3c ef9d 893c
00000160: 4f2d 8b3d 8ba0 c83d 7d76 06bd a0a6 f9bc
00000170: 512d 21bd 3fbf 58bc 4980 2a3d 3675 2a3d
00000180: 795e 2b3d b1ea fe3d 66d6 fb3d 4f8e 07be
00000190: 75d5 f2bd 9805 03be 7aea 7ebb e60b 893d
000001a0: b53d 603d d4a4 673d 765d d03d fe1a 753d
000001b0: 74b7 fbbc a640 7f3c 9f1e 8cbc 164c 56bd
000001c0: 8cb1 42bc 2bd5 05bd c051 2c3d 9877 7a3d
000001d0: 22f0 613d dbdb a43d 94f7 823d 492b e6bc
000001e0: bbda 973c e3ea 593d 34f4 ec3d df25 51bc
000001f0: ec69 17bd 5991 4c3d 7c47 1abc 1888 113d
00000200: 0417 6d3d fa18 343d b082 443d 911e 1cbd
00000210: a2fe ad3c d52d c43c e770 053c fcfe 7dbc
00000220: 93bf 92bd ade8 f7bd aade fb3c 0a8a 1bbb
00000230: 9c84 3abc bb43 adbb 9b7d ef3d 1a74 883d
00000240: fe0d 223d b8b2 32be 9220 02bc f25b 48bd
00000250: eadc febc 1177 83bd 331f 34bd b2f4 96bd
00000260: e829 4cbb d442 bfbc 8ee3 353c a10b 2bbd
00000270: c011 473d 3b00 873c 42a8 003d 45db 873d
00000280: 1e56 9c3d a67b 343d 28d0 ad3c 208c 9b3c
00000290: defa 60bc 2def 843d aeaa 933d f8db 283c
000002a0: 809e 0a3d 13a2 b63d a830 7a3b 476b 3f3d
000002b0: d2bf a9bc 32c7 d7bc c92b 633d e715 8b3d
000002c0: a65c ae3c 0cb4 213d d8db 303c 6a2f c1ba
000002d0: 5bb4 7cbd ba53 8e3d b7da 8ebd dcbd fabc
000002e0: 3bfe 71bd cb84 16be 5377 ddbd 4883 d9bd
000002f0: 4013 8ebd 831a 323d 1f5b 0abc f52d ad3d
00000300: b7c4 d53c c555 413d 8aeb a43d f7eb 3bbd
00000310: b4ec d0bd 8ef2 063d 70b8 2c3a e7d6 153d
00000320: 16df 303c c77b 03bd 69e6 2e3d 9e37 263d
00000330: 218e b43b 69e6 8c3b 8c88 77bd 9821 2b3a
00000340: 36c0 113d 48b0 02bc f5b1 09bd 83cd ca3b
00000350: 82d2 bdbd f9c1 2dbd 5068 58bd 8ba0 9bbd
00000360: 0505 6fbc cc6a d03c edd7 eabc a000 5a3d
00000370: 1c59 5d3d 365e 8c3d 4762 16bc 0216 13bb
00000380: a95a adbc c89a 5abd 8785 143c cd9f dc3c
00000390: 4893 d93c 93b3 57bd ad4c 1abb e334 e5bb
000003a0: 13cb 35bd b7b0 a73c 3f9d 19bd 30df 7e3c
000003b0: 8b92 fe3b 55ae 843d 152e d5bb 03c1 763d
000003c0: 96ba aa3c 4259 db3c a163 603d 73c7 353d
000003d0: 8025 233d c2b8 163d 208e 5fbc 7dac b23c
000003e0: 7f3d 3e3d 7cec 92bd cea1 b9bb bf6a 59bd
000003f0: 5990 3dbd 19e3 543c d23a 1f3c 8e18 a5bc
0.046686407 0.021302002 -0.002639967 0.015134142 -0.020690648 -0.0238202 0.02405656 -0.045614768
-0.017895827 0.0016112969 0.03821113 0.0022231464 -0.040842265 -0.054969862 0.012596711 0.01150602
0.024287254 -0.049812283 -0.027548624 -0.007213695 -0.01426179 0.0045340285 0.049496807 -0.0012076836
0.029011002 -0.0010330895 -0.0043489807 0.04027787 -0.017819423 0.007894417 -0.06777536 -0.14117783
-0.08647756 -0.0056699985 -0.05054153 -0.04775868 -0.018878777 -0.0065755993 -0.038962804 0.051415633
-0.053653922 -0.04633524 -0.007130239 -0.028942076 0.041615583 -0.023487179 -0.03104654 0.025013639
-0.016047264 0.0051620407 -0.011029022 -0.042394962 0.033205777 -0.0142448135 0.009127179 0.02017254
-0.039813846 -0.026250526 -0.054409496 -0.01882505 0.023392973 -0.049184576 0.02214312 0.023208383
0.012231442 0.070241705 -0.057389587 -0.012766475 -0.020735716 -0.092103116 -0.098624006 -0.07646118
-0.05436651 -0.009312655 -0.061086122 -0.024767682 0.015925633 -0.03928829 -0.057368007 0.0010258736
0.006521272 -0.015888644 0.0908586 0.063244864 0.009403268 0.038015377 0.016966818 0.016798941
0.06795751 0.09796246 -0.032827843 -0.03047496 -0.039349858 -0.01322919 0.04162625 0.041615687
0.041838143 0.124471076 0.12296753 -0.1323788 -0.1185712 -0.12795103 -0.0038897083 0.066917226
0.05474635 0.056553677 0.10174076 0.059840195 -0.030727126 0.015579378 -0.017104445 -0.052318655
-0.011883151 -0.032673996 0.04207015 0.06114921 0.05516065 0.080497466 0.06394878 -0.028096812
0.018536916 0.05320252 0.115700155 -0.012765377 -0.03696625 0.0499433 -0.009416457 0.03553018
0.057883278 0.043969132 0.047976196 -0.038115088 0.021239582 0.023947636 0.008144594 -0.015502688
-0.07165446 -0.12104926 0.030745823 -0.00237334 -0.011384156 -0.005287615 0.11693879 0.066627696
0.039564125 -0.17450988 -0.007942336 -0.04891581 -0.0311112 -0.064191945 -0.043975066 -0.07370891
-0.0031152908 -0.023347296 0.011101617 -0.041759137 0.048600912 0.016479602 0.031410463 0.06633619
0.07633613 0.044063233 0.02121742 0.018987715 -0.013731686 0.06490932 0.07210289 0.010306351
0.033842564 0.08917632 0.0038175974 0.046733167 -0.02072135 -0.0263401 0.05546168 0.06791287
0.021284413 0.039478347 0.010794602 -0.0014738862 -0.061695438 0.06949563 -0.0697531 -0.03060811
-0.059080344 -0.14699094 -0.10813775 -0.10620743 -0.069372654 0.043482315 -0.0084445765 0.08456031
0.026094778 0.047200937 0.08052738 -0.04587933 -0.102013975 0.032946162 0.00065887626 0.0365819
0.010795375 -0.032100465 0.042700205 0.040580384 0.005510107 0.004299928 -0.060432956 0.0006528138
0.035583697 -0.007976599 -0.03361698 0.0061890497 -0.09268667 -0.042421315 -0.052833855 -0.075989805
-0.014588599 0.02544155 -0.028667415 0.053223252 0.05404006 0.06853907 -0.009178705 -0.0022443538
-0.021161394 -0.053370267 0.0090650385 0.026931668 0.026559487 -0.05266149 -0.0023544237 -0.00699483
-0.04438312 0.020470006 -0.037503477 0.015556142 0.007768934 0.06478564 -0.0065057375 0.060242664
0.020840924 0.02677596 0.054782514 0.044379663 0.039830685 0.036797293 -0.013644725 0.021810764
0.046445366 -0.07174012 -0.0056650406 -0.053080317 -0.04628024 0.012993597 0.009718614 -0.02015331

params.core.2.bias f4 [32]
00000000: f6c9 abbc 9f90 e2ba 21dc 463d 42b9 873d
00000010: 5def 763d 833e 15bd dabc 343d 773e 6e3c
00000020: c659 d13d 789e 763d f8cb b6bb 80a7 4fbd
00000030: f40d 7e3d dfef 72bc 2a5d 323d 917b 96bc
00000040: 42fc cabc 4b94 58bd 2f6c 293d 3d1d b03d
00000050: 19a8 83bd a9fb 9f3c 5c19 75bb c889 5f3d
00000060: e563 3fbc 2e8d d83c b612 983d 0671 e0bc
00000070: ec51 cf3b d466 853d 2fe5 e3bc 153d 1a3d
-0.020970326 -0.0017285532 0.048549775 0.06627132 0.06028687 -0.03643657 0.044125415 0.01454126
0.10222201 0.06020972 -0.005578514 -0.05069685 0.062025025 -0.014827698 0.04354588 -0.018369468
-0.024778489 -0.0528758 0.041362938 0.08599327 -0.064285465 0.01952918 -0.0037399149 0.054574758
-0.011681532 0.026434507 0.07425444 -0.027397644 0.0063269045 0.065137535 -0.027819244 0.03765591

params.core.4.weight f4 [64, 32, 3, 3]
00000000: 1fc1 5e3d bb53 893d 94b6 5abc 50e6 84bd
00000010: 2594 1bbd 709b 95bd 0caf 463b 466d 803d
00000020: a18c c63c c43b f5bc bf13 233d b321 91bd
00000030: ba46 9bbd cb3e 49bc a914 123d 3a88 a33d
00000040: 90d8 3f3d 5172 473d a299 673d 819d 65bc
00000050: 618c a33c 92ec f6bc 23a8 a53d c5d1 ab3c
00000060: 2fce 86bd 83ae d73c 0ba2 1d3d c5c7 0f3c
00000070: 2ba7 67bd fb36 efbc ff20 963d 316c 41ba
00000080: f24a 93bb fa25 60bd 13df bcbc 1a77 0cbd
00000090: 790f 993c f062 15bc 55cb 44bc ca12 6a3c
000000a0: 381a 3e3a 593f 723d aa31 a6bc 9f6a 41ba
000000b0: 19ea a8bb 357c b13c 9f8a 14bd c8ba 433d
000000c0: fc09 253d 7aa0 e73b a3cd 03bd 5209 3d3d
000000d0: 7b95 2e3d ab82 773d 4f02 1d3c f076 273d
000000e0: f15a 373d ee75 83bc 1980 923b 9948 17bd
000000f0: 6b06 edbc a2f9 3dbd 61b5 8dbb a090 193d
00000100: 91a7 f63d a810 8e3d 5946 453d 4daa 303e
00000110: 1b90 b93d a6fa 51bd b288 e0bd 8d1d 9dbd
00000120: 2cfe 5e3d 8a14 5a3c d87d 36bd d786 143e
00000130: 39fe 3abd 6759 4e3d ee88 db3d 8834 723d
00000140: 2e39 423d 09f6 423d df09 df3c ea13 03ba
00000150: 16ff 72bd 8558 47bc 6d2c 023d 28e6 1d3c
00000160: 3f9a 5e3c 198d 5f3d e7ff 113d 21ec 1e3e
00000170: 430f 0a3e 3c44 adbc 7448 703e c201 133e
00000180: 95f2 c3bd 17bd 713d ccdf 303d c837 963d
00000190: e6d3 a2bb 0dbe a13d 215b 0b3d 69d6 17bd
000001a0: bb61 42bd aeb1 0b3c 95d8 0fbd a26c 1b3d
000001b0: 3d22 783d 44ed 2ebd 110b 543d 933a 9dbd
000001c0: 000c 9e3c a362 08bd ab7f 793c d926 51bd
000001d0: b631 72bc 2d6e d7bc 2c42 afbc 17c6 a43d
000001e0: 6bd5 71bd 2e16 ef3c 7062 4d3d 3b62 f0bc
000001f0: 31cb 2d3c 21bd 59bd 078f 8c3d 6064 cfbc
00000200: 9461 2f3d c625 f7bc 6a31 7c3c eb29 ad3c
00000210: 473f f6bc 495b 72bd db8b 3a3d 66d0 60bd
00000220: 4986 a8bc eaf0 8cbc 650f 7dbc 6467 303d
00000230: a303 e9ba 9af0 5f3d 10e9 2e3d e850 33bd
00000240: 27be a53d f0b2 0dbd 479e 803d 642f 3bba
00000250: 58bb 463c 6de9 2bbd 1532 3c3d fcfe ec3d
00000260: 3017 87bd 30e4 12bd aa0c 903c c258 933c
00000270: 6e1b eb3c bfc4 64bd fea5 6dbd f1f8 523d
00000280: 2c23 6e3c 2434 9bbc 73ce 3a3c a4f3 1c3d
00000290: 8852 ce3c aadd ee3c 5b39 25bc 9270 f4bc
000002a0: b5e6 973b b6e0 45bc 3d7e 1b3d 5670 2d3c
000002b0: a312 4a3d f23e 143d c57e 063d 8d3c edbc
000002c0: a7fd 97bc 96a2 603c 3669 163d 43c8 323d
000002d0: b346 29bd 9ab8 ca39 0782 1e3c d905 2bbc
000002e0: 3ba5 28bd 40e5 903c 6fc9 1b3d a3b9 3e3d
000002f0: 1013 eabb 5bb3 8b3d 75e6 a93d 25b9 7f3d
00000300: 2374 a4bc 1489 6c3d 2d3d bd3c 0900 9dbd
00000310: 8056 6bbd 0f9a 5b3c 2f08 12bd 8aa9 2bbd
00000320: 4ba3 50bc 782d 48bc af28 5cbd 7686 a6bc
00000330: 7242 54bd 84d0 6abd ea36 81bd a8b7 083c
00000340: 1835 2c3c 2cef 973d 7286 47bd 7310 53bc
00000350: a212 a1bc 6c33 a5bd 795d 663b a653 f5bc
00000360: 69eb 203d 12a4 353d 4c11 973d e944 4ebb
00000370: 6bc8 30bd 99bb 08bd 6299 2ebc e123 9c3c
00000380: d400 a3bb e982 60bd 1866 a13b 04f2 773c
00000390: 00ca 2f3b cc69 5b3c 0481 a5bc 3b5f 663d
000003a0: 78b6 c4bc cc89 abbc e072 b93d 81ac 863d
000003b0: e7d4 b23d c2bd 3f3e f406 353a 8a2e f33b
000003c0: ff84 543e 2f83 9a3c e956 4a3d 53b6 023e
000003d0: acb7 b93d a81b 373d 6f53 4e3e 2df5 153e
000003e0: 9812 383d 2b21 2b3d 427c 903d 1a04 153e
000003f0: cb6c 38bc ad39 c43d d0c8 2fbb a320 99bd
0.054383393 0.067054234 -0.013349194 -0.06489241 -0.03798308 -0.07305038 0.0030316738 0.06270842
0.024236979 -0.029935725 0.039813753 -0.07086506 -0.075818494 -0.012283037 0.035664234 0.079849675
0.04683739 0.048693005 0.056543 -0.014014603 0.019964399 -0.030142102 0.0808871 0.02097405
-0.06582295 0.02632833 0.038484614 0.008775656 -0.05655591 -0.029201021 0.07330512 -0.00073784875
-0.004495018 -0.054723717 -0.023055589 -0.03429327 0.018684136 -0.009117827 -0.012011369 0.014286706
0.00072518317 0.059142444 -0.020287354 -0.00073782535 -0.0051548597 0.021665672 -0.036265012 0.04778555
0.040292725 0.007068691 -0.032178532 0.046151467 0.042623024 0.06042735 0.00958307 0.040884912
0.044764463 -0.016047444 0.004470837 -0.03693447 -0.028933724 -0.046380647 -0.0043246006 0.03749144
0.120436795 0.06936771 0.048162792 0.17252465 0.09060689 -0.051264428 -0.109635726 -0.07671652
0.054441616 0.013310561 -0.044553608 0.14504562 -0.045652602 0.05037823 0.10719477 0.05913213
0.047417812 0.04759792 0.027226387 -0.0005000221 -0.0593253 -0.012167101 0.03178065 0.009637393
0.01358658 0.05457792 0.035644438 0.15519764 0.13482384 -0.0211507 0.23465139 0.1435614
-0.09567753 0.05901822 0.04318218 0.07334858 -0.004969108 0.078975774 0.034022454 -0.03706971
-0.047456484 0.008526249 -0.035118658 0.037945397 0.060579527 -0.042706743 0.051768366 -0.07677188
0.019292831 -0.033297192 0.015228192 -0.05106244 -0.01478236 -0.026297653 -0.021393858 0.08045595
-0.05904142 0.02918538 0.050142705 -0.029343715 0.010607527 -0.053158883 0.06863218 -0.025316417
0.042817667 -0.030169379 0.015392641 0.021138152 -0.03005947 -0.059169088 0.045543533 -0.054886244
-0.020571845 -0.01720472 -0.015445565 0.04306735 -0.0017777573 0.054672815 0.042702734 -0.04377833
0.08092909 -0.034594476 0.06280189 -0.00071405456 0.012129627 -0.04197066 0.0459462 0.11572072
-0.065962195 -0.035862148 0.017584164 0.017986659 0.028699603 -0.055851694 -0.05801963 0.05150694
0.014534753 -0.018945761 0.01140176 0.03831829 0.025185838 0.029158432 -0.010084475 -0.029838834
0.0046356567 -0.012077501 0.037962187 0.010585865 0.04933418 0.03619284 0.03283574 -0.028959537
-0.018553568 0.0137106385 0.03672143 0.043648016 -0.04132719 0.0003866598 0.009674556 -0.010438406
-0.0411732 0.01768744 0.0380339 0.046563756 -0.0071433857 0.06821319 0.08295909 0.062432427
-0.02007491 0.057747915 0.02310046 -0.07666022 -0.05745554 0.01340343 -0.035652336 -0.041909732
-0.012734245 -0.012217872 -0.053749736 -0.020327788 -0.05182118 -0.057327762 -0.06309302 0.008344568
0.010510705 0.07418665 -0.0487122 -0.01288234 -0.019662205 -0.080664486 0.003515093 -0.029947113
0.039287005 0.044345923 0.07376346 -0.003147418 -0.043159883 -0.033382032 -0.0106566865 0.019060077
-0.004974464 -0.054812346 0.0049255006 0.015133385 0.0026823282 0.013391923 -0.020203121 0.056243163
-0.02401279 -0.02093973 0.09055114 0.06575871 0.08732014 0.1872473 0.0006905638 0.0074213194
0.20753859 0.018861381 0.04939929 0.12764864 0.09068236 0.04470411 0.20149015 0.14644308
0.044939607 0.04177968 0.0705495 0.14552346 -0.011256407 0.09581313 -0.0026822574 -0.07476928

params.core.4.bias f4 [64]
00000000: 5694 393c 46e4 b03c c63f 8b3c a240 973d
00000010: 19b7 f93b a201 593c 8cb0 23bc 2e47 753b
00000020: d74a 09bc 0782 a13d 3664 42bc 0a60 3ebd
00000030: 5698 a13c b9f5 1fbd 767e cebd 1612 84bd
00000040: 73a6 4d3d 84ca 30bd 9e5d 94bd 2e07 0fb9
00000050: 6904 e6bc 2468 d4bc 4ccf 393d 0a81 7b3d
00000060: 0a48 123d 552e 8c3c 4ebe 8a3c d384 7e3c
00000070: 2033 44bd 802b f33a ebc6 bdbd 3081 efbc
00000080: 945c ad3d 7509 b9bc 21aa cebc fc5d 12bd
00000090: f429 b53d c160 95bd cc55 e23c f8c0 12bd
000000a0: b7c7 9e3d 0b3c 4fbd 73c2 893c 3ee2 a53d
000000b0: e097 823d 5345 833d 2575 b9bb 5253 0d3c
000000c0: 6beb c4bc 39f3 8abd 6bcc af3c a7c2 333d
000000d0: 56a4 5dbd 88bb 80bc 6fb3 a93d 1d18 3f3c
000000e0: e9a7 4c3d a194 ac3c 072f 9e3c 695b 943d
000000f0: acd7 993c e951 dcbc 0947 103d e3a5 453d
0.01132687 0.021593224 0.016998183 0.073853746 0.007620704 0.013245018 -0.0099908225 0.003742646
-0.00837966 0.07886129 -0.011864712 -0.04647831 0.01972596 -0.0390527 -0.10082714 -0.06448762
0.050207566 -0.043161884 -0.072444186 -0.00013640217 -0.028078275 -0.025928564 0.04536371 0.061402358
0.035713233 0.017111937 0.016936447 0.015534597 -0.04790032 0.0018552393 -0.09266456 -0.029236406
0.084649235 -0.022587517 -0.025227608 -0.03573416 0.088458925 -0.07293845 0.027628802 -0.03582856
0.07752936 -0.05059437 0.016816353 0.08099793 0.06376624 0.06409707 -0.0056597167 0.008625822
-0.024038037 -0.06784672 0.021459779 0.043886807 -0.0541118 -0.015714422 0.08286177 0.011663464
0.04996482 0.021066966 0.019309534 0.072439976 0.018779598 -0.026894527 0.035223994 0.048253905

params.core.6.weight f4 [64, 64, 3, 3]
00000000: a4e4 9dbd a896 15bd b5a6 d4bd 0799 653d
00000010: d86f aebb 351d be3c 0dd1 47bc e7d4 34bc
00000020: 2382 e5bb 1ad9 edbc c899 733b d71f de3b
00000030: 4516 ec3c 0ff9 3f3c b5fe 20bc 5d02 ac3b
00000040: c236 893c d242 cf3d f5f4 f2bd b288 8abd
00000050: e0b5 22be a0a4 c8ba 17c9 00bd 22ed d3bc
00000060: a9a5 12bd 442b 10bd c833 acbd 1a51 6fbd
00000070: 84e0 08bc 2cdf 55bd fe48 1cbd 2dcb 85bc
00000080: 797a 83bd b4ba b63c 81eb 9a3c d937 363d
00000090: 76b8 56bc 02d8 21bc 012e 113d fe2a cb3c
000000a0: e704 ac3d c9d6 a03d 23c4 30bc a1d4 03bb
000000b0: b8cd 0bbd 78dc 733c d352 d0bd 8c24 52bd
000000c0: 2da3 323c af3f 47bb 2e3e 5bbc c592 08be
000000d0: c048 27be 55b2 c1bd 5df3 083d 6989 f23a
000000e0: 74ba 08ba 8a2e 3b3d 4bfb 7d3c 10f8 513d
000000f0: f605 da3b 8039 88bc 7a75 563b 7936 13bc
00000100: 6ee7 6bbd 7852 56bd 2fd8 25bb e8e1 993c
00000110: a215 883d 69c5 aabc 5207 c7bc de34 24bb
00000120: 3c3c 0ebc 519c 903c f5ca 783c 70ec 20bc
00000130: b52c fa39 647e 36bc c7d1 e03c abe9 7b3b
00000140: 353a fa3c 5c24 183c 1faa 6dbd 0f2b 1bbd
00000150: 4328 02bd aa77 b73c cf08 f73b 72b0 99bc
00000160: 8ec2 07bd 2a71 f5bc d4e2 cd3b c0e9 7fbc
00000170: 8fd5 44bb a2be 16bd d53c 113d 170e d43c
00000180: 5f52 bfbc af30 4d3d f613 bb39 f6ee 193c
00000190: fbdb 983c cafc 0b3d 0e42 113d 6769 a33c
000001a0: 9064 33bb d949 02bd 4e94 d0bc 5414 1a3d
000001b0: 5d4f c93c 2f76 d1bc 4f9c b7bc a0ab eb3c
000001c0: 6214 0cbd e00b 2c3d 1c6e b1bb 6d5b 113d
000001d0: 55df 4f3d 0c7c a03d 4d50 a23c eb87 c43c
000001e0: e16a 063e 0ad4 1a3e 1b00 c43c 3af4 453d
000001f0: 9efc f5bc 4177 adbc 5bfe 3e3c 4740 bc3d
00000200: 10d0 e13c ea7a c63b 3963 b33c 7e25 233d
00000210: db73 793d f0fc cd3d ea47 5f3d 020d 81bc
00000220: 32c7 603c 10da f63c 62e4 fe3b 1ad9 553a
00000230: 596d 863d 0adb 853c b598 f43c 39a0 e53c
00000240: d5eb 7fbd 8baf c03c c355 6e3c d402 15bd
00000250: 8157 803c 70e0 bc3c 6b50 12bd 5541 1ebd
00000260: 6c6b cabc 4655 8db9 0fe0 7e3c 03b5 343c
00000270: 7ea6 e13c 9b8f 793d 234e 28bb d997 9f3d
00000280: ba0a 5c3c bb89 a43d ccd8 e43d 87a6 00bd
00000290: 4104 8cbd 5b54 913b 7d57 32be c3f2 5a3d
000002a0: 32bb de3b 56c9 f7bc 6f00 173c 3ecf 0f3b
000002b0: eb28 33bd 000a 87bd dd14 60bc 1d7e ddbc
000002c0: f003 39bd ab2b 533d 8246 c8ba f0d2 ca3c
000002d0: 7648 723c f218 f13b 314d 9fbc 352d a63d
000002e0: 1089 183d 4dec 803d a111 253d d78c 143d
000002f0: 7498 b1bb 7a45 a33d a06f 863d c1f3 5b3d
00000300: 34ab c83d 9f61 963d bb3c 5d3d 10c5 a53d
00000310: 039f 903d 0d8f e6bc aa09 b2bb 1a7e 11bd
00000320: 81eb 2ebd 71dd 2e3c 2ba8 bf3c 2f1f 3c3d
00000330: 8ca3 f4bc 34ad 043c 9a81 71bd cc30 9f3c
00000340: 3d2a 20bd fa72 97bc 5d46 13bc 9001 dfbc
00000350: 77c9 243d ee2a bb3c 20f0 c73a 0f23 81bd
00000360: aeae aabd 3819 7abc d255 0bbd 317b a7bd
00000370: b16e 38bd 3487 79bd 9ed7 5bba 1f6d a13d
00000380: d581 133d 9a7e a43c 7807 2abd eda0 073d
00000390: ccdf 4c3c 9a6d 1f3d cd26 6e3d ef47 a13c
000003a0: 0e01 853b 974e 683d 075c 0d3b 3c58 3b3b
000003b0: 1bd7 5fbd fee8 243b cac7 89bd 3b68 99bd
000003c0: ecff 703d c42c a43d e912 b13d 634b 7e3d
000003d0: 0553 a43d cf4f 443d 70a9 91bd 044a 78bd
000003e0: a673 8ebd 1948 fe3c c5c3 6f3c d466 2cbd
000003f0: 4044 56bb a5a3 073d b200 e03c 8b7a 07bc
-0.07709625 -0.03652063 -0.10383359 0.05605414 -0.0053233914 0.023207286 -0.012195838 -0.011037088
-0.007004039 -0.029034186 0.0037170518 0.006778698 0.028819213 0.011717095 -0.009826352 0.005249305
0.016749743 0.10120167 -0.11863128 -0.06764354 -0.15889692 -0.0015307851 -0.031441774 -0.02586991
-0.035802517 -0.03519751 -0.08408314 -0.058426954 -0.00835431 -0.052214786 -0.03815555 -0.016332233
-0.06419844 0.022305824 0.018911125 0.044486854 -0.013105502 -0.00987816 0.035444263 0.024800774
0.083993725 0.07853467 -0.01078895 -0.002011575 -0.034131736 0.014884107 -0.101720475 -0.051304385
0.010903162 -0.0030402949 -0.013381524 -0.13337238 -0.16336346 -0.09457842 0.033435214 0.0018504086
-0.0005215772 0.04569868 0.015501807 0.05126196 0.0066535426 -0.01662898 0.003272383 -0.008985155
-0.057593755 -0.052324742 -0.0025305857 0.018784478 0.06644751 -0.020846086 -0.024295483 -0.0025055925
-0.008681353 0.017652662 0.0151851075 -0.009821996 0.00047717025 -0.011138532 0.02744378 0.0038438838
0.030545333 0.0092860125 -0.05802357 -0.03788286 -0.031776678 0.022395927 0.007538892 -0.018760893
-0.033144526 -0.029961187 0.0062831435 -0.015619695 -0.0030034517 -0.036802895 0.035458405 0.025885625
-0.023354707 0.050095256 0.00035682291 0.009395352 0.018659582 0.034176625 0.035463385 0.01994772
-0.0027373172 -0.031808708 -0.025461342 0.037617043 0.024573976 -0.02556905 -0.022413401 0.02876836
-0.034199126 0.042003512 -0.0054147374 0.03548758 0.050750095 0.0783616 0.019813681 0.023990592
0.13126709 0.15119949 0.023925832 0.048328616 -0.030027684 -0.021175029 0.011657323 0.091919474
0.027565032 0.006057133 0.021897899 0.039830677 0.060901504 0.100580096 0.054511942 -0.015753273
0.013719367 0.030133277 0.00777869 0.0008157656 0.06563825 0.016339798 0.029857973 0.028030502
-0.062480766 0.023521205 0.014546814 -0.03637965 0.015666725 0.023056239 -0.035721224 -0.038636524
-0.024709426 -0.0002695715 0.015556349 0.011029485 0.02754521 0.06092797 -0.0025681339 0.077926345
0.013430292 0.080340825 0.11174163 -0.031408813 -0.06836749 0.004435105 -0.17416187 0.053454172
0.0067972178 -0.030247372 0.009216412 0.0021943594 -0.043740194 -0.06593704 -0.013676849 -0.027037675
-0.04516977 0.051555317 -0.0015279802 0.024758786 0.014787784 0.00735771 -0.019445987 0.08114091
0.037240088 0.06295071 0.040300015 0.036267128 -0.005419785 0.07972236 0.065642595 0.05369926
0.097982794 0.073428385 0.054012995 0.08094227 0.07061579 -0.028144384 -0.005433281 -0.03552065
-0.042705063 0.010672913 0.023395618 0.045928176 -0.029863141 0.0080979355 -0.05896149 0.019432448
-0.03910278 -0.018487442 -0.008988944 -0.027222425 0.040231194 0.022847619 0.0015254058 -0.06305515
-0.08334099 -0.015264802 -0.03401739 -0.08177794 -0.04502744 -0.060919955 -0.00083863165 0.07882141
0.03601249 0.0200799 -0.04151103 0.033112455 0.012504529 0.038922884 0.058142472 0.01968762
0.0040589636 0.056715574 0.0021569745 0.0028586527 -0.0546485 0.0025163288 -0.0672756 -0.074905835
0.058837816 0.08016351 0.08646185 0.062083613 0.08023647 0.047927674 -0.07112396 -0.06061746
-0.06955652 0.031040238 0.014634077 -0.042090252 -0.0032694489 0.033115048 0.027344082 -0.008268963

params.core.6.bias f4 [64]
00000000: a238 78bd ce12 ce3c 173c 033c 14fa 4dbd
00000010: 602d adbc f79c 263d 2611 0eb9 8bbf ddbc
00000020: 4081 0b3d 7d6b 24bd ee80 a9bc 4ead 743d
00000030: 0b5e 773d 9295 0c3d f99d 0d3d b834 223d
00000040: c1f0 e63c 0d03 483c ecca 49bd 6586 c7bb
00000050: 5244 063d 4a19 67bc 9bf6 113d 7283 debb
00000060: 2a51 343c c3c0 08bd 95e9 8d3c b7b1 11bd
00000070: 3687 663d 79fb 9abc 811b 413d 5f6b bb3c
00000080: ff8a 89bb 2472 c73b 2be1 b63c 8d70 8e3c
00000090: 30db 343d 4182 033d 3ea2 f0bc 06a5 e03c
000000a0: 2bc1 8ebd 277e 24bd f8d2 993d a254 37bd
000000b0: da7e 6a3c a889 6b3d 055b 81bb 61ba 07bc
000000c0: 6e2e 2a3b 8094 7d3d 3275 dc3c 0478 b53c
000000d0: 9eef 243d 3087 093d 0e9d 903b b852 ac3d
000000e0: 1689 1f3c 5c1f 963d 1fce 2d3d 949e d23c
000000f0: b582 0c3d 3458 1fbd a437 563c 9511 8dbd
-0.060600884 0.025155451 0.008009932 -0.05028732 -0.0211398 0.040677037 -0.00013548564 -0.027068874
0.03405881 -0.04014157 -0.020691361 0.05973559 0.06039242 0.03432233 0.034574483 0.039601058
0.028190972 0.012207759 -0.049265787 -0.006089019 0.03278 -0.0141051505 0.035635572 -0.006790572
0.011005679 -0.033386957 0.017323295 -0.035569873 0.05628129 -0.01891874 0.04714537 0.022878347
-0.004197478 0.0060866047 0.022324165 0.017387653 0.044154346 0.03210664 -0.029374238 0.02742244
-0.069704376 -0.04015937 0.07510942 -0.044758447 0.01431247 0.057504326 -0.003947618 -0.008284182
0.0025967616 0.0619092 0.026911352 0.022151954 0.04026758 0.03357619 0.0044132536 0.08414215
0.009737274 0.073302 0.0424329 0.025710382 0.03430434 -0.038902476 0.013074789 -0.06888119

params.core.8.weight f4 [64, 64, 3, 3]
00000000: 701e cdbc bf7b 923c b1d7 933b 080f 043d
00000010: 5da1 df3c a348 073d 8fd2 71bd dc29 9fbc
00000020: 26c0 393d 05c1 7fbc 9953 1cbc 48e9 60bd
00000030: f10c e73c 4834 b23c aa3f 2ebe e7ac fcb9
00000040: 4c6b 4dbd d8a3 d53c 4254 6bbd 53d7 a6bd
00000050: e1c4 30bd a640 b73b e185 2a3d 9e33 f0bc
00000060: 60af 67bd 0740 a6bb baaa 563d ae3d b63c
00000070: 7492 94bb 0e0b 7a3d 3804 9b3b 4dc1 1dbd
00000080: 1d79 d9bc 9b62 8abd 6d94 d53a b58f c23c
00000090: 51ce 16bd 423b 11bc 0312 243d 90b3 6c3c
000000a0: ca19 c33c c890 f1bb 8395 1c3d 5662 2fbc
000000b0: 40e7 403b 5f2c 0a3d bd85 37bd 624c 32bd
000000c0: 7daf 7f3d a1be b83c d8c4 66bd afdc b3bc
000000d0: b65c 21bc a22d 82bc 52ba b23c 033a 063d
000000e0: 0a48 f53c 2428 2d3c 1dd5 063c dfc2 4b3d
000000f0: 0ee5 213c 68a1 2f3d a487 43bd b61e 03bc
00000100: 8a55 a53c d7c2 87bb 8372 8b3c 4b00 25bd
00000110: 080e adbc b7b8 ebbc 045e fe3c e7ff b1bc
00000120: 8ce9 8dbd 0213 8ebc ab7b 893c d7bc 6a3d
00000130: 4905 24bd 4958 783d 57dd 013e bf66 babc
00000140: 1aad e83c b546 11bd e758 07bd 3ff6 3d3d
00000150: 0a30 063c 38e1 1abd bb1f cabd cd6f 97bd
00000160: 5293 b33d 794a a0bc 337a 10bd 7c96 93bb
00000170: da62 22bd db75 743c e0ed 12bd d683 da3c
00000180: 36e7 233d 2a85 19bd b868 ec3b 6827 e13c
00000190: 24b8 a5bc b296 72bc 66a3 e5bc f74f adbc
000001a0: 1754 4bbc 1ec8 a8bb 9f6e 9e3c ca98 6dbd
000001b0: 6bb3 27bb 3e50 aaba d470 fa3d 0f7f 133c
000001c0: c256 463c 7123 1dbd 023f 3bbd 6dac 503a
000001d0: f07c 43bb a043 dbbc 6435 2abc f1d6 3c3d
000001e0: a95a babc b486 0e3b 2034 2a3d ca01 2fbd
000001f0: 5558 3fbc 4581 5f3c a7d8 0b3c 2c4b 67bd
00000200: f39a 403b a6f6 ecbb f62a dd3c 9fae 013d
00000210: e639 2fbc 13ec a7bc c07e 7abd 8ab7 e93c
00000220: 504f 583d 7593 18bd 3149 0abd 69f9 343d
00000230: bcb1 a03b 051b 62bd e9f7 dfbc ff30 5fbc
00000240: bdb3 003c 7bf7 41ba c2a2 183c d9d4 24bc
00000250: 0635 f63b 630e 89bb 8a18 cb3c a2c1 0fbd
00000260: 8ba7 37bd 6dfe 03bd 6862 a9bc 1ac5 fc3a
00000270: 3a96 80bb a312 c7bc 3236 15bc b6a9 09bc
00000280: b032 ad3c 28f7 0d3d 1160 213c 6a6b 7ebc
00000290: 06d5 7b3d a650 7a3d 03aa 123d 593d 00bd
000002a0: 249c 97bd 9226 7b3d f344 9fbd e3e7 06bd
000002b0: 3a9d 9dbd 1d4e eebc dd8b d83b b1ef 16bb
000002c0: 60bd 0cbd 603a 9c3d 42fb d83d e8a4 423e
000002d0: 9b12 0a3d 424d 05bd d943 84bc 7733 663c
000002e0: 9e53 abbc 14c5 1c3d 58bb 45bd e840 03bd
000002f0: 6a5f 013d baf6 07bc 4215 13bd 8b96 3c39
00000300: c370 19bd a29a 2ebd 2b57 50bc 5c8d bf3c
00000310: 011a 99bc 27b3 003d 9721 ad3c e1e7 e83c
00000320: f799 a03d 2c44 35bc 4b7b 04bd 1555 f6bc
00000330: fa9e 0c3d b996 7cbc 8b76 153d 2473 30b9
00000340: 4a5a f6bc 5689 8c3c d363 74bd 48e9 2fbc
00000350: f115 903c cf38 2b3d a734 263d 2b3a 873c
00000360: 5a7a ca38 d84f 10bc dbf3 6ebd 53cc 063d
00000370: 1032 813b beca 18bd f9ca e33c 66ca d6bc
00000380: bd5d b63c 58a7 993c 5316 5fbb 0b3b 1d3d
00000390: a9a8 eb3c b644 a83c f9c8 e83b 9063 46bd
000003a0: 3f7b dbbc 4fec 103d d6e1 43b8 d706 0cbd
000003b0: 271d 28bc 59fe d63c 7016 a0bb 7032 333d
000003c0: 78ba 4d3b e7ec 9ebc b4cb f43c d475 063d
000003d0: e350 24bd e227 cabc 0283 9a3c 55d3 6fba
000003e0: f2f9 c13b fdb3 05bd fe4e c83c b390 203d
000003f0: 87a6 4dbd f02d 243d b008 703c c26d ce3c
-0.025038928 0.017881272 0.0045117964 0.032240897 0.027298624 0.033028256 -0.059038695 -0.01942914
0.045349263 -0.015609984 -0.009541416 -0.054909974 0.028204413 0.021753445 -0.17016473 -0.00048194008
-0.050151154 0.026079103 -0.0574534 -0.081465386 -0.04315651 0.0055924235 0.041631583 -0.029321488
-0.056563735 -0.0050735506 0.05240891 0.022246208 -0.00453406 0.0610457 0.0047307275 -0.038514424
-0.02654701 -0.06757089 0.0016294845 0.023750165 -0.036817852 -0.008864226 0.04005624 0.014447108
0.023816008 -0.0073719956 0.038228523 -0.010704597 0.002943471 0.03373372 -0.044805277 -0.043529876
0.062423218 0.022551836 -0.05634007 -0.021955816 -0.009848764 -0.0158909 0.02181736 0.032770168
0.029941577 0.010568652 0.008229521 0.04974639 0.009881271 0.04287854 -0.04773678 -0.0080029275
0.02018239 -0.0041430998 0.017022377 -0.040283483 -0.021124855 -0.028774602 0.03105069 -0.021728469
-0.06929311 -0.017343048 0.016782602 0.057308998 -0.040044103 0.06063107 0.1268209 -0.022754071
0.028402854 -0.035467822 -0.03304377 0.046377417 0.008190164 -0.03781244 -0.09869333 -0.07394371
0.087683335 -0.019566761 -0.03527279 -0.004504023 -0.039645053 0.014920677 -0.035871387 0.026674192
0.04001542 -0.03748051 0.007214632 0.02748461 -0.020229407 -0.014806436 -0.028032016 -0.021156294
-0.012410185 -0.005150809 0.019339858 -0.05800704 -0.002558912 -0.0012993885 0.122285515 0.009002461
0.012105646 -0.038363878 -0.045714386 0.0007960264 -0.0029829107 -0.026765645 -0.010388706 0.04610342
-0.022748308 0.002174777 0.041553617 -0.042726316 -0.011678775 0.01364166 0.008535541 -0.056468174
0.0029389232 -0.007231551 0.026998024 0.031660672 -0.010694956 -0.020498311 -0.061156034 0.028529901
0.052810013 -0.03725 -0.033761207 0.04418317 0.004904 -0.05520155 -0.027339892 -0.013622521
0.007855353 -0.0007399243 0.009316148 -0.010060512 0.007513645 -0.0041826232 0.024791975 -0.035096772
-0.044837516 -0.03222506 -0.020676807 0.0019284815 -0.0039241584 -0.024300879 -0.009107159 -0.008402279
0.021142334 0.034659535 0.009849564 -0.015528539 0.06148245 0.06111207 0.035806667 -0.031308506
-0.07402828 0.06131608 -0.07776823 -0.03293599 -0.07696004 -0.029089982 0.00660847 -0.002303105
-0.03436029 0.07628322 0.105947986 0.19008219 0.03370915 -0.032544382 -0.016145634 0.014050356
-0.020913895 0.038273886 -0.048274368 -0.03204432 0.031585135 -0.00829857 -0.035908945 0.00017985159
-0.037461054 -0.042627938 -0.012716095 0.023382835 -0.018689157 0.031420853 0.021134181 0.028430881
0.078418665 -0.011063617 -0.032344144 -0.030069867 0.0343313 -0.015416794 0.036490005 -0.00016827561
-0.03007235 0.01715533 -0.059665512 -0.010736771 0.017588587 0.041802224 0.040577557 0.016507229
9.6549e-05 -0.008808099 -0.058338027 0.032909703 0.0039427355 -0.037302725 0.027806746 -0.026219558
0.022261495 0.018756554 -0.0034040406 0.038386386 0.028766947 0.020540576 0.007104036 -0.048434794
-0.026792167 0.03538161 -4.670195e-05 -0.03418621 -0.010260857 0.02624433 -0.0048854873 0.043749273
0.0031391662 -0.019400073 0.02988229 0.032827213 -0.040116202 -0.02467722 0.018861298 -0.00091486174
0.0059196884 -0.032642353 0.024451729 0.039200496 -0.05020764 0.040082872 0.014650509 0.025198821

params.core.8.bias f4 [64]
00000000: 9fe3 683d f574 083b 5ef8 c3bb d867 783d
00000010: d327 3e3d a77e 7bbb 70a8 793c 889a 85bc
00000020: 180c c4b9 184d 563d 807d 74bc f384 d43c
00000030: 2482 87bc 293a 0fbd 69cb 573d 72e0 6b3d
00000040: bf23 5dbd ba4b ad3c c290 c8bc d699 093d
00000050: b553 3abc 4e37 6a3d 6556 c83c 116c 29bd
00000060: 84c2 de3c e618 073d 09e6 20bd f452 2cbd
00000070: 03b0 d83d 7d23 613d 76c1 5f3c 9e59 a2bd
00000080: 8594 c93c 2d77 243d fd06 643c 8f9c 313d
00000090: e5aa 57bd e33f a0bc a9b2 163c b038 d5bc
000000a0: 80c6 9cbc e1a1 08bd 777d c0bc d980 77bd
000000b0: 9464 043d c29b 453d 5d4e 13bd 5e4c a33c
000000c0: b7b4 08bd 8501 f03c e4d1 fbbc bae3 86bd
000000d0: c8af 2ebd d2a9 d83c 638b f03c 6201 273d
000000e0: 0e1c 64bc 4f38 07bd 650a 14bd 6b9b 433d
000000f0: eea1 2dbd 2667 0ebd 8915 90bc 716f 2f3c
0.0568577 0.0020821665 -0.0059805354 0.060645908 0.046424698 -0.0038375051 0.015237913 -0.016309038
-0.00037393044 0.052319616 -0.0149225 0.025942301 -0.016541548 -0.034967575 0.05268422 0.057587095
-0.05398917 0.021154273 -0.024483088 0.033593975 -0.011372496 0.05718165 0.024455259 -0.041362826
0.027192362 0.03298273 -0.03928188 -0.042071298 0.105804466 0.054965485 0.0136569645 -0.07927249
0.024606952 0.040152717 0.013917682 0.043362197 -0.052653212 -0.019561714 0.009197869 -0.026028007
-0.01913762 -0.033357505 -0.023497326 -0.060425613 0.03232248 0.048244245 -0.035963405 0.019933876
-0.033375468 0.0292976 -0.030739732 -0.06586404 -0.042648107 0.026448164 0.02936334 0.040772803
-0.013922704 -0.033012684 -0.036142725 0.04775564 -0.042390756 -0.03476634 -0.017588394 0.010707722
