models/baseline/det_model.pth (torch, 848718 bytes, 16 tensors)

params.in_layer.0.weight f4 [32, 3, 3, 3]
-0.16611767 -0.048385855 -0.12549384 -0.21480776 -0.08505855 0.18955424 0.06485139 0.15256245
-0.02238352 -0.077730134 0.010915875 0.167338 0.06304074 -0.038192373 0.13089496 -0.17039056
0.11313526 0.17532998 -0.057320878 -0.070613205 0.0899908 0.05718565 0.014808246 -0.04306962
-0.02690635 -0.20842162 0.028973112 -0.10153479 0.005666234 0.08151276 0.049247693 0.14780805
-0.11684824 0.1937282 0.12311601 0.1451277 0.120792344 0.11310752 0.078091756 0.07495518
0.20549385 -0.10159879 -0.11268859 0.19990756 -0.11894478 -0.15243584 -0.16374351 -0.15848531
-0.14129218 0.18239462 -0.046588298 -0.046191316 -0.09855208 -0.16635436 -0.16291927 0.040754102
0.16494046 -0.008215586 -0.16455701 -0.10295476 0.017246239 0.1744824 -0.10783836 -0.108102
0.18684345 -0.054943375 0.107005894 0.1436819 0.18024233 -0.05226654 0.087117106 0.11907326
0.18237805 -0.15883467 -0.005279079 -0.04644992 0.072183974 0.029896824 -0.034469 -0.024839686
-0.11783596 -0.110137105 -0.0216439 -0.083585374 0.13138667 -0.058220223 -0.09324844 -0.06982331
-0.0006226948 -0.18217012 0.09013949 -0.014333062 0.0643329 0.009777038 -0.022867378 -0.11376637
0.13574933 -0.21077465 -0.098124154 -0.16754766 0.06015277 0.102388926 -0.113243446 0.08460164
-0.015223765 0.1161857 0.16102947 -0.13199468 0.12495095 -0.18396258 -0.047135457 0.04142614
-0.15088667 0.14931536 0.10102608 -0.14989914 0.018868985 0.041753586 -0.16335969 -0.042772196
0.05539746 -0.09703816 0.14696808 -0.13851433 0.10313812 0.041637335 -0.1250413 0.011976235
0.07093547 -0.08393606 -0.07639596 0.1196445 -0.07912552 0.1910985 -0.06937641 -0.18459056
-0.039326027 0.04588729 0.119289264 -0.11626694 0.17365913 -0.0008282792 -0.035939053 -0.048151955
-0.15250799 -0.10654738 -0.14249036 -0.13980341 0.18262602 -0.083731115 0.08059953 0.096424714
0.04481937 -0.018471584 -0.0902011 -0.04354337 -0.11069054 0.104574785 -0.16012913 0.15542518
0.0036267266 0.05377525 0.008209571 0.060562357 -0.03328412 -0.03737218 -0.14734563 0.036140103
-0.10557717 -0.19842473 0.044440597 -0.007388352 -0.147166 0.06709372 0.022607278 0.0866189
0.112759 -0.17320654 -0.1436658 0.029415624 0.0953766 0.08291546 -0.13297796 0.19038832
0.18628593 -0.035866182 0.19857931 0.0968969 0.056515377 -0.12951615 -0.094816566 -0.03806816
0.10891626 -0.032916844 -0.118601814 -0.019209461 -0.029528359 -0.06591501 -0.10499903 0.04684219
0.17802756 0.17106122 -0.1920248 0.15285385 -0.05900075 0.13118818 -0.15983939 -0.016902173
0.12726122 -0.017834295 0.11678297 -0.10930732 -0.13468786 0.071628824 -0.14681311 -0.19137867
-0.12938485 -0.11210265 -0.042175855 0.14517233 0.085836284 -0.17997323 -0.23323952 -0.15141916
0.07845031 0.123928316 0.13495004 0.09520783 -0.121286154 0.09314948 0.024332806 0.14354378
0.056176297 0.0016313223 -0.08644555 -0.19923979 -0.14400642 0.09064831 -0.14010644 -0.14922205
0.18672867 0.19828661 -0.19214427 -0.12734056 -0.095470615 0.15817921 0.16106476 -0.11166329
0.021024212 0.033891957 0.13129365 -0.07283422 0.13829716 0.18306983 -0.16116697 -0.10092033
00000000: c01a 2abe 3f30 46bd 7581 00be 91f6 5bbe
00000010: 2d33 aebd 821a 423e ced0 843d 5539 1c3e
00000020: a55d b7bc fa30 9fbd 80d8 323c a75a 2b3e
00000030: 811b 813d 9b6f 1cbd 5409 063e dd7a 2ebe
00000040: 76b3 e73d b489 333e 4cc9 6abd a89d 90bd
00000050: 194d b83d 803b 6a3d 499e 723c c569 30bd
00000060: b56a dcbc 7a6c 55be 0559 ed3c 79f1 cfbd
00000070: d1ab b93b 29f0 a63d f3b7 493d fe5a 173e
00000080: 214e efbd af60 463e 3f24 fc3d 5b9c 143e
00000090: fa61 f73d eaa4 e73d 92ee 9f3d 1a82 993d
000000a0: fb6c 523e 0713 d0bd 47c9 e6bd 91b4 4c3e
000000b0: 5299 f3bd 2418 1cbe 61ac 27be f949 22be
000000c0: e6ae 10be a8c5 3a3e 5fd3 3ebd 1b33 3dbd
000000d0: acd5 c9bd cc58 2abe 4fd4 26be c6ed 263d
000000e0: 27e6 283e aa9a 06bc a281 28be f2d9 d2bd
000000f0: fc47 8d3c 84ab 323e 5cda dcbd 9564 ddbd
00000100: e453 3f3e 4e0c 61bd e825 db3d 5921 133e
00000110: 7291 383e 7015 56bd 746a b23d aedc f33d
00000120: 50c1 3a3e 8ea5 22be 20fc acbb 4542 3ebd
00000130: 31d5 933d 2fea f43c 5e2f 0dbd 997c cbbc
00000140: fb53 f1bd 908f e1bd 8c4e b1bc cf2e abbd
00000150: 3a8a 063e 5478 6ebd 0af9 bebd 86ff 8ebd
00000160: 573c 23ba ce8a 3abe 0e9b b83d 38d5 6abc
00000170: f8c0 833d df2f 203c 5e54 bbbc 58fe e8bd
00000180: df01 0b3e 4fd5 57be 51f5 c8bd 9d91 2bbe
00000190: c062 763d 49b1 d13d 2eec e7bd a043 ad3d
000001a0: 196d 79bc c5f2 ed3d e9e4 243e 9d29 07be
000001b0: 49e6 ff3d b060 3cbe 1c11 41bd 75ae 293d
000001c0: 0982 1abe 20e6 183e c3e6 ce3d 297f 19be
000001d0: 2193 9a3c cf05 2b3d c347 27be e631 2fbd
000001e0: 72e8 623d f1bb c6bd cd7e 163e b3d6 0dbe
000001f0: 143a d33d e98b 2a3d d40a 00be f837 443c
00000200: 9e46 913d abe6 abbd 7c75 9cbd 2d08 f53d
00000210: 900c a2bd 53af 433e 3815 8ebd 4f05 3dbe
00000220: 5414 21bd 50f4 3b3d ee4d f43d 5d1d eebd
00000230: b3d3 313e e020 59ba d434 13bd fc3a 45bd
00000240: 0e2b 1cbe 8335 dabd fee8 11be a028 0fbe
00000250: 5102 3b3e 387b abbd 5e11 a53d 527a c53d
00000260: 8494 373d b851 97bc 5bbb b8bd 885a 32bd
00000270: b9b1 e2bd 4e2b d63d e4f8 23be c727 1f3e
00000280: 60ae 6d3b 7043 5c3d 7081 063c 3c10 783d
00000290: ee54 08bd 9213 19bd c6e1 16be a507 143d
000002a0: d838 d8bd da2f 4bbe 5807 363d fd19 f2bb
000002b0: afb2 16be 6f68 893d e632 b93c 4065 b13d
000002c0: 31ee e63d 0e5d 31be 211d 13be 09f9 f03c
000002d0: cf54 c33d 95cf a93d 602b 08be 28f5 423e
000002e0: bdc1 3e3e 6be8 12bd 6058 4b3e e271 c63d
000002f0: ab7c 673d e29f 04be 302f c2bd 5ced 1bbd
00000300: 7d0f df3d d0d3 06bd 82e5 f2bd 295d 9dbc
00000310: 75e5 f1bc 73fe 86bd bb09 d7bd 99dd 3f3d
00000320: db4c 363e ac2a 2f3e 26a2 44be b885 1c3e
00000330: c5aa 71bd 3256 063e f0ac 23be 6d76 8abc
00000340: c450 023e 3a19 92bc e92b ef3d 84dc dfbd
00000350: 9deb 09be 22b2 923d 2d56 16be c5f8 43be
00000360: 767d 04be 1396 e5bd 97c0 2cbd 0ea8 143e
00000370: efca af3d e74a 38be 57d6 6ebe a00d 1bbe
00000380: 8eaa a03d 21ce fd3d 5830 0a3e 53fc c23d
00000390: e064 f8bd 28c5 be3d 9855 c73c 24fd 123e
000003a0: 1e19 663d 18d2 d53a 5d0a b1bd 8405 4cbe
000003b0: 6b76 13be d2a5 b93d 1078 0fbe aacd 18be
000003c0: cd35 3f3e a50b 4b3e 78c1 44be 9065 02be
000003d0: 1986 c3bd bbf9 213e 29ee 243e b9af e4bd
000003e0: f83a ac3c 4bd2 0a3d d871 063e 1c2a 95bd
000003f0: c59d 0d3e a876 3b3e f408 25be 51af cebd

params.in_layer.0.bias f4 [32]
-0.027987864 0.18473808 -0.14567451 0.096174344 0.03153539 -0.13816826 -0.15596192 -0.046990857
0.03518577 0.10186695 -0.1622925 0.17807035 0.061072 -0.092433915 -0.083997965 -0.00049629516
0.15050806 0.13401629 -0.13771336 -0.1836273 0.011315296 -0.105024084 0.020757645 -0.121780396
0.031228762 0.15556416 0.027856516 -0.12342592 0.12057686 -0.1607304 0.12440529 -0.065016106
00000000: ce46 e5bc fb2b 3d3e b32b 15be 0ef7 c43d
00000010: 412b 013d fb7b 0dbe 7bb4 1fbe 7c79 40bd
00000020: f41e 103d 9f9f d03d 0130 26be 1358 363e
00000030: a226 7a3d fe4d bdbd 2007 acbd ce19 02ba
00000040: c91e 1a3e 913b 093e bb04 0dbe cc08 3cbe
00000050: cb63 393c de16 d7bd f00b aa3c 0068 f9bd
00000060: 76d3 ff3c 364c 1f3e 5933 e43c bbc6 fcbd
00000070: 00f1 f63d 8396 24be 33c8 fe3d 2a27 85bd

params.core.0.weight f4 [32, 32, 3, 3]
0.032946385 0.017991412 0.06739406 -0.039720446 -0.03767296 0.05522916 -0.05875115 0.013398473
0.08896614 0.022276236 -0.019545188 -0.0042260108 0.07854245 0.04392022 0.085545704 0.059364904
-0.006452996 0.018437402 0.024337344 0.080053575 0.040533908 0.06401907 0.02021247 0.0073422156
-0.00022023713 0.0014764692 0.081611395 -0.03866857 -0.09818544 -0.06233019 0.0559865 0.04504152
0.06074645 0.06600562 0.007966402 0.02820717 -0.05437082 0.06450536 0.022726804 -0.032370243
-0.012431253 0.0022592074 -0.05168329 -0.11839802 -0.15790075 -0.045630433 0.031076085 -0.031619355
0.053699683 0.012562331 -0.058192566 0.02233876 0.058227647 -0.03493093 -0.0461697 -0.035845548
-0.05580681 -0.054953616 0.0049786908 0.0233029 0.008598865 -0.024708353 0.030058187 0.047402937
-0.004058963 -0.03527269 0.029105717 -0.055689424 -0.027435767 0.047007114 0.035446618 -0.04322069
0.074265465 0.0045716977 0.07047869 0.018324077 -0.008694894 0.056548376 -0.055676736 0.0064672194
0.023282848 0.019102937 0.008986779 -0.026657447 0.0793934 0.055685107 -0.028223753 0.023015294
0.072082624 -0.0015603807 -0.022414643 0.0016459376 -0.019631512 -0.054287765 0.008631717 0.056866895
0.03832488 0.020383041 0.006053794 -0.051745646 -0.044247057 -0.046896864 -0.015288711 -0.021974077
-0.018846506 0.024543518 -0.000950863 0.046155788 -0.030429967 0.0496316 0.036631603 -0.04039723
0.055365168 -0.025516221 0.050563246 -0.041016422 -0.023363765 -0.06963653 -0.18899575 -0.1758909
0.19421676 0.13588743 0.1453338 0.052617647 -0.015909187 0.010236537 -0.019906748 0.026548473
0.030627625 -0.00062922627 0.06546446 0.10840044 -0.038694974 -0.03651815 -0.012320816 -0.0035632423
-0.0453207 -0.02751594 -0.038550835 -0.023860492 -0.038730685 -0.07540333 0.007953575 -0.047868844
0.06172841 0.0045894594 0.010766368 0.06062949 0.015421454 0.005615537 0.22193304 0.07708514
0.11678746 -0.031834994 0.025050037 0.040109582 0.024894174 0.02001571 -0.049132366 -0.023519173
-0.023951083 -0.009668907 -0.056876473 -0.10365352 -0.11819667 0.11849956 0.12501548 0.13349359
0.2122473 0.18588743 0.1905782 -0.019739866 -0.0008283723 -0.00948853 0.044200767 -0.032203015
-0.041871764 0.02733415 0.016293298 -0.0104933195 0.0029536125 0.06826467 -0.04944491 0.0026989756
-0.04922677 0.014167421 0.0630162 0.03352394 -0.026863124 0.033755366 -0.018164335 0.049812
0.011503559 -0.010364774 0.054362044 0.06366945 -0.047212515 0.019506134 -0.037715375 -0.030906064
-0.057828717 0.040424492 -0.0034778453 0.024861906 0.038900245 -0.029499315 -0.017869577 -0.03349188
-0.01243763 0.019174952 -0.055644684 0.03222399 0.021755163 -0.05607421 0.0017069988 0.04015186
0.010788867 -0.017532311 0.05121702 0.0061171916 0.043957256 -0.007042065 0.034612972 0.043110244
0.0068856496 -0.0060762446 -0.009002353 -0.0444377 0.026651643 0.042182233 0.062067065 0.018202987
-0.024645513 0.015629428 0.061283547 0.051281936 0.002740724 -0.012074721 0.048740428 -0.007252385
-0.05110453 0.038755234 -0.016182102 -0.010009367 -0.04005146 -0.040746048 0.039452437 0.028665233
-0.05432477 -0.017494563 -0.02905076 0.050789077 0.016543835 0.023027763 -0.019498227 -0.012162788
00000000: caf2 063d ba62 933c e605 8a3d e8b1 22bd
00000010: f64e 1abd f937 623d 0ca5 70bd 4585 5b3c
00000020: e133 b63d a77c b63c 3b1d a0bc 597a 8abb
00000030: ddda a03d b0e5 333d 9632 af3d 9d28 733d
00000040: a773 d3bb 090a 973c 1c5f c73c 21f3 a33d
00000050: e206 263d 6e1c 833d 9f94 a53c f896 f03b
00000060: 74ef 66b9 1686 c13a e023 a73d ef62 1ebd
00000070: 7315 c9bd f14d 7fbd 1a52 653d 757d 383d
00000080: 45d1 783d f42d 873d 8385 023c b912 e73c
00000090: f0b3 5ebd 631b 843d 902d ba3c a996 04bd
000000a0: 74ac 4bbc 360f 143b dcb1 53bd a97a f2bd
000000b0: bcb0 21be fae6 3abd 4693 fe3c 4c83 01bd
000000c0: 33f4 5b3d 3cd2 4d3c 545b 6ebd c6ff b63c
000000d0: 1d80 6e3d bc13 0fbd 701c 3dbd c8d2 12bd
000000e0: ae95 64bd 0b17 61bd 4924 a33b b9e5 be3c
000000f0: 41e2 0c3c 2c69 cabc 963c f63c 9529 423d
00000100: 0d01 85bb 197a 10bd 1d6f ee3c 981a 64bd
00000110: f9c0 e0bc 888a 403d 7930 113d 2e08 31bd
00000120: 7e18 983d 2ece 953b 2257 903d 601c 963c
00000130: 0775 0ebc 459f 673d 4a0d 64bd f8ea d33b
00000140: acbb be3c c37d 9c3c 483d 133c b860 dabc
00000150: 0299 a23d 1116 643d 8035 e7bc 928a bc3c
00000160: 0ea0 933d b085 ccba ea9e b7bc 80bc d73a
00000170: 44d2 a0bc d95c 5ebd 0c6c 0d3c 43ed 683d
00000180: 8dfa 1c3d 56fa a63c e85e c63b 3ef3 53bd
00000190: 673c 35bd ed16 40bd 807d 7abc fb02 b4bc
000001a0: fd63 9abc 7d0f c93c 5643 79ba da0d 3d3d
000001b0: 4448 f9bc 814a 4b3d 050b 163d 9177 25bd
000001c0: 96c6 623d 6507 d1bc 681b 4f3d d600 28bd
000001d0: 5e65 bfbc 999d 8ebd 1a88 41be be1c 34be
000001e0: c2e0 463e 1326 0b3e 62d2 143e 9a85 573d
000001f0: fc53 82bc 26b7 273c 7a13 a3bc 2f7c d93c
00000200: c9e6 fa3c a9f2 24ba 3b12 863d 0d01 de3d
00000210: 9f7e 1ebd 0e94 15bd 3fdd 49bc 4985 69bb
00000220: 33a2 39bd 1c69 e1bc 7be7 1dbd 1477 c3bc
00000230: 11a4 1ebd 106d 9abd b64f 023c 1f12 44bd
00000240: eed6 7c3d 2d63 963b 6c65 303c a156 783d
00000250: 44aa 7c3c 8a02 b83b 6a42 633e d0de 9d3d
00000260: 442e ef3d 6965 02bd bc35 cd3c f249 243d
00000270: deee cb3c fcf7 a33c 053f 49bd 48ab c0bc
00000280: 1035 c4bc 566a 1ebc 4ef7 68bd 4c48 d4bd
00000290: 1911 f2bd e6af f23d 0f04 003e 8bb2 083e
000002a0: 5b57 593e 4659 3e3e ef26 433e 80b5 a1bc
000002b0: 2027 59ba c875 1bbc dd0b 353d 4fe7 03bd
000002c0: ba81 2bbd deeb df3c 8679 853c 2cec 2bbc
000002d0: 6591 413b 59ce 8b3d bf86 4abd 4ce1 303b
000002e0: 02a2 49bd 781e 683c a30e 813d 6650 093d
000002f0: 0e10 dcbc 1143 0a3d 5fcd 94bc ab07 4c3d
00000300: 6c79 3c3c 03d1 29bc bcaa 5e3d 2165 823d
00000310: e961 41bd 54cb 9f3c 707b 1abd b72e fdbc
00000320: cedd 6cbd 2794 253d 90ec 63bb 32ab cb3c
00000330: dd55 1f3d 8ca8 f1bc 3863 92bc c82e 09bd
00000340: 34c7 4bbc ca14 9d3c aeeb 63bd 4dfd 033d
00000350: e237 b23c 12ae 65bd 60bd df3a 4776 243d
00000360: cac3 303c ec9f 8fbc f0c8 513d b972 c83b
00000370: 860c 343d 1fc1 e6bb 55c6 0d3d 5e94 303d
00000380: 04a1 e13b 3c1b c7bb 9b7e 13bc 4e04 36bd
00000390: 8c54 da3c 47c7 2c3d 093a 7e3d 6e1e 953c
000003a0: 63e5 c9bc 4909 803c 7504 7b3d 020d 523d
000003b0: b89d 333b 0dd5 45bc 0ba4 473d 6aa5 edbb
000003c0: fc52 51bd cfbd 1e3d 5490 84bc 54fe 23bc
000003d0: 000d 24bd 54e5 26bd e198 213d 5ad3 ea3c
000003e0: a683 5ebd c250 8fbc dcfb edbc 3508 503d
000003f0: f086 873c b8a4 bc3c bfba 9fbc 6e46 47bc

params.core.0.bias f4 [32]
0.04283917 -0.044109177 -0.008711046 0.041096665 -0.021639746 0.050343946 -0.015113502 -0.044330586
-0.001154495 0.041850016 0.066643104 0.0050778943 -0.0294165 -0.004961791 -0.02866913 -0.022309793
0.03939809 0.028786452 0.03409715 -0.015511931 -0.05195054 -0.04602441 -0.02481729 0.045119405
0.0077755116 0.033586115 0.023290057 0.03452737 0.056455318 0.051909685 -0.056753702 0.0152511215
00000000: 2078 2f3d d3ab 34bd c6b8 0ebc fa54 283d
00000010: d645 b1bc 7435 4e3d 9f9e 77bc fd93 35bd
00000020: 6d52 97ba ec6a 2b3d 2e7c 883d 7764 a63b
00000030: dffa f0bc 8596 a2bb 86db eabc 07c3 b6bc
00000040: e45f 213d 91d1 eb3c 74a9 0b3d c125 7ebc
00000050: 17ca 54bd 1784 3cbd a14d cbbc 20cf 383d
00000060: b8c9 fe3b 9891 093d caca be3c 926c 0d3d
00000070: b13d 673d 409f 543d 9276 68bd d7df 793c

params.core.2.weight f4 [32, 32, 3, 3]
-0.038004506 -0.034632772 0.01174 0.06543729 0.11994317 0.13935581 -0.028308587 0.0028891517
-0.015278398 0.048270386 0.01066214 -0.0013326006 0.0057065315 0.03828664 -0.06590877 0.07003428
0.09873072 0.022289464 -0.005276137 -0.01086264 -0.040834337 -0.08470484 0.008811186 -0.083144404
0.02496041 -0.010970069 0.040597454 0.18773758 0.24132468 0.24324235 -0.07065353 -0.014283838
0.04121089 0.10049868 0.2008965 0.14381343 -0.04785479 0.037629586 0.049251895 -0.032426517
-0.043300133 -0.03795174 0.05452949 0.047537953 0.032555122 0.014724406 -0.0013174509 -0.017540088
0.07751495 0.16567968 0.11575896 0.09042588 0.16404602 0.04532833 0.010677736 0.0533713
-0.022983942 0.033380378 -0.020030502 0.029796744 -0.005859563 0.0066906502 -6.758375e-06 0.01000115
-0.03967755 -0.026387876 0.035233766 0.015110546 0.09201121 -0.004027973 0.016516771 0.05475347
0.012712565 -0.060751595 -0.018409282 0.0542316 0.09360485 0.058627512 0.0482459 0.10094768
0.12738286 0.05864812 0.02336403 0.010152898 0.046881445 -0.012422521 0.05921567 0.0224172
-0.006354022 0.06728558 -0.047734883 -0.00024858167 0.004361166 -0.047938593 0.0063229455 -0.033949874
-0.04950519 0.028321015 -0.04446746 -0.007893696 -0.028305367 -0.035097286 0.004650036 -0.052826956
-0.029577289 0.018646926 0.01749618 -0.0147940805 0.14139126 0.09360099 0.16106002 0.15131213
0.14610939 0.1380807 -0.025407 0.093812235 0.020306561 0.07662834 0.12577957 0.0724959
0.2003742 0.1870674 0.16175856 0.04140473 0.12861262 0.12251401 0.07285581 -0.0027436088
0.024641918 0.015797481 -0.017426183 -0.086679064 0.004034275 0.021244496 -0.055485304 -0.057137135
-0.066085115 -0.11260663 0.0781203 0.049979012 0.04524772 -0.061661977 -0.11382796 -0.09076961
0.06878142 0.033190127 0.0048378697 -0.015611279 -0.03881001 -0.01632989 -0.0011805458 -0.09367181
-0.101857744 -0.0016008029 0.01744251 -0.022738658 0.062636554 0.035364803 -0.00049524027 0.03878774
-0.0132414475 -0.04382699 -0.013964045 0.01856645 -0.04382298 0.09085147 0.03971046 0.0362662
-0.042178273 -0.050747372 -0.021060098 -0.007204618 0.022969205 -0.055243474 -0.024977095 0.007434971
0.08602761 -0.049142748 0.048000652 0.07497797 -0.015478357 -0.012469165 0.020790659 0.042408053
-0.02624124 0.07592387 -0.03974677 -0.04078889 0.03771051 -0.012342378 -0.033262108 0.03550396
0.0034486912 0.056227986 0.00804811 0.025580926 0.01927031 0.011710181 0.03753394 0.0004323498
0.006333731 0.0724359 0.02953611 0.04816144 -0.0278687 0.026174933 -0.03660089 0.05647703
0.018622074 0.050665524 0.037974317 0.08366929 0.08642747 0.026785646 0.031373795 -0.00023279656
-0.014002844 -0.100119695 -0.12593153 0.015596493 0.07227728 0.09589256 0.09839839 0.17718646
0.14575626 0.057077013 0.003948247 -0.0048324466 -0.000969875 -0.012502622 -0.025525516 0.0028109297
-0.070864104 -0.0021200262 -0.034422208 0.033813078 -0.035994392 0.04660564 -0.08198295 -0.048667204
0.04004254 0.014024608 -0.039881065 -0.0008683548 0.052536897 0.03008806 -0.05227411 0.052243866
0.04566404 -0.032299913 -0.012272757 -0.029369894 -0.037092887 0.040264625 0.040128294 -0.045154057
00000000: 9daa 1bbd 18db 0dbd 2159 403c fc03 863d
00000010: c4a4 f53d 4ab3 0e3e 69e7 e7bc ec57 3d3b
00000020: 3f52 7abc 2bb7 453d 42b0 2e3c a8aa aeba
00000030: dbfd ba3b 74d2 1c3d 2dfb 86bd 226e 8f3d
00000040: 5533 ca3d 6598 b63c 72e3 acbb 37f9 31bc
00000050: e841 27bd bb79 adbd cb5c 103c 9d47 aabd
00000060: c679 cc3c cebb 33bc 8449 263d 483e 403e
00000070: d11d 773e 8614 793e ccb2 90bd c206 6abc
00000080: c0cc 283d 40d2 cd3d d0b7 4d3e d443 133e
00000090: 6203 44bd 7b21 1a3d 5bbc 493d abd1 04bd
000000a0: 7b5b 31bd 4973 1bbd 515a 5f3d 28b7 423d
000000b0: 8558 053d a33e 713c 51ae acba 3bb0 8fbc
000000c0: 28c0 9e3d efa7 293e 0913 ed3d 3431 b93d
000000d0: aefb 273e 33aa 393d acf1 2e3c dd9b 5a3d
000000e0: d248 bcbc ddb9 083d 0217 a4bc 4d18 f43c
000000f0: 9401 c0bb 3e3d db3b 00c6 e2b6 dddb 233c
00000100: ed84 22bd 632b d8bc 4851 103d 3992 773c
00000110: 6070 bc3d 16fd 83bb 2e4e 873c 2d45 603d
00000120: 5d48 503c aad6 78bd 10cf 96bc f421 5e3d
00000130: e6b3 bf3d 6723 703d 7e9d 453d a8bd ce3d
00000140: a770 023e 0339 703d ec65 bf3c 5758 263c
00000150: c206 403d d487 4bbc 218c 723d 47a4 b73c
00000160: 6635 d0bb 06cd 893d a785 43bd 1154 82b9
00000170: 1de8 8e3b 425b 44bd b630 cf3b 060f 0bbd
00000180: f4c5 4abd 7901 e83c 8323 36bd 9054 01bc
00000190: a8e0 e7bc 2cc2 0fbd 545f 983b 1461 58bd
000001a0: 124c f2bc 70c1 983c 2654 8f3c df62 72bc
000001b0: dfc8 103e e0b1 bf3d ebec 243e 91f1 1a3e
000001c0: b39d 153e 0765 0d3e 5722 d0bc a120 c03d
000001d0: f259 a63c 52ef 9c3d 5ccc 003e bb78 943d
000001e0: e52e 4d3e 998e 3f3e 09a4 253e 0298 293d
000001f0: 07b3 033e a0e8 fa3d 6d35 953d 1ece 33bb
00000200: d9dd c93c b869 813c 5bc1 8ebc cb84 b1bd
00000210: f431 843b f008 ae3c 8f44 63bd a108 6abd
00000220: a257 87bd 4e9e e6bd 89fd 9f3d cbb6 4c3d
00000230: ac55 393d 4591 7cbd a21e e9bd 6be5 b9bd
00000240: 46dd 8c3d 5ff2 073d fe86 9e3b 73c6 7fbc
00000250: 3ff7 1ebd 43c6 85bc 8bbc 9aba 02d7 bfbd
00000260: cb9a d0bd 08d2 d1ba 98e3 8e3c 6c46 babc
00000270: 9847 803d afda 103d 03d3 01ba e5df 1e3d
00000280: a8f2 58bc ee83 33bd 73c9 64bc ab18 983c
00000290: ba7f 33bd 5610 ba3d 6fa7 223d de8b 143d
000002a0: 20c3 2cbd 7adc 4fbd 3a86 acbc b714 ecbb
000002b0: ea29 bc3c fb46 62bd c49c ccbc 0fa1 f33b
000002c0: 3e2f b03d e849 49bd 559c 443d 0d8e 993d
000002d0: ef98 7dbc 784b 4cbc 2c51 aa3c 11b4 2d3d
000002e0: def7 d6bc f97d 9b3d 82cd 22bd 4012 27bd
000002f0: 5676 1a3d af37 4abc d93d 08bd 9a6c 113d
00000300: 7003 623b 514f 663d 38dc 033c 178f d13c
00000310: c5dc 9d3c 0fdc 3f3c 30bd 193d 02ad e239
00000320: 308b cf3b 4659 943d b6f5 f13c ee44 453d
00000330: e64c e4bc d06c d63c d1ea 15bd 7554 673d
00000340: 528d 983c a786 4f3d f58a 1b3d ce5a ab3d
00000350: e300 b13d 926d db3c cf81 003d da1a 74b9
00000360: 2f6c 65bc 8e0b cdbd 32f4 00be 6f88 7f3c
00000370: 1c06 943d 5263 c43d 1885 c93d 5e70 353e
00000380: 2141 153e 96c9 693d 4c60 813b 8059 9ebb
00000390: 363f 7eba ccd7 4cbc e31a d1bc 9337 383b
000003a0: 3321 91bd 23f0 0abb 4dfe 0cbd 957f 0a3d
000003b0: db6e 13bd 8ee5 3e3d ade6 a7bd 4357 47bd
000003c0: a503 243d 78c7 653c 545a 23bd 4ea2 63ba
000003d0: ee30 573d 3c7b f63c 611d 56bd aafd 553d
000003e0: 370a 3b3d ea4c 04bd ac13 49bc 2299 f0bc
000003f0: b6ee 17bd 85ec 243d 915d 243d 76f3 38bd

params.core.2.bias f4 [32]
0.040019743 -0.008007674 0.031144531 0.05263875 0.034633033 0.061663292 0.04576971 -0.019807607
0.0055779824 0.034223277 -0.009973562 0.06851283 -0.0091221705 -0.025971567 -0.036446314 0.0118132755
0.059259582 0.019190313 -0.033876643 0.010086592 -0.010553833 -0.054137554 -0.054899886 -0.019516047
0.06499939 -0.031488832 0.0673086 0.020276655 -0.0116116665 -0.052474514 0.0024584737 0.04335546
00000000: beeb 233d 9e32 03bc d122 ff3c bb9b 573d
00000010: 5edb 0d3d a692 7c3d 0579 3b3d 9043 a2bc
00000020: 82c7 b63b b52d 0c3d 2768 23bc 7450 8c3d
00000030: 2875 15bc 53c2 d4bc bb48 15bd 788c 413c
00000040: 2dba 723d 0135 9d3c 3cc2 0abd 3c42 253c
00000050: fce9 2cbc 57bf 5dbd b4de 60bd 1ee0 9fbc
00000060: 661e 853d 6ffa 00bd 17d9 893d 3a1b a63c
00000070: dc3e 3ebc 84ef 56bd 581e 213b 7f95 313d

params.core.4.weight f4 [64, 32, 3, 3]
0.01800174 0.0047036437 0.021619707 0.027551448 -0.04158103 0.0507859 -0.045762185 0.032880396
0.020276418 -0.03444764 0.0032174336 -0.039602257 0.004956178 -0.029557126 -0.015091172 -0.007720999
-0.0066517266 -0.014677562 -0.015774962 0.021955637 0.0067904936 0.05331007 -0.031742565 -0.029242026
0.026772765 -0.045192704 -0.0034494773 -0.023131164 -0.008586081 -0.05656589 -0.026697624 -0.01716153
-0.01982563 0.01949507 0.0020022 0.025655808 0.040059548 -0.01370709 0.028975563 0.0065675313
-0.012751658 -0.0030403605 0.029500676 0.0066301078 0.032188877 -0.046218444 0.051780365 -2.7080585e-05
0.041921638 -0.057562176 4.17165e-05 -0.00220922 -0.053098205 0.022531845 -0.022592178 0.008998639
0.047036942 -0.023851171 -0.04110023 -0.027077205 0.014725722 0.055067345 -0.054766733 0.010217255
0.054329857 -0.008642484 -0.035717867 -0.0057846247 -0.057639062 -0.025286758 -0.023366418 0.0495099
0.038201604 -0.057418328 0.028945567 0.010111728 -0.018019075 -0.019909138 -0.055489864 -0.018215109
0.0077092205 -0.0014272996 0.03202794 0.051294696 -0.0115091195 -0.024779845 0.0024486713 -0.016731903
-0.0058410047 0.035152785 0.052922126 -0.05747465 0.039819542 0.03968474 0.043879915 -0.033501986
-0.056862846 0.049295504 0.017267551 -0.009625186 -0.03491802 0.03179647 -0.054157943 0.029576354
-0.023550518 0.024579763 0.010174539 -0.05987466 -0.025086503 0.050382 0.02157731 -0.058122445
-0.037431207 -0.01312465 0.0029539801 0.01836188 0.025308458 -0.01926658 -0.017959464 -0.05229646
0.012316104 -0.020956434 0.016378947 -0.006554421 0.014203832 -0.035641026 -0.043473877 0.006787535
0.035522033 -0.024360362 0.022880096 0.016516719 -0.03999597 0.054492366 -0.043193113 0.045981985
0.031897005 -0.024039049 -0.019085467 -0.013877619 0.037344445 0.018331889 0.028442997 -0.051527083
0.022911577 0.010088697 -0.0038777469 0.038578004 -0.021401267 -0.033262946 0.03207407 -0.051416792
-0.045407787 0.03535324 -0.034917857 0.0050724167 -0.052100997 -0.038683306 -0.046411093 -0.05805062
-0.00921501 0.005982833 0.046566803 -0.005164862 -0.05282043 0.038746193 0.0023085745 0.03981967
-0.055082392 0.04365099 -0.0023234896 0.012685683 -0.047734737 0.021810116 0.037589934 0.013716251
-0.029251149 -0.021061331 -0.04446151 0.045158274 -0.0025068724 -0.040460244 0.03500713 -0.028533734
0.018211193 -0.027104361 -0.012650005 -0.021903109 -0.035629433 0.022154147 0.004656691 -0.058625422
-0.017296286 -0.019822521 0.005757067 0.034916025 0.018005226 -0.054476414 0.035859752 -0.022270918
-0.015889328 -0.048974007 -0.03256835 -0.016345613 -0.049966 0.010733213 0.029801678 0.02024836
-0.029246675 0.045399837 -0.019640602 -0.00890391 0.056303825 -0.050145864 0.036764342 -0.050731715
-0.0066757966 -0.048190605 0.036783546 -0.006660975 -0.060170397 -0.048385497 0.055183653 0.050239123
-0.035779715 -0.058093596 -0.057449546 0.03910619 0.036024977 0.056067046 -0.029712697 0.02677511
-0.05099476 -0.032576717 0.034711562 0.001752059 -0.019420682 0.047077272 -0.022499114 -0.01987682
-0.044609994 0.03098213 -0.058094926 -0.053373974 0.021537645 0.043342974 0.0025878549 0.012495134
0.040389556 -0.04778217 -0.014127668 -0.05757125 -0.04930376 -0.017335437 0.008174088 0.002551645
00000000: 6378 933c 0621 9a3b d01b b13c 93b3 e13c
00000010: df50 2abd e004 503d 2171 3bbd 98ad 063d
00000020: bb1a a63c f818 0dbd 94db 523b fa35 22bd
00000030: 6f67 a23b c921 f2bc f740 77bc 6f00 fdbb
00000040: baf6 d9bb 287a 70bc 7e3a 81bc 4fdc b33c
00000050: ca82 de3b a95b 5a3d 7e04 02bd f98c efbc
00000060: 8f52 db3c fc1b 39bd a010 62bb 917d bdbc
00000070: a2ac 0cbc a2b1 67bd fab4 dabc 5696 8cbc
00000080: 5c69 a2bc 20b4 9f3c 5837 033b 212c d23c
00000090: 7b15 243d b493 60bc 295e ed3c 7234 d73b
000000a0: 55ec 50bc c940 47bb 67ab f13c 6041 d93b
000000b0: 7cd8 033d 8d4f 3dbd a617 543d 1d2b e3b7
000000c0: 06b6 2b3d 51c6 6bbd c0f8 2e38 90c8 10bb
000000d0: 817d 59bd b494 b83c 3b13 b9bc 076f 133c
000000e0: cfa9 403d 8863 c3bc b758 28bd 04d1 ddbc
000000f0: 2844 713c 4c8e 613d 1553 60bd 4666 273c
00000100: fc88 5e3d 3599 0dbc e64c 12bd f38c bdbb
00000110: f016 6cbd 2d26 cfbc ee6a bfbc e5ca 4a3d
00000120: 4979 1c3d 7b2f 6bbd 411f ed3c a9ab 253c
00000130: bd9c 93bc 7d18 a3bc 5749 63bd da37 95bc
00000140: a19d fc3b 3a14 bbba bb2f 033d 631a 523d
00000150: bf90 3cbc 1aff cabc e379 203b 5811 89bc
00000160: e665 bfbb 5efc 0f3d dfc4 583d 8a6a 6bbd
00000170: d119 233d 778c 223d 6dbb 333d 6139 09bd
00000180: 04e9 68bd 15ea 493d ae74 8d3c f5b2 1dbc
00000190: 3306 0fbd 043d 023d b8d4 5dbd 1c4a f23c
000001a0: 04ed c0bc 805b c93c 1cb3 263c 223f 75bd
000001b0: 3682 cdbc 5b5d 4e3d e6c2 b03c cd11 6ebd
000001c0: 7751 19bd c608 57bc 9097 413b a76b 963c
000001d0: af53 cf3c f2d4 9dbc ba1f 93bc d034 56bd
000001e0: 7cc9 493c d4ac abbc 242d 863c 78c6 d6bb
000001f0: 30b7 683c 53fc 11bd aa11 32bd f869 de3b
00000200: 8d7f 113d 628f c7bc 0a6f bb3c 124e 873c
00000210: d0d2 23bd 6333 5f3d 43eb 30bd 9b57 3c3d
00000220: 6fa6 023d 8aed c4bc 2059 9cbc f45e 63bc
00000230: 7df6 183d c22c 963c 4a01 e93c 100e 53bd
00000240: 0fb1 bb3c 104b 253c cc21 7ebb f803 1e3d
00000250: b651 afbc ba3e 08bd 1a60 033d 6a9a 52bd
00000260: 84fd 39bd 8fce 103d 0706 0fbd 8436 a63b
00000270: db67 55bd 6372 1ebd 8f19 3ebd 7dc6 6dbd
00000280: 8efa 16bc a40b c43b d5bc 3e3d 013e a9bb
00000290: 3c5a 58bd 54b4 1e3d 744b 173b f319 233d
000002a0: 139e 61bd 61cb 323d b045 18bb 9cd7 4f3c
000002b0: 8085 43bd 21ab b23c e7f7 193d 20ba 603c
000002c0: 1ba0 efbc d088 acbc 461d 36bd e2f7 383d
000002d0: 574a 24bb a4b9 25bd a363 0f3d 94bf e9bc
000002e0: a42f 953c f709 debc f741 4fbc 266e b3bc
000002f0: 2bf0 11bd 9d7c b53c 2897 983b 3621 70bd
00000300: f1b0 8dbc d762 a2bc c7a5 bc3b 1b04 0f3d
00000310: b27f 933c a922 5fbd ade1 123d 8071 b6bc
00000320: 562a 82bc f898 48bd 6466 05bd 3ce7 85bc
00000330: 26a9 4cbd 5cda 2f3c a622 f43c e3df a53c
00000340: b996 efbc 2ef5 393d 54e5 a0bc b5e1 11bc
00000350: d79e 663d c065 4dbd 3596 163d 0fcc 4fbd
00000360: a4c0 dabb 8363 45bd 58aa 163d 4f44 dabb
00000370: 3c75 76bd df2f 46bd 4108 623d 8ac7 4d3d
00000380: c08d 12bd 8df3 6dbd 3750 6bbd d02d 203d
00000390: ed8e 133d 8fa6 653d 0b68 f3bc 7a57 db3c
000003a0: e2df 50bd 2a6f 05bd b62d 0e3d 58a5 e53a
000003b0: 1f18 9fbc 19d4 403d 1050 b8bc b6d4 a2bc
000003c0: f8b8 36bd 3cce fd3c f2f4 6dbd ab9e 5abd
000003d0: b76f b03c 6788 313d 0099 293b 64b8 4c3c
000003e0: 856f 253d 3db7 43bd bc77 67bc d5cf 6bbd
000003f0: bdf2 49bd 0c03 8ebc 9cec 053c 8039 273b

params.core.4.bias f4 [64]
0.0024367496 0.011158799 -0.025017854 0.027512932 0.06944979 -0.061350815 -0.049989615 0.020584686
0.05225085 0.041568484 0.05434807 0.02361618 0.042782526 0.028247448 -0.01877624 -0.048285715
0.016520122 0.0012029322 -0.025726834 0.080317594 0.09327057 -0.003428975 -0.010240171 -0.05210199
0.032534406 -0.008682226 0.056002013 -0.06023561 0.047598373 -0.043765754 0.015571489 0.08845036
-0.006642813 -0.07287515 -0.06927836 0.008489063 0.005151936 -0.03274518 -0.013335452 -0.10489797
0.011241097 -0.048044417 -0.01939441 0.0050430913 -0.025660707 0.011341877 0.04342576 -0.025046168
-0.023781104 -0.009500768 0.06567484 0.02111314 0.038210936 -0.020108292 -0.03190084 0.0883373
-0.012191907 0.040037714 0.01575019 -0.013935209 0.010522873 0.09630622 -0.051053874 -0.022762645
00000000: e0b1 1f3b 65d3 363c 3ef2 ccbc cd62 e13c
00000010: b13b 8e3d fe4a 7bbd e9c1 4cbd 37a1 a83c
00000020: fd04 563d b743 2a3d 159c 5e3d b876 c13c
00000030: bb3c 2f3d 3167 e73c a1d0 99bc 3ec7 45bd
00000040: 3555 873c b5ab 9d3a 15c1 d2bc 8d7d a43d
00000050: a404 bf3d a7b8 60bb 64c6 27bc e568 55bd
00000060: cc42 053d e53f 0ebc 5e62 653d 9db9 76bd
00000070: 83f6 423d b843 33bd 8f1f 7f3c 7625 b53d
00000080: f4ab d9bb 913f 95bd d0e1 8dbd b615 0b3c
00000090: 92d1 a83b cf1f 06bd f17c 5abc bfd4 d6bd
000000a0: 942c 383c 39ca 44bd 07e1 9ebc 8440 a53b
000000b0: 6736 d2bc 48d3 393c 36df 313d 9f2d cdbc
000000c0: 97d0 c2bc 1ca9 1bbc 8880 863d 77f5 ac3c
000000d0: 1283 1c3d 25ba a4bc 75aa 02bd 30ea b43d
000000e0: 90c0 47bc 96fe 233d 8b06 813c 8150 64bc
000000f0: 2168 2c3c 323c c53d de1d 51bd ba78 babc

params.core.6.weight f4 [64, 64, 3, 3]
0.035017584 0.0253574 0.034961317 0.027203608 0.03451914 -0.008229762 -0.013576936 0.029920917
-0.040478762 -0.014280927 0.009185152 0.004346177 -0.013919316 -0.06378975 -0.046806615 -0.016034115
-0.022900773 -0.0034788135 0.012746859 0.0039541908 -0.036033913 -0.0014690608 -0.012793168 -0.03307575
0.028042976 0.029728709 0.023409098 0.080630586 0.0853622 0.10074722 0.010145028 0.049166106
0.06391451 0.118405655 0.119367965 0.11325574 -0.0315418 -0.047332585 0.006831642 -0.022089528
-0.054449283 -0.077757396 0.058940854 0.006386354 0.022854375 -0.018662661 -0.01494679 -0.014051235
-0.03796733 -0.028289996 -0.012298416 0.03680549 -0.027826566 0.032147203 0.011721744 0.013075532
-0.029787263 -0.02403546 -0.039055813 0.008993055 0.0027062683 0.008917326 -0.034433804 0.026219979
0.020093717 -0.0011266673 -0.038382012 -0.019780729 -0.0029920612 -0.009111897 -0.0009821081 0.01986342
-0.029165441 -0.019889126 -0.0033530104 -0.038146887 0.029590078 0.050478723 -0.06619174 -0.014190751
-0.00425624 0.008175892 -0.014985617 0.013964839 -0.104988314 -0.055983223 -0.0613207 0.03232149
0.084903575 0.045982223 0.021976879 -0.0048436415 0.0030773832 0.025196796 -0.0059457966 0.0085992515
-0.016702088 0.0015647644 -0.0157027 0.0351934 -0.0033841033 0.022337265 0.009955479 -0.0024258806
0.017158292 0.033550248 0.054769035 0.11616843 0.024915438 0.009162427 0.0021303026 0.033829555
-0.011496769 -0.01961214 0.037478577 0.01867731 -0.02418166 -0.018248737 -0.043445934 0.0038343724
0.039166942 -0.059931282 -0.02599973 -0.012776127 -0.025430767 0.020295415 0.058352046 0.0033529983
0.022736492 -0.03580318 0.011610703 0.038619045 -0.024517106 -0.008919944 0.0018641481 0.009743439
-0.038377415 0.010201722 0.003446834 0.0340105 -0.0515364 -0.055096332 0.028987372 -0.0072420603
0.038001843 0.05034377 -0.012740238 -0.051695857 0.0035016758 0.00962743 -0.05993187 0.10297509
0.07008389 -0.0057475064 0.054290358 -0.010243337 -0.045950714 0.026140573 0.026163382 -0.027822467
0.072019316 0.051264524 0.016457116 -0.006205451 -0.014407566 0.033247974 0.0074210386 0.022966873
0.0335586 -0.02377299 0.0069070216 -0.005532684 -0.011985375 0.019675609 0.06216732 0.01083584
-0.000304171 -0.024042087 -0.03630575 -0.043397527 -0.012526789 -0.015642911 0.025544345 0.0017575707
-0.034101553 -0.027822405 -0.00058880704 0.046956472 0.033788238 -0.01449143 -0.026627973 0.02737492
-0.026761811 0.032120813 0.040380713 0.042517316 -0.008459378 -0.034949996 -0.054001976 0.027525596
0.043273583 -0.06108423 -0.030582586 -0.009169152 0.024947207 0.07937922 0.07954806 -0.022045841
0.005189363 0.03932556 -0.012008702 -0.033915795 0.013708312 0.015986353 0.023121381 -0.029021047
-0.006096913 0.03291438 0.0006912215 -0.07605926 0.003100206 -0.053219993 0.015789751 0.011306731
-0.0009906271 0.010940752 -0.024204765 -0.0018087972 -0.013209013 -0.0036682195 -0.029185284 0.07125722
0.13229236 0.18705879 -0.017596008 -0.0019354532 0.010023168 0.0029876563 0.034057647 -0.007537123
-0.020008018 0.071723595 0.10431783 -0.02744713 -0.037960093 0.04739165 -0.02188009 0.0020055326
-0.013071643 -0.023187524 0.08518189 0.057924427 0.030686026 -0.0035221863 0.029704224 -0.054340348
00000000: 996e 0f3d 52ba cf3c 9933 0f3d 1ada de3c
00000010: f163 0d3d 20d6 06bc cc71 5ebc b61c f53c
00000020: 0fcd 25bd 8dfa 69bc 527d 163c 606a 8e3b
00000030: d80d 64bc 33a4 82bd 4bb8 3fbd fa59 83bc
00000040: 679a bbbc cefc 63bb 34d8 503c 2892 813b
00000050: 4c98 13bd 808d c0ba 709a 51bc 707a 07bd
00000060: 62ba e53c 9f89 f33c 70c4 bf3c a621 a53d
00000070: 61d2 ae3d 8f54 ce3d 5537 263c 6662 493d
00000080: 9ce5 823d aa7e f23d 3177 f43d a0f2 e73d
00000090: f931 01bd d0df 41bd f7db df3b 19f5 b4bc
000000a0: 3606 5fbd 453f 9fbd f76b 713d 9f44 d13b
000000b0: 1939 bb3c 70e2 98bc 62e3 74bc 2737 66bc
000000c0: a283 1bbd 6cc0 e7bc 4c7f 49bc 5ac1 163d
000000d0: 8af4 e3bc c9ac 033d 8f0c 403c c23a 563c
000000e0: 6b04 f4bc 03e6 c4bc fdf8 1fbd 9b57 133c
000000f0: a65b 313b fa19 123c 760a 0dbd 48cb d63c
00000100: 949b a43c aeac 93ba 7536 1dbd 320b a2bc
00000110: 7516 44bb 114a 15bc 14ba 80ba 9cb8 a23c
00000120: 5dec eebc 85ee a2bc 2ebe 5bbb e93f 1cbd
00000130: e466 f23c c7c2 4e3d 898f 87bd 5380 68bc
00000140: ee77 8bbb 2df4 053c 3c86 75bc c8cc 643c
00000150: 1d04 d7bd aa4e 65bd 6a2b 7bbd 8a63 043d
00000160: ede1 ad3d db57 3c3d db08 b43c 69b7 9ebb
00000170: ecad 493b 8369 ce3c f5d4 c2bb e0e3 0c3c
00000180: d1d2 88bc c818 cd3a f3a2 80bc f426 103d
00000190: d5c7 5dbb a4fc b63c 4e1c 233c 86fb 1ebb
000001a0: 8c8f 8c3c fc6b 093d 7f55 603d b7e9 ed3d
000001b0: 761b cc3c 011e 163c 8c9c 0b3b dc90 0a3d
000001c0: f25c 3cbc a3a9 a0bc 2383 193d 2801 993c
000001d0: 9e18 c6bc 607e 95bc 5df4 31bd 184a 7b3b
000001e0: 846d 203d 817a 75bd 63fd d4bc f652 51bc
000001f0: 2f54 d0bc 9242 a63c 8e02 6f3d fabd 5b3b
00000200: e141 ba3c 5ba6 12bd d13a 3e3c 012f 1e3d
00000210: 19d8 c8bc f524 12bc 6e56 f43a f2a2 1f3c
00000220: a331 1dbd 2025 273c 47e4 613b 984e 0b3d
00000230: d517 53bd b1ac 61bd ed76 ed3c ce4e edbb
00000240: d2a7 1b3d 4535 4e3d 6ebc 50bc 09bf 53bd
00000250: 5f7c 653b 5ebc 1d3c 1f7b 75bd 9be4 d23d
00000260: 2488 8f3d 9455 bcbb 915f 5e3d abd3 27bc
00000270: d136 3cbd c124 d63c 9754 d63c f1eb e3bc
00000280: dd7e 933d c0fa 513d 13d1 863c 1957 cbbb
00000290: b60d 6cbc 072f 083d 2f2c f33b 0625 bc3c
000002a0: be74 093d 93bf c2bc 4c54 e23b 844b b5bb
000002b0: 4e5e 44bc be2e a13c 29a3 7e3d cf88 313c
000002c0: 2479 9fb9 e9f3 c4bc 57b5 14bd 9bc1 31bd
000002d0: 293d 4dbc 9025 80bc 6042 d13c 495e e63a
000002e0: 12ae 0bbd d0eb e3bc 2c5a 1aba 6e55 403d
000002f0: 8965 0a3d 766d 6dbc e822 dabc 5e41 e03c
00000300: 963b dbbc 1d91 033d 3f66 253d a326 2e3d
00000310: 3499 0abc ba27 0fbd 2d31 5dbd 5c7d e13c
00000320: a43f 313d 7533 7abd 5588 fabc 363a 16bc
00000330: 165e cc3c 9391 a23d 18ea a23d 7b99 b4bc
00000340: 880b aa3b d713 213d 26c0 44bc 4aeb 0abd
00000350: d498 603c d0f5 823c 0d69 bd3c 8cbd edbc
00000360: 9dc8 c7bb 3bd1 063d 1733 353a f5c4 9bbd
00000370: d32c 4b3b 35fd 59bd 8259 813c de3f 393c
00000380: eed7 81ba d740 333c 1249 c6bc 2a15 edba
00000390: 9e6a 58bc 8366 70bb fa15 efbc 4eef 913d
000003a0: a677 073e 578c 3f3e 8125 90bc 08af fdba
000003b0: 3738 243c 8ecc 433b 0880 0b3d f8f9 f6bb
000003c0: dbe7 a3bc d2e3 923d 96a4 d53d ced8 e0bc
000003d0: 0b7c 1bbd bf1d 423d e03d b3bc 416f 033b
000003e0: 722a 56bc c3f3 bdbc d873 ae3d 2a42 6d3d
000003f0: 4361 fb3c 7bd4 66bb 4656 f33c fc93 5ebd

params.core.6.bias f4 [64]
-0.011371424 -0.02718015 0.06078524 0.04966297 0.060490593 0.046254847 0.06635999 0.021306287
0.040734027 -0.030411748 0.024744956 -0.013009319 -0.010644272 0.060330503 -0.073392466 -0.012387141
0.065998614 -0.018279454 0.023172172 -0.08791339 0.017137792 0.007949761 0.05560001 0.060966354
-0.01610273 -0.03478171 -0.09602086 -0.017167052 -0.0023377703 0.047371875 -0.014093246 0.031134963
-0.034952115 -0.019522667 0.00819033 0.02573172 0.03124105 -0.04315001 0.09231752 -0.0011164247
0.07722488 0.056111183 -0.0017842337 0.04780596 -0.030583698 -0.037318435 0.020545943 0.029199814
0.04715391 -0.02523497 -0.0056420853 -0.039371826 -0.055832166 -0.034579407 0.0028706691 0.07639544
0.02979257 0.0224915 0.045088153 0.034860995 0.04768904 0.032809507 0.035384383 -0.040980447
00000000: 364f 3abc e8a8 debc f2f9 783d 666b 4b3d
00000010: fcc4 773d b975 3d3d bfe7 873d 868a ae3c
00000020: b9d8 263d 0f22 f9bc efb5 ca3c 0a25 55bc
00000030: 5065 2ebc 1e1d 773d ca4e 96bd 6ff3 4abc
00000040: 482a 873d cbbe 95bc 91d3 bd3c ef0b b4bd
00000050: 8e64 8c3c b73f 023c d6bc 633d dbb7 793d
00000060: dfe9 83bc 4477 0ebd 96a6 c4bd eba1 8cbc
00000070: 4735 19bb 0309 423d 5ce7 66bc c00e ff3c
00000080: f329 0fbd 00ee 9fbc bc30 063c 54cb d23c
00000090: 3bed ff3c 11be 30bd f810 bd3d ff54 92ba
000000a0: 1428 9e3d d7d4 653d f3dc e9ba 2fd0 433d
000000b0: aa8a fabc 37db 18bd f74f a83c 7334 ef3c
000000c0: 7524 413d 91b9 cebc 3ee1 b8bb 5a44 21bd
000000d0: 45b0 64bd 23a3 0dbd d621 3c3b 3675 9c3d
000000e0: 8c0f f43c 1840 b83c 5bae 383d 67ca 0e3d
000000f0: 9555 433d 4363 063d 37ef 103d 1ddb 27bd

params.core.8.weight f4 [64, 64, 3, 3]
0.03150934 -0.015675042 -0.026452094 0.042086747 0.023010373 -0.039046645 0.07101996 -0.0017726826
-0.0063023744 0.02612129 -0.054301117 -0.013195371 -0.0070845 -0.027186062 -0.06822443 0.01905574
-0.0035897922 0.013469564 0.103440024 0.015740773 0.0076016854 0.0019713782 0.0052220435 -0.05349644
0.020991331 -0.019594697 -0.005699014 -0.002041455 0.050270416 0.05267752 -0.023920452 0.03770927
0.032885317 -0.13616472 0.0047586574 -0.02256535 0.04805033 0.029301327 -0.053894963 0.049450535
-0.0100139985 -0.08040952 0.029390097 0.020389214 0.027362078 -0.014992367 -0.078566715 -0.024149615
-0.04401187 -0.011229862 -0.0435266 0.0021701027 -0.026898205 -0.0502393 0.04518402 -0.005418958
0.017027928 0.031269763 0.053161915 -0.0015666331 -0.037963286 0.038305406 -0.06614712 -0.029785734
-0.023739856 0.020097092 -0.0046007666 -0.021803873 0.01208471 -0.101963714 -0.022892963 -0.02783814
-0.029287525 0.06731573 0.0072531234 -0.026003588 0.0014323377 0.02379795 -0.12460516 0.0026815278
-0.052911203 0.03395587 0.014648028 0.0275947 0.02072781 -0.017662775 -0.023451736 0.03262757
-0.038348384 0.03404591 0.047225725 0.0018885272 0.016099699 0.07406516 0.013560371 -0.047453422
0.052720275 -0.023413416 -0.045026623 0.054376885 -0.016348526 -0.03970514 0.05924352 -0.02226479
-0.024004908 0.0432948 0.026636578 0.043845423 -0.010023637 0.0072252913 0.008010851 -0.0142037375
0.011413744 -0.007154093 -0.02417495 0.034111604 -0.011812887 0.035998467 0.0031248992 0.07795031
0.0011019392 0.01593703 0.0903069 -0.06308095 -0.009086793 0.018104438 -0.022420285 -0.086733595
-0.10236008 0.019070216 -0.018553909 -0.06534322 0.030781085 0.0054013133 0.034721226 0.05572279
-0.008477766 -0.050733328 0.022488683 -0.0052575776 -0.041964445 0.029336615 0.00035139263 0.015588208
-0.03864581 0.02658188 0.08666496 -0.0059926677 0.009054202 -0.0007852906 -0.07565687 0.001881659
-0.042933855 -0.013007805 0.01560634 0.02676097 0.020360004 -0.004978273 0.0038024373 0.017707113
-0.0068609864 0.0068440177 -0.01577026 0.050382577 0.039714273 -0.06746799 0.0444706 -0.0304284
-0.07502796 -0.01890366 0.011300251 0.026453493 -0.07378292 -0.036683023 0.021217303 -0.031591307
-0.071104385 0.04054037 -0.012153696 -0.025251819 -0.055733435 0.008019453 0.04152852 0.0058286926
-0.0018185751 0.027794648 -0.109025635 0.058592148 0.06021943 0.012955284 -0.038611818 -0.035740983
-0.02230533 -0.01439733 -0.045000825 0.049792446 0.033982147 0.042140517 0.0030254077 -0.02205637
-0.044660226 0.011748063 0.01646258 -0.0015760171 0.08129153 0.036781438 -0.04938675 0.06637999
0.0258678 -0.02003153 0.046709664 0.0043131593 0.0014619173 0.024680903 0.011207663 0.023731474
-0.044409513 -0.032254424 -0.02988266 -0.058917705 -0.06673245 0.0003078495 0.017861245 0.051784173
0.020844746 -0.026810642 0.013557396 0.005710631 0.013370691 -0.031722676 0.05061553 -0.060911756
-0.018380294 0.08955026 -0.008959025 -0.066152364 -0.03188213 -0.035763834 -0.079720125 -0.08346637
0.011959827 0.021229105 0.054418664 0.03876411 0.034720916 0.010142419 -0.025784371 0.024439493
-0.040278956 -0.038988616 0.0018250647 -0.016532505 -0.011235321 0.03299522 0.018299736 0.019961433
00000000: f00f 013d f268 80bc 10b2 d8bc 2763 2c3d
00000010: 4080 bc3c 60ef 1fbd ea72 913d 5c59 e8ba
00000020: 2684 cebb 51fc d53c d96a 5ebd 6631 58bc
00000030: 1825 e8bb 4eb5 debc 40b9 8bbd c91a 9c3c
00000040: b842 6bbb 72af 5c3c 5dd8 d33d cbf2 803c
00000050: 8f17 f93b 3d32 013b ad1d ab3b 151f 5bbd
00000060: 03f6 ab3c 0f85 a0bc cbbe babb eec9 05bb
00000070: 5ae8 4d3d 62c4 573d d3f4 c3bc 0975 1a3d
00000080: c1b2 063d c46e 0bbe 83ee 9b3b f8da b8bc
00000090: 6cd0 443d 5609 f03c f7c0 5cbd a58c 4a3d
000000a0: c111 24bc bfad a4bd 80c3 f03c 4807 a73c
000000b0: 7026 e03c 8ba2 75bc 96e7 a0bd 6ad5 c5bc
000000c0: ca45 34bd 75fd 37bc f348 32bd 4838 0e3b
000000d0: a059 dcbc b9c7 4dbd e112 393d 8491 b1bb
000000e0: 277e 8b3c b914 003d 4fc0 593d 7c57 cdba
000000f0: 647f 1bbd 21e6 1c3d 2478 87bd 3601 f4bc
00000100: 167a c2bc a8a2 a43c 07c2 96bb 099e b2bc
00000110: f3fe 453c 5ad2 d0bd 068a bbbc d00c e4bc
00000120: 64ec efbc d4dc 893d 9cab ed3b 7a05 d5bc
00000130: 47bd bb3a ebf3 c23c fd30 ffbd 92bc 2f3b
00000140: 6bb9 58bd 4f15 0b3d 48fe 6f3c 480e e23c
00000150: 5ecd a93c 86b1 90bc db1d c0bc 7da4 053d
00000160: 3213 1dbd b973 0b3d c36f 413d 7588 f73a
00000170: 84e3 833c 79af 973d 512c 5e3c 855e 42bd
00000180: 37f1 573d 7ecd bfbc d66d 38bd 4cba 5e3d
00000190: 58ed 85bc dba1 22bd 55a9 723d a664 b6bc
000001a0: f1a5 c4bc e355 313d f434 da3c 4297 333d
000001b0: 2e3a 24bc 23c2 ec3b f23f 033c cbb6 68bc
000001c0: b600 3b3c e26c eabb 8b0a c6bc 9cb8 0b3d
000001d0: d78a 41bc 2173 133d 1ccb 4c3b 6aa4 9f3d
000001e0: f26e 903a 608e 823c d3f2 b83d 9630 81bd
000001f0: c6e0 14bc c24f 943c bfaa b7bc 62a1 b1bd
00000200: 29a2 d1bd 2439 9c3c 5efe 97bc abd2 85bd
00000210: 9d28 fc3c 80fd b03b d837 0e3d 953d 643d
00000220: 54e6 0abc c0cd 4fbd 303a b83c c247 acbb
00000230: e9e2 2bbd 5753 f03c 1f3b b839 af65 7f3c
00000240: 124b 1ebd 3ec2 d93c 667d b13d 245e c4bb
00000250: 1358 143c f6db 4dba fdf1 9abd 00a2 f63a
00000260: 69db 2fbd b01e 55bc bcb1 7f3c d239 db3c
00000270: 06ca a63c c820 a3bb 5032 793b 820e 913c
00000280: 20d2 e0bb c843 e03b a230 81bc f65d 4e3d
00000290: 6fab 223d a82c 8abd ce26 363d fb44 f9bc
000002a0: 42a8 99bd d9db 9abc b024 393c ffb4 d83c
000002b0: 801b 97bd f040 16bd e9cf ad3c e365 01bd
000002c0: 2d9f 91bd a90d 263d 4c20 47bc e7dc cebc
000002d0: be48 64bd 0664 033c cf19 2a3d 9efe be3b
000002e0: 415d eeba 9ab1 e33c d548 dfbd 52fe 6f3d
000002f0: a6a8 763d 6642 543c 6d27 1ebd 2365 12bd
00000300: abb9 b6bc c7e2 6bbc c952 38bd 2af3 4b3d
00000310: dd30 0b3d 899b 2c3d eb45 463b 8faf b4bc
00000320: a4ed 36bd f37a 403c 88dc 863c 5c92 ceba
00000330: 2c7c a63d 22a8 163d c349 4abd 3bf2 873d
00000340: b5e8 d33c 2a19 a4bc a252 3f3d 6755 8d3b
00000350: ce9d bf3a 9b2f ca3c 59a0 373c 8268 c23c
00000360: c0e6 35bd 371d 04bd 7bcc f4bc b153 71bd
00000370: 06ab 88bd dc66 a139 bf51 923c a41b 543d
00000380: 9ac2 aa3c fea1 dbbc d71f 5e3c 3f20 bb3b
00000390: be10 5b3c a3ef 01bd 3b52 4f3d 9b7e 79bd
000003a0: 4592 96bc 2066 b73d e0c8 12bc e47a 87bd
000003b0: d696 02bd 197d 12bd 4e44 a3bd 6bf0 aabd
000003c0: 26f3 433c a9e8 ad3c 1be6 5e3d 1ec7 1e3d
000003d0: 8537 0e3d 632c 263c bf39 d3bc 5535 c83c
000003e0: 8cfb 24bd 87b2 1fbd 0237 ef3a 2d6f 87bc
000003f0: 5a14 38bc ff25 073d 54e9 953c 2986 a33c

params.core.8.bias f4 [64]
0.026083715 -0.04241369 -0.021012032 0.027424663 -0.025589181 0.041247096 0.046977893 0.038588263
0.01140433 0.01610063 -0.03223549 0.027493618 0.031868592 -0.037300713 -0.062313695 0.017301861
-0.00714 0.03180307 0.020049587 0.059062056 -0.02222558 -0.06834748 -0.032713875 0.0054998305
0.023322772 -0.040783588 -0.021813503 0.042027082 0.018383944 -0.030713927 -0.017295972 0.016668297
0.015051418 0.023491908 -0.019921081 0.0076096896 0.0055192835 -0.01034721 -0.031736948 -0.04650833
-0.009470867 0.003015431 -0.031174399 0.0016698821 -0.006347009 0.039551817 -0.01761529 -0.014842964
-0.010225856 0.041487515 0.05480629 -0.04090756 0.04985822 -0.022343898 0.022440149 0.0351793
-0.0051034237 -0.052333977 0.03610448 0.0943051 -0.048226003 -0.015364834 0.02131758 0.029602543
00000000: 84ad d53c fab9 2dbd 6d21 acbc b0a9 e03c
00000010: 67a0 d1bc b7f2 283d e46b 403d ba0e 1e3d
00000020: 3ad9 3a3c 78e5 833c 5c09 04bd 4c3a e13c
00000030: a488 023d a2c8 18bd a53c 7fbd a2bc 8d3c
00000040: a9f6 e9bb f043 023d 083f a43c 0eeb 713d
00000050: 6b12 b6bc c3f9 8bbd fcfe 05bd ec37 b43b
00000060: 660f bf3c b10c 27bd 3bb2 b2bc 9724 2c3d
00000070: ed99 963c c69b fbbc 48b0 8dbc f48b 883c
00000080: 399a 763c 1a72 c03c 8931 a3bc b45a f93b
00000090: 1bdb b43b 5887 29bc 9afe 01bd 857f 3ebd
000000a0: b22b 1bbc 8a9e 453b 7461 ffbc f2df da3a
000000b0: 92fa cfbb 1601 223d f14d 90bc e72f 73bc
000000c0: 598a 27bc d0ee 293d 8f7c 603d b08e 27bd
000000d0: 2238 4c3d 8d0a b7bc 67d4 b73c 2b18 103d
000000e0: 9f3a a7bb 275c 56bd 4be2 133d 0823 c13d
000000f0: a188 45bd c9bc 7bbc 35a2 ae3c 0881 f23c
