models/baseline/prob_model.pth (torch, 851234 bytes, 18 tensors)

params.in_layer.0.weight f4 [32, 3, 3, 3]
000000 17 c2 77 3e 23 b3 ef 3d f4 0a 5d 3e b1 41 56 be
       0.24195133 0.117040895 0.2158621 -0.20923497
000010 44 20 11 be 6a da a1 3c 71 9c 33 3e 7b b3 4c 3e
       -0.14172465 0.019757468 0.17540146 0.19990341
000020 00 3b bc bd 42 89 2a 3e 0b 25 92 bd 7c 16 44 3c
       -0.09190941 0.16653922 -0.07135972 0.011968251
000030 e3 eb 8b 3d 93 30 24 be 2f 24 32 bc e9 8b 85 bd
       0.06832101 -0.16034155 -0.010872885 -0.06520826
000040 21 d6 0f be 71 48 0b be a1 17 f8 3d ac b1 80 3d
       -0.14046527 -0.13601853 0.12113882 0.06283888
000050 96 92 95 bd e2 8b c2 3d 84 68 af bc 19 7a 18 3e
       -0.0730335 0.09499337 -0.021412142 0.14890327
000060 e7 f1 42 3e 93 36 46 3d 2e 3f fb 3b 1d 77 34 be
       0.19037591 0.04839189 0.0076674437 -0.17623563
000070 aa 48 78 bd f2 dc e0 bc 47 0a e8 3d d7 75 8a 3d
       -0.060616173 -0.027449105 0.11330085 0.067607574
000080 2d 42 5f be 17 a4 17 3e 47 43 2d 3d 33 5b 1b 3e
       -0.21802588 0.14808689 0.04230049 0.15171508
000090 9e 3c a3 3b df 49 ae bc 82 bd 3a 3e 86 94 09 3e
       0.0049815914 -0.021275459 0.18236354 0.13435563
0000a0 97 33 1f bd 4d d5 18 bd 81 60 99 3b 2b ba 0d be
       -0.03886756 -0.037312794 0.0046806936 -0.13840549
0000b0 c4 fe 12 be e7 0a 10 be 5e 56 27 be eb 7c 42 be
       -0.14354998 -0.14066659 -0.1634154 -0.18992965
0000c0 75 83 25 bc fa 31 ac bd f8 46 37 3e 38 95 37 3e
       -0.010102143 -0.0840797 0.17898166 0.17928016
0000d0 cd 9f 0d 3d f6 3a 79 bd e8 9a 85 3c b3 b0 4c 3d
       0.034576226 -0.060847245 0.016309217 0.0499732
0000e0 fb 23 88 3d 8e d1 65 3e ea d3 8b 3e c6 1a 29 3e
       0.06647488 0.2244322 0.27310115 0.1651412
0000f0 20 57 ad 3d ca 0a 2c 3e 10 ac 02 bb 4e 69 22 be
       0.084638834 0.1680099 -0.0019938983 -0.15860483
000100 d1 c4 10 be 27 2f 0d 3e 48 61 85 bd af 5b a3 bd
       -0.1413758 0.13787518 -0.065126956 -0.07976472
000110 1b a0 d9 bd 47 d9 69 3e 8a 1a 6c 3d 95 43 73 bc
       -0.10626241 0.22836791 0.057642497 -0.014847656
000120 ba 5b 2b 3b 88 9c ad bd 21 28 43 be d6 34 1f 3e
       0.0026147203 -0.084771216 -0.19058277 0.15547499
000130 1c 49 91 3d 17 9a 28 bc bd 96 2b 3e 59 61 c9 bd
       0.07094023 -0.010290644 0.16756721 -0.09833021
000140 96 21 ab 3d 70 ac 2a be 66 f6 97 3d 4b 12 3f 3e
       0.083560154 -0.16667342 0.07420044 0.18659322
000150 b8 9e 73 bd 40 27 8f bd ec 34 3a be d8 c4 f9 bb
       -0.059477538 -0.06989908 -0.1818425 -0.0076223426
000160 6a 58 c0 bd 90 6f 42 3d 21 64 b7 bd 2b cc 32 be
       -0.09391864 0.047469676 -0.08954645 -0.17460696
000170 3c 27 65 bd 58 f0 24 be b8 83 0b 3d 9a b5 a8 3d
       -0.05594562 -0.16107309 0.034061164 0.08237763
000180 c0 7e df bc 2a d8 f4 3d 6f 16 3f bd ba 25 b7 bd
       -0.027282119 0.119552925 -0.046652254 -0.08942743
000190 cc 1f a3 3b b0 52 eb 3c d9 99 3e 3e 1a e0 c4 3d
       0.0049781557 0.028725952 0.18613376 0.096130565
0001a0 08 97 f6 bc 94 30 82 bc cb 96 02 3e a4 23 30 bd
       -0.030101314 -0.015892304 0.12752835 -0.04300274
0001b0 3d af 21 be 1c 9d 65 be 5a 06 dd 3c ba 75 0a 3d
       -0.15789504 -0.22423214 0.026980568 0.03380368
0001c0 81 56 4c 3e 76 7d 05 3e ef dd 1d bd cd 43 11 be
       0.19954874 0.13036141 -0.03854173 -0.1418602
0001d0 04 b4 bb 3d b2 2f b3 3d c0 69 2f 3e 7f 51 7f 3c
       0.09165195 0.087493315 0.17130184 0.015583395
0001e0 b4 2a 20 3e 00 47 07 bd 42 f8 03 be 5b 09 e3 bd
       0.1564129 -0.033026695 -0.12887672 -0.11085769
0001f0 f8 cd 13 be d3 13 12 3e cc 31 39 3e 5f 9e 51 3e
       -0.1443404 0.14265375 0.18085402 0.2047057
000200 9b 63 2d 3e e9 4c bb bd 30 85 32 be de 1e 02 be
       0.16932528 -0.09145529 -0.1743362 -0.12707087
000210 95 f1 66 bd a7 7c a7 3c b7 df 52 be a4 13 11 3e
       -0.056382734 0.020445181 -0.20593153 0.14167649
000220 f5 01 17 3e fc c2 46 3e 2c 3f 39 bd bc af 45 3e
       0.1474684 0.19410318 -0.04522626 0.19305319
000230 3a d4 a2 bc ba c4 3a 3e b5 82 fd bd e8 bc 2c 3d
       -0.019876588 0.18239108 -0.12378446 0.042172343
000240 7e 48 2b 3e 88 9c 26 3e ab fc 2d be 59 22 f7 bd
       0.16726872 0.1627065 -0.16990916 -0.12067098
000250 b2 75 a1 3d 10 ff 09 3e 68 da 7b bd fb 00 9c 3c
       0.07883777 0.13476205 -0.061487585 0.019043436
000260 fa 21 43 3e a6 75 65 3d 9d 33 f7 3a 60 eb 26 be
       0.1905593 0.0560204 0.0018859986 -0.16300726
000270 0f 3d 84 3d 46 8e 11 bc e8 5e 0e bd 64 1d 9d bc
       0.064569585 -0.008884018 -0.03475848 -0.019179054
000280 94 4e 3f be b0 ae 39 bc 62 6e 92 3d d6 c3 56 3e
       -0.18682319 -0.011333153 0.0714996 0.20973143
000290 ad 06 1c 3e 2f 73 e4 3d 34 ba 1d 3e 92 a2 2f bd
       0.15236922 0.11154782 0.15403062 -0.04287965
0002a0 e3 73 56 3d d6 42 e9 3c c9 e0 2c 3e 7c 8a 9a 3c
       0.052356612 0.028474253 0.16882624 0.018864863
0002b0 37 06 0c 3e 6e f9 bb 3d 48 71 a7 bc fb 35 aa 3d
       0.13674246 0.09178434 -0.020439759 0.08311077
0002c0 24 e9 2e 3e 1f e1 5a bd e9 42 2b be dc e1 13 be
       0.17081124 -0.05343735 -0.16724743 -0.14441627
0002d0 0a 36 0b be 20 84 d8 3c 8f 2f 9a 3d bd 50 fa 3c
       -0.13594833 0.02643019 0.07528602 0.030556077
0002e0 2e 4f 2a 3d 04 aa 5d be 1f 13 93 bd 72 67 ff bd
       0.041579418 -0.21646887 -0.071813814 -0.124709025
0002f0 13 4a 2d be 14 27 77 3d 70 74 bf 3d e3 67 00 3e
       -0.16922788 0.060340002 0.093483806 0.1253963
000300 8b 17 bf 3c 15 9a d3 bd 1d be 0f be 5e 62 96 bd
       0.023326656 -0.10332123 -0.14037366 -0.07342981
000310 0e cc 81 3d 98 c7 9b bd 1c d7 9c bc ec ff 99 3b
       0.063377485 -0.07606429 -0.01914554 0.0046996977
000320 ad d4 3f be a4 0a b7 3c 5c 31 c9 bd b4 20 35 be
       -0.18733473 0.022343941 -0.09823868 -0.17688257
000330 1c 7d 54 bd 8f b3 8f bd 12 af bf bd 50 d5 f4 bc
       -0.051877126 -0.0701667 -0.09359564 -0.029886872
000340 48 9c bf 3d 98 25 f8 bc be 6b cf 3d 66 d7 81 3d
       0.0935598 -0.030291364 0.10127972 0.06339912
000350 80 2c f7 3c 3c 2c 40 be fc 59 39 bd 48 4c 67 3c
       0.030172586 -0.18766874 -0.04525183 0.014117308
000360 0d aa ad 3d 63 3b 10 3e c1 ce 67 ba 7b e8 1b 3e
       0.084797 0.14085154 -0.00088427594 0.15225403
000370 23 fb 03 be a1 2f b0 bd 88 83 68 3c 3a 6d f0 bd
       -0.1288877 -0.086028345 0.014191516 -0.11739583
000380 b1 5f 19 be a4 d7 86 3d c4 72 a7 3c c5 c8 e2 3d
       -0.1497791 0.06584099 0.020440467 0.1107345
000390 16 b6 f4 3d 62 9b 36 3d 92 51 15 3e e5 8e d3 3d
       0.11948793 0.04458178 0.14581898 0.10329989
0003a0 b8 ea 65 be b4 aa ab bd 40 cc ed bd 73 f1 35 bc
       -0.2245282 -0.083821684 -0.11611223 -0.011104929
0003b0 10 72 31 bd 8f 73 ae bd 2e 5c 7a 3d 39 f3 c6 3d
       -0.04332167 -0.08518135 0.061123066 0.0971436
0003c0 6d 7b 5c 3d a5 16 e8 3d dd f0 2c 3e 10 1c ae bd
       0.053828645 0.11332444 0.16888757 -0.08501446
0003d0 0d 7f 04 3e 47 24 3b be 69 88 74 3e 78 be 52 3e
       0.12939091 -0.18275557 0.23880161 0.2058047
0003e0 65 2c 35 3e 0f 15 16 3e 66 e9 a9 3d 8a ca 04 3e
       0.17692716 0.1465647 0.0829647 0.12967888
0003f0 e7 6a f2 bd f7 14 99 3d 38 16 c7 bd 14 88 1b 3c
       -0.11836796 0.07474702 -0.09721035 0.009492893

params.in_layer.0.bias f4 [32]
000000 88 5d e5 bd 2d 8b 25 3e cb 8f e2 bd 92 90 34 be
       -0.1119948 0.16166373 -0.110625826 -0.17633274
000010 4d a9 0d be 16 a0 15 be 0d b7 0b 3e e0 d5 e3 3c
       -0.13834114 -0.14611849 0.13644047 0.027811944
000020 2a 5f 25 be e6 1c 89 bd e2 27 13 be 4c 6e 9f bb
       -0.16149583 -0.06694965 -0.14370683 -0.0048654433
000030 ef 26 3c be c0 9e 38 be 59 16 ba bd 07 41 03 3e
       -0.18374227 -0.18029308 -0.09086294 0.12817775
000040 4a 60 03 bd 32 f5 09 3e b2 4d 1e be 26 7b 04 be
       -0.03207425 0.13472441 -0.15459326 -0.12937602
000050 f6 2c 51 3d b9 37 d9 bd 31 b5 a2 bd 2a 2a 25 3b
       0.05106827 -0.106063314 -0.07944716 0.0025202134
000060 df fc 35 3d 02 c1 14 be 03 59 0d 3e c6 af 48 3d
       0.04443061 -0.14526752 0.13803487 0.048995756
000070 37 0a 26 3c 4d c3 80 3c c2 07 f1 3b ab 1f ce bd
       0.010134271 0.015718127 0.007355661 -0.10064634

params.core.0.weight f4 [32, 32, 3, 3]
000000 89 58 6e be 35 00 53 be db 65 73 be f1 be 7e bd
       -0.23275961 -0.20605548 -0.23769324 -0.062193815
000010 cb 93 15 bd 72 f1 28 be 1b 46 4c be fc 6a 73 be
       -0.0365179 -0.16498354 -0.19948618 -0.2377128
000020 ce ea 92 be d6 2d 81 bc 2f ac ab bc 96 6a e7 3b
       -0.28694767 -0.015768927 -0.020956127 0.0070622666
000030 ca f7 6a 3d 9e 8e a8 bc da 02 42 3d 13 3b a3 3d
       0.057365216 -0.020575818 0.047366 0.07970252
000040 61 5f 87 3d 6a 7c 56 3d 92 81 7a bc 7c 04 e6 bc
       0.06609989 0.052364744 -0.015289681 -0.02807831
000050 32 0c 42 3b 73 cd 81 3d 40 f4 01 bd fd 1e 97 bc
       0.002960932 0.063380145 -0.031727076 -0.018447394
000060 81 59 a9 3d 63 03 cd 3c fe af bb 3c f4 b1 8e 3b
       0.08269025 0.025026029 0.022911068 0.0043547098
000070 40 48 dd 3b 26 5c 53 bd 8c 4c 02 bb a5 ac 38 3d
       0.0067529976 -0.05160155 -0.0019882051 0.04508652
000080 90 72 a8 bc a6 1e 5b bd 3c 7a 1e bc 2d 8f 0b 3d
       -0.02056244 -0.053496026 -0.009672698 0.03407209
000090 94 61 9b be a0 d0 73 be 21 28 93 be 5a 64 9b be
       -0.30347884 -0.23810053 -0.28741553 -0.3035
0000a0 9b b9 56 be 6d e1 8b be fc fd 84 bd 7b b5 c3 bd
       -0.2096924 -0.27320424 -0.06493756 -0.09556099
0000b0 0b c7 2b bc 21 05 1c 3d 95 e4 7f 3d 9a 2d 44 bd
       -0.010484467 0.03809083 0.062473852 -0.04789505
0000c0 9f c5 8e bc 4e a6 4d 3d f0 5e f1 bc ee 4e b5 3c
       -0.017428217 0.05020743 -0.029464215 0.022132363
0000d0 c0 36 b9 bb a6 2d 1d bb 31 5f e1 3b ac 8d dc 3c
       -0.0056522787 -0.0023983507 0.006877803 0.026923023
0000e0 e8 7d 21 bd 17 b3 45 3d 60 d6 ed 3a f5 ae 2f bd
       -0.039426714 0.048266497 0.0018145554 -0.04289146
0000f0 d4 bb c0 bc d8 2b 86 3d c5 a4 30 3d 21 2f 4f 3d
       -0.023527063 0.06551331 0.043125886 0.050582055
000100 78 c7 0b 3c e0 05 33 3c 9d 10 11 bd 6c e3 8a 38
       0.008531444 0.010926694 -0.035416234 6.6227134e-05
000110 17 68 5d 3d 84 02 2f bd d2 3e 51 bd 50 3b c7 3b
       0.054054346 -0.04272701 -0.0510853 0.0060800686
000120 99 52 3f bd e8 ec e5 3c 09 cc b3 3c e5 22 ad bd
       -0.04670963 0.028067067 0.021947877 -0.08453921
000130 a0 d6 ea bc 0b 99 a2 bd 71 69 2b be b0 eb 2f be
       -0.028666794 -0.07939347 -0.16739441 -0.17179751
000140 53 89 29 be bd b5 f2 bc 22 9e 74 3d b8 ad 7b 3c
       -0.16556291 -0.029627675 0.05972112 0.015361242
000150 42 5d 19 3b f4 2a d2 3c b1 2d 0b 3d 3d 60 d0 3d
       0.0023401533 0.025655247 0.03397912 0.10174606
000160 23 52 d6 3d 33 74 94 3d ca 7b be 3c 26 ed ff 3c
       0.10464885 0.07248726 0.023252387 0.03124101
000170 d9 89 12 3d 94 2f 68 bd 4f 1d 25 3d 9f a8 58 bd
       0.035775993 -0.056686 0.040311154 -0.052895185
000180 e6 5c ce 3c 39 db 5f bd 1a c9 ea 3c 6b 1d 1e 3d
       0.025190782 -0.054652426 0.028660346 0.038602274
000190 93 0d 53 3d ed 76 13 3d 6c 67 31 38 78 19 58 bd
       0.051526617 0.03600209 4.2296408e-05 -0.052758664
0001a0 98 7b 3b bc 7c 6e 2f bd 0e 85 0d bd 89 39 2b 3d
       -0.011443041 -0.042829975 -0.03455072 0.041802917
0001b0 dc cf 93 bb ed 16 55 3d 48 de 1c bc c7 c8 1a 3d
       -0.0045108628 0.052023817 -0.00957448 0.037789132
0001c0 2e 1a 99 3c 58 a2 07 bd 48 f9 1c bd 90 39 d6 bc
       0.018689241 -0.033113807 -0.03832367 -0.026150495
0001d0 68 6a 3c bd e7 9b 3e 3d 82 a3 e2 bc cd 73 6d bd
       -0.045999914 0.0465354 -0.027665857 -0.057971764
0001e0 c8 07 23 3c 86 1f 2e bd 62 ae 08 bd 46 82 db bc
       0.009950586 -0.04251053 -0.03336943 -0.026795518
0001f0 98 b8 54 3b e4 9c b8 bc cd 2e 48 ba 22 6d eb bd
       0.003245866 -0.022535749 -0.00076363684 -0.11495425
000200 02 2a 5d bd 6f af 98 bd 36 4c db bd c8 55 db bd
       -0.05399514 -0.07455336 -0.107078955 -0.10709721
000210 8a 41 4d bd 43 ea 2a be e3 48 ed bd 04 df a2 bc
       -0.05011133 -0.16690926 -0.11586168 -0.019881733
000220 d0 5a 05 bd 9e 1c d4 bc 1d 0b 15 bd 7a f7 d7 3c
       -0.03255731 -0.025892552 -0.03638755 0.026363123
000230 66 45 d2 3c 0f 65 54 3d e2 6e 16 bd a8 4b ff bb
       0.025667857 0.05185419 -0.03672684 -0.0077910013
000240 15 6a 68 bd 9a b4 2c 3d f2 09 47 bd a3 f2 89 bc
       -0.056741793 0.042164423 -0.04859347 -0.016839331
000250 f5 79 8a 3a 4c dd 48 bd c1 88 3b 3d dc 3a 36 3b
       0.001056491 -0.04903917 0.045784716 0.002780608
000260 a8 26 ff 3c bb 7e 4e 3d bf 75 05 3e b2 94 f6 3d
       0.031146362 0.05041383 0.13033198 0.1204008
000270 0c 65 6b 3c 11 a6 23 bd c6 03 44 3d a0 2b c2 3d
       0.014367353 -0.039953295 0.04785516 0.09480977
000280 99 3e 07 3d ba 17 2a 3d 60 11 ec bb d6 c9 2b bd
       0.033018682 0.041526534 -0.0072042197 -0.041940533
000290 3a b7 8f bc 81 f6 19 3d 9d ea 30 3d 22 c3 d9 3c
       -0.017543424 0.0375886 0.043192495 0.026582304
0002a0 00 f4 5a bd 14 47 bd 3b 6c a9 41 3c 03 2d c5 be
       -0.053455353 0.0057762954 0.0118201785 -0.38510904
0002b0 87 7b 2c be b1 31 e9 bd 29 90 0a be 5d c9 23 bd
       -0.16843997 -0.11386431 -0.13531555 -0.039986957
0002c0 74 a1 16 be bf 7b bd bd b6 6a ae bd 2e ce ce bd
       -0.14710027 -0.09252118 -0.08516447 -0.100979194
0002d0 c3 10 09 bd e1 e3 2e bd 82 5d c2 bc 1a 3f 1e 3d
       -0.03346325 -0.04269779 -0.023726229 0.038634397
0002e0 f8 0a de 3c 7c 5c 1d 3c 82 9e 30 bb b0 d7 41 3d
       0.02710484 0.0096045695 -0.0026949947 0.047324836
0002f0 c4 17 cd 3c c8 8c d6 bb 10 5a 15 3c 37 e7 0b 3d
       0.025035746 -0.006547544 0.009115711 0.03415605
000300 d7 7a 09 3d f1 4d 6e 3d d8 45 e5 ba 85 8d 4a 3d
       0.033564415 0.0581798 -0.0017492129 0.04945137
000310 bb 48 22 3d 30 e3 9e bc ce 00 46 3d c6 28 b2 3c
       0.039620142 -0.01939544 0.04834061 0.021747958
000320 88 6c 24 bd f1 7f 54 bd ad 37 2d 3c 68 7b 15 bd
       -0.040142566 -0.051879827 0.010572356 -0.036494642
000330 c5 2c 26 bd bf 30 94 3c e9 fc 81 3d d9 89 b6 bb
       -0.04057004 0.01808965 0.06347067 -0.005570632
000340 ab a0 09 3d 6c ae 62 3d 8f 41 a1 bd b7 e3 2f be
       0.03360049 0.055342123 -0.078738324 -0.1717671
000350 04 fe b8 bd e0 e7 91 be eb 04 8f bb 58 95 70 bb
       -0.09032825 -0.2849722 -0.0043646 -0.003671011
000360 8f 29 85 ba 34 73 02 3d ba b7 79 3c e9 ff 71 3c
       -0.001015948 0.031848148 0.015241558 0.014770486
000370 81 20 56 3d 39 bc 86 bc d8 21 9f ba ee 0a 85 3d
       0.052277092 -0.016447173 -0.0012140824 0.06496225
000380 1c c0 39 3d f7 ce 4b be 77 e2 82 bd 3d 64 6b be
       0.045349225 -0.1990317 -0.06390851 -0.22987457
000390 b8 1b 7f bd 9a a6 3d 3c 0b 53 87 bb 19 49 ca bd
       -0.062282294 0.011575365 -0.0041297725 -0.098772235
0003a0 82 7c 23 3c 8f ac c3 bd 33 c5 3f bd 0a 6f ce bc
       0.009978415 -0.09554397 -0.046818923 -0.025199432
0003b0 7c 1c 6b bd 00 ea 37 3c 7e 96 86 3c c4 c0 18 bd
       -0.05740021 0.011225224 0.016429182 -0.03729321
0003c0 a6 e7 88 3c e7 2f 17 3d 98 62 45 3a a3 6c 6e 3c
       0.016712021 0.036910918 0.0007529645 0.014552268
0003d0 e5 9f f0 bc fa cb f7 3b cb 5d a4 3d 21 34 12 3d
       -0.029373119 0.0075621577 0.08025702 0.035694245
0003e0 47 79 46 3d ea b5 57 3d 53 be 9f 3d ea 18 d6 3c
       0.048455503 0.05266372 0.07799973 0.026134927
0003f0 6a d7 b3 bd 0b 72 63 be 16 8d 6c be c1 ab 03 be
       -0.08781321 -0.22211473 -0.23100695 -0.12858488

params.core.0.bias f4 [32]
000000 a0 0c 79 bd cb d9 84 3d b5 98 00 bc a2 dc 49 bc
       -0.060803056 0.06486853 -0.007848908 -0.012320669
000010 10 23 53 3d 31 86 15 3d 6f 08 81 3d 7f ac a7 3c
       0.05154711 0.036504928 0.06300437 0.020467995
000020 86 27 93 bc 6b b4 6d bc d7 67 1b 3d af d2 b1 3a
       -0.017963182 -0.014508347 0.037940826 0.0013566817
000030 b5 60 4c bc f6 0b 5d 3d e9 f8 4f bd 5e 94 3e 3b
       -0.012474229 0.053966485 -0.05077449 0.0029080133
000040 42 3b f4 3b dd 60 99 bc f9 2d 0c 3d 68 44 9c 3b
       0.007453353 -0.018722946 0.03422353 0.004768897
000050 09 25 56 bc 37 21 ed 3b 81 62 0a ba 42 9d 0a bd
       -0.013070353 0.0072366255 -0.00052789605 -0.03384138
000060 60 2f 22 3d e8 6c 01 3d 13 49 26 3d 17 76 4d 3d
       0.03959596 0.031598 0.040597033 0.050161447
000070 26 e6 09 bd d5 92 32 3c d6 b5 61 3d 8c e3 ea 3c
       -0.033666752 0.010899265 0.055105053 0.028672956

params.core.2.weight f4 [32, 32, 3, 3]
000000 de 53 5d 3d 15 77 9f 3d a9 df 0c 3e ed 6f bd 3d
       0.05403506 0.07786385 0.13757195 0.09249864
000010 d9 73 b0 3d 40 85 31 3e 55 2b 32 3e aa 58 fb 3d
       0.08615846 0.17335987 0.17399342 0.12272771
000020 88 b8 08 3e 94 12 e7 bd 19 06 0b 3d 3f ae 3e bd
       0.13351643 -0.1128284 0.033941362 -0.046552893
000030 8d 3b 54 bc 64 0d 74 3d 29 a2 9b 3d 72 96 d6 3a
       -0.012953651 0.059583083 0.07599289 0.001637174
000040 f5 ed 23 3e 0b 67 ee 3d 7d ba d1 bd aa 48 29 39
       0.16008742 0.11640748 -0.10240648 0.00016144165
000050 5c 55 c8 3b e4 66 b1 bc 7b 7e 81 3d fd d7 1e 3d
       0.0061136913 -0.021655507 0.06322952 0.0387802
000060 cf 81 27 bc ed 18 d8 3d 17 8c a2 3d e0 18 72 bb
       -0.01022382 0.10551629 0.07936876 -0.0036941096
000070 ad 0c 37 3d d7 f8 e1 3a 7b 4f 80 bd 03 ae 35 bd
       0.044689823 0.0017240298 -0.0626516 -0.044355404
000080 21 7e 8d bd 46 a6 d3 bc 6f 4e 6c 3c 8d 7f ef bc
       -0.06908823 -0.025836121 0.014422997 -0.029235626
000090 f8 cc 97 bd 7b 67 c0 bd 85 71 67 bd a8 54 54 bd
       -0.074121416 -0.09394737 -0.056504745 -0.051838547
0000a0 98 80 c0 3c 50 1b b0 3c 7e 1f 34 bb e8 f9 db 3d
       0.023498818 0.021497399 -0.002748459 0.10741025
0000b0 6e 0e 15 3e 3c c5 d8 bc 3e 5f 10 bd 78 e5 05 bd
       0.14556286 -0.026461236 -0.03524708 -0.03268954
0000c0 ad 34 95 3b 52 3a 9a 3d 35 6e 14 3d 31 6e e2 bc
       0.0045533986 0.07530655 0.036237914 -0.027640434
0000d0 e7 81 74 3b 8e ec d2 3c 89 53 2e bd 76 a0 06 3d
       0.0037308873 0.025747564 -0.042560134 0.03286787
0000e0 38 bd 71 bd 95 57 38 3c 7e 37 12 bd 06 22 c5 bc
       -0.059018344 0.01125135 -0.035697453 -0.024064075
0000f0 be 8d 22 bd c8 b5 22 3d 20 de d3 3c 0a d0 e5 bd
       -0.039685957 0.03972414 0.025862753 -0.11221321
000100 06 2f 19 bb 20 a4 9d bc 2b 8c 10 bc 3f f5 20 3d
       -0.0023373975 -0.0192433 -0.008822481 0.039296385
000110 57 43 7e 3d b9 87 8b bd 52 dd 26 bc 6d 8b ad bc
       0.06207594 -0.068129964 -0.010184603 -0.021184647
000120 0a 66 8f bd c1 27 cf bc bf 57 c9 bd 11 e2 ef bd
       -0.07001884 -0.02528751 -0.09831189 -0.117130406
000130 d8 4d 4d bd ce 75 14 3d 4f ed 9f 3d bd 87 9d 3d
       -0.050123066 0.03624516 0.07808935 0.07691906
000140 3d 1d f5 3d 78 20 9e bd 76 09 f3 bc 09 bf 82 bd
       0.119684674 -0.07721037 -0.029667597 -0.06384093
000150 44 18 26 be db 87 67 3d fc 0a f2 bd 07 ba ea bd
       -0.16220194 0.056526046 -0.11818501 -0.11461263
000160 a6 3c 20 3d a6 25 71 bc f5 6e f5 bc 4e ad 59 3d
       0.03912034 -0.014718449 -0.029960135 0.05314379
000170 7f 2d 07 3d 42 ab 69 bd e9 73 a8 bc 4f 37 d5 bc
       0.033002373 -0.05704809 -0.020563083 -0.02602735
000180 86 1c a8 3c 04 0e 83 3c 17 52 37 3d 0e 9d 06 bd
       0.020521414 0.015997894 0.04475602 -0.032864623
000190 5f b9 89 bd b9 d2 a8 bd f3 ce 22 3d ed 85 6b 3d
       -0.0672481 -0.08243317 0.039748143 0.05750077
0001a0 7e 4b 05 3d bb 19 7a bd d2 3e 0d bc 2d 18 9c 3d
       0.032542698 -0.061059695 -0.008620935 0.07621799
0001b0 5c c9 6a bc a4 6a f0 3c c6 79 fb bc ea 80 9e 3c
       -0.014330234 0.029347725 -0.030697715 0.01934858
0001c0 5e 98 2c 3c 4d 53 11 bd 68 99 ab 3d b2 9f 35 3e
       0.010534374 -0.035479832 0.08378869 0.177367
0001d0 b6 86 31 3e 7a 43 07 3e 6c 0d 25 3e 77 1e 8b 3d
       0.17336544 0.13209334 0.16118401 0.0679292
0001e0 8d 9c 9a 3d 3f 6c 16 3c 9f cc a1 bd 58 c6 49 bd
       0.07549391 0.009181081 -0.079003565 -0.04926142
0001f0 a7 50 a2 3c 2e 02 32 3d 10 a5 a6 3c dc de 46 bc
       0.019813849 0.04345911 0.02034238 -0.012138095
000200 50 06 64 bc 76 06 17 b9 75 0b 1f 3d a6 1f c7 3c
       -0.013917521 -0.00014402889 0.038829286 0.024307083
000210 42 8f 95 bc 70 04 a9 bc 08 dd 6a 3b 3e 1a af bd
       -0.018256787 -0.020631999 0.0035837311 -0.08549927
000220 b0 07 af bd d2 c3 d4 bc 43 c6 74 3a 2e 8f 7d 3c
       -0.08546388 -0.02597228 0.00093374046 0.015476031
000230 76 68 e6 3b 5f cc 00 bd 93 e1 d1 3d db 6c ca 3d
       0.0070314957 -0.031444903 0.10248103 0.09884044
000240 20 be a6 bd 16 ec 33 ba a3 9b 29 bd 4d c0 da 3b
       -0.08141732 -0.00068634877 -0.041408192 0.006675756
000250 62 0f 4c 3d 78 60 8c 3d a9 eb c0 bb 4a b9 c8 3d
       0.049819358 0.068543375 -0.005887468 0.09800966
000260 77 df 3d 3d d2 ce 8a bc 27 34 ad 3c a8 fe 8b 3d
       0.04635569 -0.016944323 0.021143032 0.06835681
000270 27 61 24 3e 58 35 4d 3e 5b 74 34 3e e7 b8 47 bd
       0.16052686 0.2003988 0.17622511 -0.04876032
000280 55 d7 a8 bc 30 5a d1 bd 82 06 ad bd e9 da b4 3c
       -0.02061049 -0.1022228 -0.08448507 0.02207704
000290 7f 2f 5f 3c bc fd e7 3c 62 79 ec 3d dd b2 93 3b
       0.013622164 0.028319232 0.115465894 0.004507406
0002a0 5b c6 ec 3c 99 a7 9a bb fa 98 0f bd 0a 4f a2 bd
       0.028903177 -0.004719686 -0.035058 -0.07925232
0002b0 d1 5f 7e bd b8 65 84 bd 31 a5 c2 3c a3 5a 8b 3c
       -0.062103096 -0.06464714 0.02376041 0.017010992
0002c0 db 5d 00 3c 36 da 03 bb 89 d7 36 3d a2 27 12 3d
       0.007834877 -0.0020119078 0.044639144 0.035682328
0002d0 d8 33 ea bd ab c2 d4 3d 8f ab 83 bd 39 0f 06 bd
       -0.1143567 0.103886925 -0.064292066 -0.03272936
0002e0 ed 26 a5 bd 72 0d be bd 18 aa 69 3d 46 6f 61 bd
       -0.08064065 -0.09279908 0.05704698 -0.05503776
0002f0 c6 89 53 bd 23 5e 29 bd b1 42 3c 3c 30 44 60 3d
       -0.051645063 -0.04134954 0.01149051 0.05475253
000300 19 cf 4e bd 6e ac eb 3c 2d 8e a2 3c cb ec 57 bc
       -0.050490472 0.028768744 0.019843185 -0.013179014
000310 17 ff 32 3d d5 44 03 bd e1 6f 30 3d 56 92 25 3e
       0.043700304 -0.032048065 0.043075446 0.16169104
000320 ff c1 26 3e d1 36 0c 3d 1b bb 05 bd 51 45 9c 3d
       0.16284941 0.034231964 -0.03264914 0.076304086
000330 ea d5 58 bd 17 ef 70 3d 99 87 b0 3c 34 b9 ee bd
       -0.05293838 0.058821764 0.021549033 -0.116564184
000340 0f e1 f7 3b c0 9b 36 3d 0c d0 3b 3d a8 cb 0b 3e
       0.007564671 0.04458213 0.045852706 0.13651907
000350 e3 8c fa 3c 8d 6d 90 bd 39 0c 6c bd e7 c2 1b bc
       0.030584758 -0.07052145 -0.057628844 -0.009506918
000360 59 a4 da bd 90 25 ae 3c d8 c3 0c 3d 68 fa 01 bd
       -0.10675878 0.021258146 0.03436646 -0.031732947
000370 c1 97 8e 3d 07 b0 ff bb 2e 03 14 3d e0 1d 11 3e
       0.069625385 -0.0078029665 0.036135845 0.14171553
000380 48 c8 08 3e 56 63 c8 bd 96 e4 2b bd 6c 42 96 bd
       0.13357651 -0.09784572 -0.041966043 -0.07336888
000390 65 8c 21 bd 2f e8 c4 3d 63 82 48 ba 65 b9 a2 bc
       -0.03944053 0.09614598 -0.00076488237 -0.019863794
0003a0 ed 6e c0 3d 57 b2 db 3d 96 10 6e bd f1 dc ba bc
       0.093961574 0.10727375 -0.058121286 -0.022810431
0003b0 23 ab 5d 3d 08 9a b4 bb 49 4f d2 3b d2 d5 ec bc
       0.054118287 -0.005511526 0.006418143 -0.028910551
0003c0 47 f0 8e bc 9d 8f e6 bc f9 87 a7 bc 37 c4 aa bd
       -0.017448558 -0.028144652 -0.020450579 -0.08338206
0003d0 0b 01 90 3d 85 28 04 bd 01 18 62 bd ac 42 ba 3d
       0.07031449 -0.032265205 -0.055198673 0.09094748
0003e0 9e 57 1f 3b ce ce 92 3d f7 5b dc 3d 18 ca 68 3d
       0.0024313699 0.07168351 0.107597284 0.056833357
0003f0 5d ad 9c 3b c9 dd 18 bd 8a 69 17 3c 77 c7 a4 bb
       0.0047814087 -0.037320886 0.009241471 -0.005028661

params.core.2.bias f4 [32]
000000 1c 90 86 3d 3d 1e f9 3c 5b aa 86 bd 16 38 4e 3d
       0.065704554 0.030409927 -0.065754615 0.050346456
000010 b5 8b f3 bb 93 d2 8e 3d 6b 81 5c bd 13 d2 6d bc
       -0.007432426 0.069737576 -0.05383436 -0.014515418
000020 fe 78 4a bc 47 0a 8d 3c d6 fa bd 3b 77 06 46 3d
       -0.012357948 0.017216815 0.0057977242 0.04834601
000030 be 95 8c bd ef 6b 6e bd 2f f1 65 3d fb ad 74 3c
       -0.068644986 -0.058208402 0.056138214 0.014934058
000040 b2 03 fe 3b 4d 0e 51 3d 1e de 75 3d 64 bf 77 3c
       0.0077519054 0.05103903 0.06002628 0.015121315
000050 dd 49 5b 3d fc 31 01 3d 38 f5 40 bd d2 45 ab 3c
       0.05353724 0.03154181 -0.04710886 0.020907316
000060 8e 50 a4 bd 2b 0f 90 bc a8 d9 a5 3c d4 f9 8a bd
       -0.08023177 -0.017585358 0.020245388 -0.06785932
000070 71 cd 06 bd 6e 62 20 3d d4 4f 45 bc 3e 33 20 bd
       -0.032910768 0.03915637 -0.012042958 -0.03911137

params.core.4.weight f4 [64, 32, 3, 3]
000000 54 a2 b9 3d 39 ec 12 bc 62 5c 51 3c 49 74 67 3d
       0.09064165 -0.008967453 0.012778373 0.056507383
000010 54 1a 00 bd fe 2f f3 bc c7 b0 7d 3d 1e 0d e4 bc
       -0.03127511 -0.02968597 0.061936166 -0.027838286
000020 97 35 99 bb ca 3d ea 3c 2d 66 8a bc 13 58 e9 3b
       -0.004675578 0.028593916 -0.016894424 0.007121095
000030 f8 62 8c 3d 85 4e 26 3c f6 89 01 bd 92 c4 57 bd
       0.06854814 0.010150556 -0.03162571 -0.0526777
000040 d6 54 05 bd 32 d6 bb bd 06 51 02 bd c9 8b 7f bd
       -0.03255161 -0.09171714 -0.03181555 -0.06238917
000050 dd d9 0b bd db 22 4e 3a df f7 d8 bd 2c ca 2f be
       -0.034143317 0.000786347 -0.10594153 -0.17166966
000060 79 51 84 bd 51 1a 35 be c1 cf b0 bd 98 e1 b5 bb
       -0.06460852 -0.1768582 -0.08633376 -0.0055505745
000070 0c 0a 28 3d e7 be 2c bd 7e 13 08 3d 58 67 05 bd
       0.041025206 -0.042174246 0.033221714 -0.03256926
000080 e8 c0 de bc 2e 3f 5c bc 27 21 bc bc 90 b1 9f 3c
       -0.027191594 -0.013442798 -0.022965027 0.019493848
000090 74 53 8f 3a 72 9e 31 3c 4c d0 6b bc c6 88 39 3c
       0.0010934905 0.010840999 -0.014392924 0.011324113
0000a0 ac 39 8b bd b9 61 40 bd 05 9c 80 3d ea a0 ae 3d
       -0.067981094 -0.046968196 0.06279758 0.08526786
0000b0 ff bf 76 3d 07 8c 1e bd 8d b7 2a 3c 4c 8f 5a bc
       0.060241695 -0.03870776 0.0104197385 -0.013339829
0000c0 e1 f2 4b bd cf 5f 06 3d 03 e5 3c bb 91 7a 3f 3d
       -0.049792174 0.032806214 -0.0028823025 0.046747748
0000d0 a8 f0 90 3d f2 71 f3 3d 7f ed 01 3c 4b 9f 9a 3d
       0.070771515 0.11886968 0.007930159 0.07549914
0000e0 1d 2e 01 3d b8 8c 86 3c 7d 0e 1e bd 99 4d 73 bd
       0.031538118 0.016424522 -0.038588036 -0.059400175
0000f0 e6 f7 6f bd bd 67 97 bd 04 70 a5 bb 96 06 6f 3d
       -0.058586024 -0.073928334 -0.0050487537 0.05835589
000100 5f 07 13 3d 63 a2 15 3d 81 d9 80 3d 4f b0 08 3d
       0.0358957 0.036531817 0.062914856 0.033371266
000110 21 51 1c bd a5 99 7f 3c 6e 03 4a 3c eb 87 1e bd
       -0.038163308 0.015600597 0.012329919 -0.03870384
000120 96 4d 30 be 3f 18 fb bc b2 9a a7 3c 67 06 fe bd
       -0.17217097 -0.03065121 0.020459507 -0.12403565
000130 bc c7 45 be d0 b5 e0 bd 06 52 e5 bc 24 09 13 be
       -0.19314474 -0.10972178 -0.027993213 -0.14358956
000140 d1 cb 8e bd bd 3f 39 bd b6 cd 07 3c 00 f3 26 3c
       -0.06972469 -0.0452268 0.008288791 0.010189772
000150 84 2f 91 bc fa c5 20 3d 29 44 8b 3c 95 e7 13 ba
       -0.017722853 0.039251305 0.017000275 -0.00056421134
000160 58 dc 92 3d df 07 10 3e 4d d2 9d 3c ab ac 20 3b
       0.071709335 0.14065503 0.019265318 0.002451698
000170 1b 9f 7c 3d f5 9a 75 3d 2a 87 7f 3d 64 22 88 bd
       0.061675172 0.05996223 0.062384762 -0.066471845
000180 b4 de 15 3d 53 b0 97 bc 9c 42 4a 3d 1b 1a 95 3c
       0.03658934 -0.018516695 0.04937993 0.018200925
000190 53 58 d1 bc e9 79 43 3d e1 cb 20 bd af 9a 02 3d
       -0.025554812 0.047723684 -0.039256934 0.0318858
0001a0 56 6f 88 bb ce 70 e6 bc 6d de 03 3d 1d 23 ec 3d
       -0.004163663 -0.028129961 0.032194544 0.11530135
0001b0 0a 55 1f be 57 4a e4 bd 9f e3 9b bc 8b e6 a4 bd
       -0.15559784 -0.11146992 -0.019029437 -0.08051785
0001c0 cf 61 a5 3a 0d a0 dd 3b a4 07 b3 bd 70 d6 f4 bd
       0.001261765 0.0067634643 -0.08741692 -0.11954963
0001d0 cd 0f 00 3d 3b a1 3c 3d 84 6c 04 bd b6 e8 81 bb
       0.03126507 0.0460522 -0.03233005 -0.003964509
0001e0 92 da db 3c 52 97 21 bd fa 14 87 bc cd bb ae bc
       0.02683762 -0.03945095 -0.016489495 -0.021329785
0001f0 c4 6c 6d bd c2 b1 ca b9 9e 99 c2 3c c5 22 b2 3d
       -0.057965055 -0.00038660882 0.023754891 0.08698038
000200 dc 66 99 bb 55 15 85 3d bc b4 39 bd 92 08 89 bb
       -0.0046814512 0.064982094 -0.045338377 -0.00418193
000210 09 4c 22 3c 32 c7 81 bd 81 cd 82 3c d0 e9 11 bd
       0.0099058235 -0.063368216 0.015967133 -0.03562337
000220 08 63 3f bd 33 65 30 3d 3f 08 0d 3d 99 11 36 3d
       -0.046725303 0.04306526 0.034431692 0.044450376
000230 30 8e 76 bc 0c 59 65 3c 5d ea 5c bd 24 a8 b6 bc
       -0.015048549 0.013998281 -0.053934444 -0.022296973
000240 4d 3e 86 3c e6 ff 8d 3d 02 cf 7d 3d 79 38 8a 3c
       0.01638713 0.069335744 0.061964996 0.016872631
000250 af 1c fe ba 68 02 8a 3c 64 23 b7 3c 3c 27 a9 3c
       -0.001938721 0.01684685 0.022355743 0.020648591
000260 74 b8 9b bd 4d 87 d9 3c 6a 28 9a 3d 62 47 5c 3d
       -0.07603541 0.026553774 0.075272396 0.053779013
000270 b2 f1 8c 3d 61 55 c9 3c b3 ab 45 bd ef 4f 08 bb
       0.06882037 0.024576845 -0.04825945 -0.0020799597
000280 73 47 89 3b 15 b1 ea bc c8 f5 bf bd 10 93 8f 3a
       0.0041894256 -0.028648892 -0.09373051 0.0010953862
000290 bb 7b 5c 3d 0f ab 12 bc fb dc 9a bc c4 7f 47 3c
       0.053828936 -0.008951916 -0.0189042 0.012176458
0002a0 13 b9 e6 3c 4a 02 0e 3e b1 80 a7 3d fc 4a be 3d
       0.028164422 0.1386806 0.08178843 0.09291646
0002b0 2b 17 38 3d d2 ae 50 3b 88 bf 37 3c 8a ae 70 bb
       0.04494397 0.0031842482 0.011215098 -0.0036725127
0002c0 66 b9 00 bd 87 21 18 3d d3 0d 0a bc f2 48 c9 3b
       -0.03142681 0.03714135 -0.0084261475 0.006142729
0002d0 a3 9b a2 3d 55 1d 55 3d e2 1b e3 3d 45 69 c9 3b
       0.079398416 0.052029926 0.110893026 0.0061465823
0002e0 4f 8e 3a 3d 26 45 a3 3a e2 7a 8f bd 3e f7 7e bc
       0.045545872 0.0012456521 -0.0700586 -0.015561877
0002f0 7d 92 fe bd af 50 bf bd a6 cc c5 bd 29 8c aa 3b
       -0.12430284 -0.09341561 -0.09658174 0.0052046967
000300 ca 20 19 be 4a 7e f9 bb e4 7e bf bd 5e d5 75 bd
       -0.14953914 -0.007613932 -0.09350374 -0.060017936
000310 48 28 9c bd ed fb 69 3b 76 76 34 3c e9 b2 a7 3d
       -0.076248705 0.0035703138 0.011014571 0.08188421
000320 32 75 73 bd 09 5f 43 bb da a2 d8 bb 81 e6 80 bd
       -0.059437938 -0.0029811284 -0.0066112103 -0.06293965
000330 16 4e 2d bd 27 df 45 3d 8c 05 69 3d 7f be 5a 3d
       -0.042310797 0.048308518 0.056890056 0.053404327
000340 ea bf de bc ee b4 6a 3d 97 f5 2c bb ad 4a b1 bc
       -0.027191121 0.057301454 -0.00263915 -0.021642053
000350 48 97 1a bd 38 1b 37 3d 81 fd 1d bd 4b aa 15 bd
       -0.03774193 0.044703692 -0.03857184 -0.036539357
000360 d7 64 46 be f0 84 49 be d6 de e7 bd 28 ae ef bb
       -0.19374405 -0.19679618 -0.113217995 -0.007314462
000370 7d 93 45 bd 5e a0 9f bd b3 9d 9b bd 10 f2 ed bc
       -0.04823636 -0.077942595 -0.07598438 -0.029046088
000380 a7 e7 09 be 7a bd 98 bc 11 6c 8a bd fa 40 c0 bd
       -0.13467275 -0.018645037 -0.06758893 -0.09387393
000390 f2 76 3e bc 28 25 aa bc 5f a1 b8 bb 6c 29 12 3d
       -0.011625038 -0.02076967 -0.0056344713 0.035684034
0003a0 97 b9 01 bd 66 32 27 bc d1 00 65 bd a3 10 82 3d
       -0.031671133 -0.010204887 -0.05590898 0.063508295
0003b0 3c a6 c8 3d 1a d2 16 3c a9 6a bf 3d 9c 8b 51 3d
       0.09797332 0.009205366 0.09346516 0.051158533
0003c0 7a ee 7f 3d 8e 3a 9f bc c7 2d 4e bc d6 a8 ac bd
       0.06248329 -0.0194371 -0.012584156 -0.084306404
0003d0 1b 80 ce bc 68 45 75 bd 1b 9c 26 bc a0 ea 4f bd
       -0.02520757 -0.059880644 -0.010169054 -0.050760865
0003e0 0e 54 a9 bd dc 93 f8 3c c3 9a 59 3d 5d 0c d9 3d
       -0.08267985 0.030343942 0.053126108 0.10598061
0003f0 28 5b 84 3d 84 b5 c1 3c f3 7d da bc 88 29 62 3c
       0.06462699 0.023646124 -0.026671385 0.013803847

params.core.4.bias f4 [64]
000000 54 57 be 3d 82 05 a9 bc a4 45 b2 bc 23 76 d3 bb
       0.09294 -0.02063251 -0.021761723 -0.006453292
000010 30 8f aa 3d fb 4b 27 bd 93 c4 1f bd cf 06 9b bd
       0.08328092 -0.040843945 -0.039005827 -0.07569658
000020 e0 b6 49 bd 85 1c 97 3d b7 8b a1 3d 9a 3d ac bd
       -0.04924667 0.073784865 0.078879766 -0.08410187
000030 12 d5 75 3d da 16 f1 bb 61 16 01 bd 81 5b 16 3d
       0.060017653 -0.0073574604 -0.031515483 0.03670836
000040 55 6e ef bc 18 9a a6 bd 86 49 cc bd a2 8b 93 bc
       -0.029227415 -0.0813486 -0.09974961 -0.018010918
000050 c3 b8 1d 3b 1f f3 64 bc 21 d6 84 3c f7 de 71 ba
       0.0024066425 -0.01397398 0.016215386 -0.0009226645
000060 b9 54 4d bd a7 13 59 bd ed 0a f1 3c 20 b3 7a 3d
       -0.050129626 -0.052997258 0.029424155 0.061205983
000070 05 15 96 bd b5 70 8d bc 49 6b 3e bd 96 27 7a 3d
       -0.07328228 -0.017265657 -0.046489034 0.06107291
000080 53 18 de 3c 75 3f 89 bd 81 fe 1d bd 0f 59 d8 bc
       0.027111208 -0.067015566 -0.038572792 -0.026409654
000090 b5 d3 f5 ba e6 41 7d 3c c8 8c 79 bd 04 08 dd 3c
       -0.001875511 0.015457606 -0.060925275 0.026981361
0000a0 87 1a 19 3c dd 97 0b 3d 74 96 36 bd cc 65 5c 3c
       0.0093447035 0.034080375 -0.044577077 0.013452005
0000b0 27 03 df bc b4 a1 6d bd 48 1a 3d bd 3b 0e 00 bc
       -0.027223183 -0.05801554 -0.046167642 -0.007815893
0000c0 67 8c 70 3d 09 f2 0e bd 59 18 19 bd a9 ef 29 bd
       0.058727648 -0.03489879 -0.037376735 -0.041488323
0000d0 f8 4a 3c bd c0 dc 06 3d 48 53 56 3d 35 96 f9 bc
       -0.045969933 0.032925367 0.052325517 -0.030467132
0000e0 95 d3 cc bc 23 43 89 bc 34 36 b3 bb 13 46 12 3d
       -0.025003234 -0.016755646 -0.005469108 0.03571136
0000f0 0d 28 3f bd 72 d0 88 3d 56 95 b0 3b d9 cb 1c 3d
       -0.046669055 0.06680383 0.005388896 0.03828034

params.core.6.weight f4 [64, 64, 3, 3]
000000 80 03 ee 3b c5 d6 b3 3c 36 df 9c bc d3 54 75 bc
       0.007263601 0.021952996 -0.019149404 -0.014973837
000010 ec fd ce 3c 05 f6 f9 3c 7e bb aa 3c 36 3e 5d bb
       0.025267564 0.030512819 0.020841356 -0.0033759004
000020 cc 76 3c bb 0e d4 73 bc 97 9a bf bc 44 eb 5d 3b
       -0.0028757332 -0.014882101 -0.023389144 0.0033862153
000030 da 0a 0a bd 97 ca 21 bd fe df 6d 3c 7b 16 1c 3d
       -0.033701755 -0.039499845 0.014518736 0.038107377
000040 f1 1e d0 3b 02 1e 21 bd 81 2d 2c bc 15 52 05 3d
       0.0063513448 -0.03933526 -0.010508896 0.032548983
000050 27 de 33 3b 8f bf b2 bc 25 07 36 bd b6 02 95 3c
       0.0027445646 -0.021819858 -0.044440407 0.01818977
000060 69 2a d8 bc 9e 69 fa b9 19 6c 08 3d b2 b0 60 bc
       -0.02638741 -0.00047762407 0.033306215 -0.013714002
000070 2e 43 a9 bc d7 39 71 bc eb f5 5f bb 4e 58 6d 3c
       -0.020661917 -0.014723263 -0.0034173678 0.0144863855
000080 4b 89 7d 3c 5f e3 2c bd 5e 33 0e bd a4 71 ea bc
       0.015474628 -0.042209025 -0.034716956 -0.028618641
000090 eb ac dc 3b 39 38 4f bc aa 42 82 bc a4 b6 ab 3c
       0.0067344806 -0.012647682 -0.015900929 0.020961113
0000a0 44 fe 03 3d 53 73 25 bd 6a e5 2d bd e2 73 78 3c
       0.03222491 -0.040393185 -0.042455114 0.015164347
0000b0 bd 35 3d bd 0f f7 86 bc 55 12 1b 3d b8 59 20 3c
       -0.046193827 -0.016475229 0.03785928 0.009787016
0000c0 98 f6 5a 3c d6 57 e6 bc b2 61 31 bc d2 63 02 bd
       0.013364457 -0.028118055 -0.010826515 -0.031833477
0000d0 ca 9b e1 3c 3e fe 19 bd 26 ba c0 bc 7b ea 02 3d
       0.027540106 -0.03759598 -0.023526262 0.0319619
0000e0 bb 4e 1c bd 4a 35 ba bc 5f ab bf 3b 7d f1 26 3d
       -0.03816102 -0.022730488 0.0058492864 0.040757645
0000f0 73 14 cc bc 90 3d ce bc a8 3c 46 bb 8f bc 0b 3d
       -0.024912095 -0.02517584 -0.0030248556 0.03411537
000100 6e d7 9d 3c 58 31 46 bc b2 0c ab bc 56 da bd bc
       0.019267764 -0.012096725 -0.020880077 -0.0231754
000110 b7 3e 91 3b 64 62 05 3d e4 7b 71 bc e5 46 b9 bb
       0.004432525 0.032564536 -0.0147390105 -0.0056542032
000120 ab 6e 21 bd 5c d5 51 3c 04 e9 9d bc a2 1a a9 3c
       -0.03941218 0.0128072165 -0.01927615 0.020642582
000130 14 6b 9d bc c0 a3 e9 bb 6b 40 1c 3d de 64 f8 3c
       -0.019216098 -0.007130116 0.03814737 0.030321535
000140 bf 8d 03 bd 66 7b af bc 04 bf d0 3c eb b0 2b bc
       -0.0321176 -0.021421146 0.025481708 -0.010479192
000150 45 97 d0 bb 83 2f 87 3c 43 79 ca bc 45 2e 1d bd
       -0.006365689 0.016502148 -0.024716025 -0.038374204
000160 78 7d 77 3b e2 95 ce bb 48 43 1d bd 05 d4 1a bd
       0.0037763994 -0.0063044885 -0.038394243 -0.037799854
000170 ca 39 1b 3d b0 c8 c0 3c 37 ff 66 3c d1 70 06 bd
       0.03789691 0.023533195 0.014098934 -0.032822434
000180 d7 8f 26 bd 0a d8 94 3b 81 d9 8a bc 4f c3 96 bc
       -0.04066452 0.0045423554 -0.016949417 -0.018403677
000190 80 d4 1c bd 27 70 9c bc 54 b9 7d 3c 9a 50 87 bc
       -0.038288593 -0.019096447 0.01548608 -0.016517926
0001a0 04 37 80 3b a3 a5 1a 3d 04 bc 53 bc 0e bf 8f 3c
       0.0039128084 0.03775562 -0.012923244 0.017547157
0001b0 2b fc 0e bd eb 76 b1 3c c0 03 a0 bc 4a 62 00 3d
       -0.034908455 0.02166315 -0.019533038 0.031343736
0001c0 02 a6 36 bc 7c 9c 17 bd 55 ac 72 3c a8 f7 52 bc
       -0.011147978 -0.03701447 0.014811595 -0.012876429
0001d0 1a 37 86 bc fc fa 16 3d 3f 56 9b 3c f0 77 09 bd
       -0.016383696 0.03686045 0.018962024 -0.033561647
0001e0 91 0e 33 bd da 40 dc 3b 34 21 75 bc 03 14 e6 3c
       -0.043715063 0.006721598 -0.0149615295 0.028085714
0001f0 ea b2 89 3a ae e7 c7 3c 62 27 ec 3c 74 3b 81 bb
       0.0010505591 0.024402466 0.028827373 -0.003943855
000200 2c 8d ac bb df f1 1e 3d cc c0 a5 ba 42 9a a4 3c
       -0.0052658524 0.038804885 -0.0012645959 0.020093087
000210 28 75 70 3b 03 2f 00 3d 22 9f b0 3c 3c 8b ae bc
       0.0036690924 0.031294834 0.021560255 -0.021306626
000220 97 5f 62 bc 04 87 a4 bc 20 48 c6 bc 73 fe aa 3b
       -0.013816736 -0.020083912 -0.024204314 0.005218321
000230 b1 78 15 3d 9d e3 1c bd 65 57 18 ba 55 96 25 bd
       0.036492053 -0.038303006 -0.00058113626 -0.04042657
000240 bf 4a 10 3d 18 eb d5 bb 02 9f b3 3b e8 3d 23 bd
       0.035227533 -0.0065282695 0.0054816017 -0.03985396
000250 be 99 8d 3c 9c a7 3d 3c 68 dc 3c 3c 2d 9f 18 bd
       0.017285224 0.011575606 0.011527158 -0.037261177
000260 85 ae c9 bc fc 7b 88 3c 6a 06 85 bc e2 0a 05 bd
       -0.02461935 0.016660683 -0.01623841 -0.03248108
000270 7f 1a c5 3c d8 cc e8 b9 e1 a0 17 3d 27 da 5d 3c
       0.024060486 -0.0004440311 0.03701866 0.013540781
000280 aa 32 ff 3c 0d c3 56 3c 06 7b 9a 3b 14 45 98 bb
       0.031152088 0.013108027 0.0047143726 -0.0046469066
000290 4e 33 06 bd 73 40 0d 3c 5f bc 17 3c 01 49 e9 bc
       -0.03276377 0.008621323 0.00926122 -0.028477194
0002a0 f8 cf f4 39 6d d2 11 bd b1 76 8b bc 17 df 28 bd
       0.00046694255 -0.03560107 -0.01702437 -0.04122838
0002b0 18 72 87 3c 5b 28 af 3b d1 05 da 3b 1e 8e c0 bb
       0.016533896 0.005345387 0.0066535254 -0.0058763167
0002c0 1a 06 5e 3c 1a 77 dd bc 3c d8 f1 bc 8a 01 64 bc
       0.013551259 -0.027034331 -0.029522054 -0.013916383
0002d0 46 2a e9 3c e8 28 a0 bc 81 5c 08 bd cf 3b 8b bc
       0.02846254 -0.019550756 -0.033291344 -0.016996292
0002e0 07 fa 4f 3c a5 01 16 3d f7 c6 90 3c 10 3b e3 bc
       0.0126938885 0.036622662 0.017672999 -0.027738124
0002f0 27 d8 bc 3c 64 22 4c bc 38 62 fe 3c 04 3c 4a bc
       0.023052288 -0.012459371 0.031052694 -0.01234341
000300 33 27 1a 3c a6 66 10 bd 44 a8 94 bc d4 c1 95 3c
       0.00940876 -0.035254143 -0.018146642 0.018280901
000310 b6 da 84 bc b8 c8 68 3c db ca b8 bb 0e fb 19 3c
       -0.01621757 0.014208011 -0.0056394166 0.009398235
000320 07 d5 02 3c 2b 8f 9a 3c 85 88 37 bd 62 25 10 bd
       0.00798536 0.018867096 -0.04480793 -0.0351919
000330 d3 6b bb 3c f1 f0 fc 3c 95 84 8d bc d6 48 15 3d
       0.022878563 0.030876609 -0.017275134 0.036446415
000340 13 b4 98 3b 96 6b 96 3c ed 7e fd bb 4d 8d 08 bd
       0.0046601384 0.018361848 -0.007736078 -0.03333788
000350 fb 92 27 bd 88 b0 19 bd 7a 3d 81 ba ec de a9 3a
       -0.040911656 -0.03752187 -0.000986024 0.0012960113
000360 55 c3 10 3d fd 75 08 bc 86 0e ec bb ce 65 45 bc
       0.035342533 -0.008328912 -0.0072038798 -0.012048198
000370 4e 72 86 bb de 84 26 3c 53 9e 4c bc 35 dc a3 3c
       -0.0041029816 0.010163514 -0.012488919 0.020002464
000380 7b c6 f4 3c 2a 25 88 bc a0 53 03 3c d4 c1 03 bd
       0.0298798 -0.016619284 0.008015543 -0.03216727
000390 3a c4 86 3c 21 59 1a 3d d8 cb 0e 3c 88 1f 0e bc
       0.01645099 0.037682656 0.008715592 -0.00867451
0003a0 ca 7a 94 bc 45 f8 25 3d 5b 41 10 bd b2 75 07 bc
       -0.018124957 0.04051997 -0.035218578 -0.008267807
0003b0 a3 ac a4 bc 34 23 04 bd 96 1e 86 3c 59 94 af 3c
       -0.02010185 -0.032260135 0.016372006 0.021433042
0003c0 c0 7e 1a bd 7f 3d 17 bc 49 f5 b2 3c 0e 3e 14 3d
       -0.037718534 -0.00923097 0.021845477 0.036191992
0003d0 72 38 02 bc 90 27 b5 bc 1b e6 8e bc 9b 35 fb bc
       -0.007948028 -0.022113591 -0.017443707 -0.03066521
0003e0 ed 31 93 bc b4 33 5e 3c 75 61 b0 3c 54 d8 e2 3b
       -0.017968142 0.013562132 0.021530846 0.006922761
0003f0 ba 5b b0 3c 88 76 08 3c 61 db 07 bc e5 9e 01 3c
       0.021528114 0.008329041 -0.00829205 0.007911419

params.core.6.bias f4 [64]
000000 36 a4 83 bc 36 5d b3 3c 25 ac ea bc 75 f4 17 bd
       -0.016069513 0.021895032 -0.028646538 -0.037098367
000010 0b a1 25 bc a1 8c 3d 3c 0b d8 52 3c a2 6c 48 bd
       -0.010109196 0.011569173 0.0128688915 -0.048931725
000020 da 78 a9 bc 6b ba 19 bd 8c 84 da bc a6 f9 39 3d
       -0.02068751 -0.037531298 -0.026674531 0.0454041
000030 75 42 3a bd fe dd 5f bd 39 3d d7 3c 82 25 c7 3c
       -0.045473535 -0.054655068 0.02627431 0.024309877
000040 cb 8b 29 3d d9 6e 28 bd 9e b2 78 bc cf 0c 30 bd
       0.041393083 -0.041121338 -0.015179304 -0.042980965
000050 91 6f 28 3c de 00 95 3d c8 c7 25 bd 88 cf a8 3d
       0.010280506 0.07275556 -0.04047373 0.082427084
000060 0d fa 36 3d 89 12 60 3d 22 b5 0e 3d 5f 0f 0e bd
       0.04467206 0.054705177 0.03484071 -0.034682628
000070 63 1a d3 bc e6 95 c7 bc 69 1d 4a 3d 03 bd 5f bc
       -0.025769418 -0.02436347 0.049344454 -0.013655904
000080 20 14 fc 3c f9 ec 81 bc be 0b 32 bd 78 aa ba bc
       0.030771315 -0.015860068 -0.04346823 -0.022786364
000090 7c 98 3f bd 81 73 9f bc 7a 6c b7 bb f8 04 84 bb
       -0.04677628 -0.019464256 -0.005597648 -0.0040289126
0000a0 be e9 c0 bc 51 78 14 3d 8a 91 0a bd 7c 59 fc 3c
       -0.023548957 0.036247555 -0.033830203 0.030804388
0000b0 19 b1 61 3d b0 f3 21 bc fe e2 c0 3d 86 cc 1f 3d
       0.055100534 -0.00988476 0.09418295 0.039013408
0000c0 30 5f 7d 3d 14 a2 39 bc c8 76 e4 bc 6d 0b b4 3c
       0.061858356 -0.011330146 -0.02788867 0.021978104
0000d0 ef 55 3f bc 5c 08 8c 3d 9b 3f b5 bc 7b 24 eb bb
       -0.011678203 0.06837532 -0.022125056 -0.0071759797
0000e0 00 7b a5 3d 23 49 6e bc 33 ef 8b 3d d1 e6 15 3d
       0.08080101 -0.014543804 0.06832733 0.036597077
0000f0 a7 8f 4d bd b1 77 ee bc 83 97 81 bd 6c 38 af 3d
       -0.050185826 -0.029109808 -0.06327727 0.085556835

params.core.8.weight f4 [64, 64, 3, 3]
000000 13 05 ce 3c 9f d4 b0 3c 6a 9d 23 3d 31 28 25 3d
       0.025148904 0.02158576 0.039945044 0.040321533
000010 f4 d3 cd bc 12 69 1b bc c8 1c 4c 3b c0 09 14 3c
       -0.025125481 -0.0094855 0.0031145085 0.009035528
000020 5c 41 84 3c f7 88 97 3b c3 65 9f 3c 9e ff 6f bc
       0.016144447 0.004624482 0.019457703 -0.014648346
000030 78 62 b4 3c 8a 5b f4 3b 8e 71 5b bc fe 40 84 bd
       0.02201961 0.0074572014 -0.013393773 -0.06457709
000040 6a 73 67 bd 00 df e0 bd 48 46 22 bd 35 ae 18 bd
       -0.05650655 -0.10980034 -0.039617807 -0.03727551
000050 6c 1b 27 bd b6 66 0b bc 8b b5 32 bc 0c 28 0a 3a
       -0.040797636 -0.008508375 -0.010907541 0.00052702497
000060 80 38 e0 bb 9d 1c 93 3c 94 be 26 bd ec 9b e8 3c
       -0.006842673 0.01795798 -0.040709093 0.028394662
000070 55 9d 07 bd 3c 8f f6 bb 8a e8 11 bd cd 76 50 3d
       -0.033109028 -0.007524399 -0.035622157 0.050894547
000080 14 8b 7d 3d 07 07 3f 3b b6 b1 e5 ba 21 ce 92 3d
       0.061900213 0.0029148476 -0.0017524275 0.07168222
000090 69 86 59 bc 07 34 71 3d 3a fc 3c 3c b0 a5 c0 bb
       -0.013276675 0.058887508 0.011534745 -0.0058791265
0000a0 18 64 c8 bc 46 74 64 3c 9a 68 b0 bc 39 9b 94 3c
       -0.02446179 0.013943737 -0.021534253 0.018140422
0000b0 f1 d1 39 3b d9 ed 18 bc 3e 03 b8 3a 62 b0 de 3b
       0.0028353895 -0.009334051 0.0014039052 0.006795929
0000c0 71 67 cc bb c9 0f 0e bb 6f 51 27 3d f1 dd e8 3b
       -0.006237917 -0.002167689 0.040849146 0.0071065356
0000d0 61 80 23 bd 7f 58 7c 3d 45 78 aa bc 10 98 b9 3c
       -0.039917354 0.061607834 -0.020809302 0.022655517
0000e0 3a 5f 69 3d b1 70 5b bd 27 19 24 bc 9e 56 9c bd
       0.05697558 -0.053574268 -0.010015762 -0.076337084
0000f0 24 c7 ef 3c 25 0d 74 bc fa 57 32 3d 62 eb 0f 3c
       0.029269762 -0.014895712 0.043540932 0.008784147
000100 1f 43 1d bd c0 09 da bc a0 58 6f 3c 30 da f5 bc
       -0.03839409 -0.026615977 0.014608532 -0.030011266
000110 3d c4 16 3d d1 a2 a6 bc 2d 9a d5 3c 83 66 13 3d
       0.03680824 -0.020341309 0.026074493 0.035986435
000120 4c 05 02 3d 08 31 2b bc 9e 6a 01 bc bb b7 f1 38
       0.031743333 -0.010448702 -0.007898955 0.00011525998
000130 35 77 12 3d 0b 2b ba 3b ac 8a 1a 3c 98 df f4 bc
       0.035758216 0.0056814007 0.009432476 -0.029891774
000140 1f 49 06 3d 74 62 18 bd 4e ea ee bb 3c d0 67 3b
       0.032784577 -0.037203267 -0.007291115 0.003537192
000150 cd fa ae bc 35 c5 4a bb 94 02 b4 3c 7d 98 83 bd
       -0.021359826 -0.0030940298 0.021973886 -0.06425569
000160 8f 43 3e bc da 2c 18 3d a7 9b 27 3d 50 c2 e4 bc
       -0.011612787 0.03715215 0.040919926 -0.027924687
000170 3d 41 65 bb 2d 42 29 3d 58 fa e5 3b 9f 2f bc bc
       -0.0034981512 0.041322876 0.0070183687 -0.022971926
000180 4c f8 99 3c d0 ae e0 bc 3e 87 ae 3c 67 a6 f0 bd
       0.018795155 -0.027427107 0.021304723 -0.11750489
000190 9f 75 bd bc 83 ca d2 3c d8 96 91 3c 4d 0c 23 3c
       -0.023127375 0.02573133 0.017772123 0.009951663
0001a0 a0 e1 82 bc ec 76 40 3d 71 4d d6 bb bf 6a e8 3b
       -0.015976727 0.046988413 -0.0065399935 0.0070928033
0001b0 7a ab c0 bb e0 be e7 3b 9e af cd bb 8a c8 a9 bb
       -0.0058798166 0.0070723146 -0.0062770387 -0.005181377
0001c0 9b 55 2a bd 3a ba de 3c c8 4b 80 bc 64 db 1d bc
       -0.041585546 0.02718841 -0.015661135 -0.009634826
0001d0 84 d1 e2 bc d8 f6 2e 3d a0 b7 72 bc 20 31 cb bb
       -0.027687795 0.042715877 -0.014814287 -0.0062009245
0001e0 68 01 9d 3d ca 39 d4 bc 72 a5 52 3c 6e c1 e7 bc
       0.07666284 -0.025906462 0.012856828 -0.028290477
0001f0 03 99 14 3c 40 d1 61 bd 84 08 46 3d c8 91 c7 bc
       0.009069684 -0.055131197 0.048347965 -0.024361506
000200 7a df da bb dc 97 00 bd be de 79 3d 9a 2d 81 bc
       -0.0066794725 -0.031394824 0.06100344 -0.015768815
000210 68 29 1b 3d 82 34 a4 bc 17 e2 df bb b9 7e 57 3d
       0.037881285 -0.020044569 -0.006832372 0.052611087
000220 32 28 9e 3d fd fb ce bc 14 cf c3 3c 41 b0 81 3c
       0.077225104 -0.025266642 0.023902453 0.015831115
000230 2b 03 86 bd 49 51 0d 3c a3 8c 93 3d 4e 26 b8 3d
       -0.06543573 0.008625337 0.07204559 0.08991681
000240 a2 29 97 3d c8 48 17 3c 00 09 89 bb 6d 8c 8f 3c
       0.07380988 0.009233661 -0.004181981 0.017523015
000250 16 6a dd 3b 4f 9d 05 bd 8f 3d e3 bc cf 3a 0e bd
       0.006757031 -0.032620724 -0.027739314 -0.034724053
000260 c6 ef 96 bc 38 e2 15 bb 78 6f cd 3c a2 3f a4 38
       -0.01842488 -0.0022870433 0.025077567 7.831982e-05
000270 63 b8 1a bc 60 34 1c bd 5f 01 69 bb 2c 1a ad bb
       -0.009443375 -0.038135886 -0.0035553796 -0.005282661
000280 b8 6c e5 3c 14 ab 09 3d 34 65 bf 3c 81 d7 04 3d
       0.028005943 0.03361042 0.023363687 0.032432083
000290 08 38 34 3d 3f 54 d3 bc cb 52 98 bc aa 25 d8 bc
       0.043998748 -0.025797008 -0.018594166 -0.026385147
0002a0 e2 52 b7 bc a9 d5 29 bd 10 26 23 bd 9f e0 06 bc
       -0.022378389 -0.041463528 -0.03983122 -0.008232265
0002b0 a9 33 1d 3d 22 28 87 bc 61 57 98 3c 00 81 de 3b
       0.038379345 -0.016498629 0.018596353 0.0067902803
0002c0 da e0 b3 3c 9b 91 c7 3c 49 9d 1a 3d 1e b5 96 3c
       0.021957804 0.024361422 0.037747655 0.01839691
0002d0 82 64 a5 bc b3 c3 d6 bc 16 90 b6 3d 98 46 8d 3b
       -0.020189527 -0.026216364 0.08914201 0.004311394
0002e0 cb 02 0d bd 47 ae 02 3c bd 29 84 bc 25 84 c7 3a
       -0.03442649 0.007976121 -0.016133184 0.0015221877
0002f0 62 37 0a 3d b0 97 8d 3d a1 2f a4 3d 2a 1a 2c 3c
       0.033744223 0.06913698 0.08016897 0.010504285
000300 c8 ec 95 bd 04 b8 64 bc b0 42 4b 3a e1 ce 0c bc
       -0.07320553 -0.013959888 0.00077537727 -0.008594246
000310 35 7d 3f 3d d5 61 85 3d ee 98 1c 3d 76 6d df bc
       0.046750266 0.065128006 0.038231783 -0.027273875
000320 2c 2b 80 3c 5c b6 0d 3d 48 4f 3e bc 0a 73 c5 3c
       0.015645586 0.03459774 -0.011615582 0.024102706
000330 96 97 10 bc 91 00 6f bc 76 fa db bc 05 cf 1b 3c
       -0.008825203 -0.014587537 -0.026852828 0.0095098065
000340 ad c8 72 3d cf 1f 9f 3d 8e 63 29 bc 05 72 d3 3c
       0.05927341 0.07769739 -0.010338677 0.025811205
000350 5a 05 a3 bc b4 cc 61 3c bc d9 b6 3c c1 5f 5e 3d
       -0.019900013 0.013781715 0.02232062 0.054290537
000360 c8 06 84 3c df 22 ce 3c 04 f2 d3 3c 40 af 57 3c
       0.016116515 0.025163112 0.025872238 0.013164341
000370 3e 83 58 3c 32 58 38 3c 2d 0e 61 bd bb 82 d2 bc
       0.013214884 0.011251496 -0.05494516 -0.025697103
000380 f4 62 1c be 5e 52 3a 3b a3 06 4c 3d b9 39 50 bb
       -0.15272123 0.0028430442 0.049811017 -0.0031772687
000390 2d bc 05 3c 84 e3 ed 3b 11 23 5f bd c4 fb 9b bd
       0.00816254 0.007259788 -0.0544768 -0.0761638
0003a0 d3 07 73 bc 1e f9 9a bd e2 1a 45 3c 1b 8f 57 3c
       -0.014833408 -0.075670466 0.012030335 0.013156678
0003b0 52 22 86 3d 75 77 1b bc 0d 3a 1a 3d f7 07 31 bd
       0.06549515 -0.00948893 0.037653018 -0.043220486
0003c0 87 02 66 bd 1d 5c ac bc 4e 42 15 3d ab 77 84 3c
       -0.056154754 -0.021040017 0.036440186 0.016170343
0003d0 ed d8 4f bc b6 f4 4a 3d e6 08 10 bd 14 2e fc 3c
       -0.0126859965 0.04954978 -0.035164736 0.03078369
0003e0 74 f8 16 bd 3f 4a 99 bc 81 c9 94 bb d8 1c 40 3d
       -0.036858037 -0.018712161 -0.0045406227 0.046902508
0003f0 6f a6 16 bd 0b 37 08 3d 77 88 a6 bc 2e 3d c4 bc
       -0.036779817 0.033255618 -0.020328743 -0.023954954
