models/reg_weight/10/prob_model.pth (torch, 851234 bytes, 18 tensors)

params.in_layer.0.weight f4 [32, 3, 3, 3]
0	0x3e04c493	0.12965612
1	0xbe571cf9	-0.21007146
2	0x3d162132	0.03665275
3	0x3e5bc435	0.21461566
4	0x3dc1be24	0.094600946
5	0xbc186ac0	-0.009302795
6	0x3ca85e24	0.020552702
7	0xbe670f12	-0.22564343
8	0x3e2bb3dd	0.16767831
9	0xbdd2d10d	-0.102937795
10	0xbdb92437	-0.090401106
11	0xbd59cbd8	-0.053172916
12	0x3dd2c76d	0.10291944
13	0xbe1c52ee	-0.1526601
14	0xbe241bcc	-0.16026229
15	0x3e340864	0.17581326
16	0xbdf08fd2	-0.117461815
17	0x3d5a7904	0.053338066
18	0x3d9507f7	0.0727691
19	0x3db364a6	0.087594315
20	0xbd8ce4bf	-0.06879567
21	0x3dfcfd45	0.12352995
22	0xbe0bc725	-0.13650186
23	0xbdbe2ef2	-0.09286298
24	0xbdf79273	-0.1208848
25	0x3d392329	0.045199547
26	0x3de0808b	0.109620176
27	0xbdc52e1f	-0.096279375
28	0x3be22099	0.0069008586
29	0xbe17c7a7	-0.14822255
30	0xbc60c8b5	-0.013719727
31	0x3d5d6464	0.054050818
32	0x3d69a61e	0.057043187
33	0xbde5f34e	-0.11228047
34	0xbd8a748f	-0.06760513
35	0xbdbf68c8	-0.09346157
36	0x3e11d968	0.1424309
37	0xbe1260f7	-0.14294802
38	0x3da7e8c8	0.081986964
39	0xbd69563b	-0.056967
40	0xbd86edf4	-0.06588355
41	0x3e1657ec	0.14681977
42	0xbe1d73f4	-0.15376264
43	0xbe426e5f	-0.18987416
44	0x3e237007	0.15960704
45	0x3db519ad	0.08842788
46	0x3e27fa38	0.16404045
47	0x3dd74306	0.105108306
48	0x3c558058	0.013031088
49	0x3e2a46c8	0.16628563
50	0xbc770429	-0.015076675
51	0xbdf4701a	-0.11935444
52	0xbd25fe4d	-0.040525723
53	0x3c56eb1a	0.013117576
54	0xbe1529cb	-0.14566724
55	0x3d5767f6	0.05258938
56	0x3cf1a5c0	0.029497981
57	0xbd0d18d8	-0.03444752
58	0x3ca74320	0.02041775
59	0x3c360b2e	0.011111064
60	0x3da08a8e	0.07838927
61	0x3df7d510	0.12101185
62	0x3d40e2e5	0.047091383
63	0x3e2b6354	0.1673711
64	0xbe24e726	-0.16103801
65	0xbd0d1bdb	-0.034450393
66	0xbdb8e84b	-0.09028681
67	0xbe2da087	-0.16955768
68	0x3dd3ab24	0.10335377
69	0xbd89bea8	-0.06725818
70	0xbdc45ad8	-0.095876396
71	0xbe34acc8	-0.17644036
72	0xbc4f7423	-0.0126619665
73	0xbbe5eb08	-0.0070165433
74	0xbd041b94	-0.032252863
75	0xbe16bbf6	-0.14720139
76	0x3de77d79	0.11303229
77	0x3d19b78a	0.037528552
78	0x3e12d08e	0.1433737
79	0x3c047d71	0.008086548
80	0x3e33c70b	0.17556398
81	0xbdbc918b	-0.092074476
82	0xbd888abc	-0.066670865
83	0xbdcc3236	-0.099705145
84	0x3dc88902	0.09791757
85	0xbe163795	-0.1466964
86	0xbdfbfefe	-0.12304495
87	0x3da68582	0.08130933
88	0x3e1dead3	0.1542161
89	0x3c885ef0	0.016646832
90	0x3cf9c480	0.030489206
91	0xbe266975	-0.16251166
92	0xbb01d548	-0.0019810963
93	0xbe0e83ab	-0.13917415
94	0xbc229f38	-0.009925656
95	0x3e117341	0.14204122
96	0xbde4ec47	-0.11177879
97	0xbd65e280	-0.05612421
98	0x3d945a8e	0.072438344
99	0x3b241d88	0.0025042016
100	0x3d9235de	0.071391806
101	0xbdd20bc9	-0.10256154
102	0xbe24cc04	-0.16093451
103	0xbcf27f28	-0.029601648
104	0x3e1e0919	0.15433158
105	0xbdb84654	-0.08997789
106	0x3d80c94e	0.06288396
107	0xbdc5eff1	-0.09664906
108	0x3e89fa08	0.2694857
109	0xbd193c53	-0.037411045
110	0x3e6433f4	0.22285444
111	0x3dcbb1e5	0.0994604
112	0x3e42d662	0.19027093
113	0x3e34924b	0.17633931
114	0xbded6548	-0.115915835
115	0xbe2ee153	-0.17078142
116	0xbe1b6dca	-0.151786
117	0x3dee8760	0.116469145
118	0xbc38c6e0	-0.011277884
119	0x3c85cc5e	0.016332801
120	0xbd86bf55	-0.065794624
121	0x3d91712c	0.07101664
122	0xbddc6d3d	-0.10763023
123	0xbe0b1e76	-0.13585839
124	0xbe3359e3	-0.17514758
125	0xbe4b78f6	-0.19870362
126	0x3e0fa8dd	0.1402926
127	0x3ddb303f	0.107025616
128	0xbbc4cf86	-0.006006184
129	0x3e271cc2	0.16319564
130	0x3d7886c7	0.06067541
131	0xbd79a751	-0.06095058
132	0x3e2db5f4	0.16963941
133	0xbd0328c3	-0.032021295
134	0x3e1da9b3	0.15396766
135	0x3b769cb5	0.0037630026
136	0x3e194ade	0.14969966
137	0xbc05bede	-0.008163182
138	0x3d2b1cad	0.041775394
139	0xbc316c6d	-0.010829073
140	0x3e1b662d	0.15175696
141	0xbd1a5edf	-0.037688132
142	0x3e018387	0.1264783
143	0x3e4358a9	0.1907679
144	0xbd4f7489	-0.050648246
145	0xbe3b70e3	-0.18304782
146	0xbe13ac91	-0.14421298
147	0x3da092ab	0.07840475
148	0x3e1d9544	0.15388972
149	0xbdd1bf9c	-0.10241625
150	0xbe1c55ba	-0.15267077
151	0x3dcf7ff7	0.10131829
152	0xbe0aa20c	-0.13538378
153	0x3e0e7261	0.1391082
154	0x3e03ae6a	0.12859502
155	0xbda53058	-0.080658615
156	0x3c995b4b	0.01872029
157	0x3e140c9b	0.14457934
158	0xbbdc2de4	-0.006719338
159	0xbd856553	-0.06513467
160	0x3e1d8059	0.15380992
161	0xbe0f7faa	-0.14013544
162	0x3c1eeb44	0.009699646
163	0x3ddd252b	0.10798105
164	0x3da138fe	0.078721985
165	0xbd2f8a09	-0.04285625
166	0xbe1ff291	-0.15619875
167	0x3c06ba11	0.008223073
168	0x3cd5ab21	0.026082577
169	0xbd4be7ff	-0.049781796
170	0x3e2c5682	0.16829875
171	0x3e0d49b4	0.13797647
172	0x3d92d52e	0.07169567
173	0x3db6c380	0.089240074
174	0x3dc68e4b	0.09695109
175	0xbdef3dc8	-0.11681706
176	0xbe1e0137	-0.15430151
177	0xbe6b1f75	-0.22961219
178	0x3ddbb148	0.10727173
179	0xbd883c63	-0.06652143
180	0x3b34dc2a	0.0027597048
181	0x3d0015c5	0.03127076
182	0x3db86c92	0.09005083
183	0xbc4084ee	-0.011750443
184	0xbdaeeff8	-0.08541864
185	0xbe54fffa	-0.20800772
186	0xbe24df3b	-0.1610078
187	0x3da61649	0.08109719
188	0x3d8d821f	0.06909584
189	0xbde40e7c	-0.11135575
190	0x3e2d8827	0.16946469
191	0xbd7b0cfe	-0.061291687
192	0xbd51322c	-0.05107324
193	0x3dcfc4a0	0.10144925
194	0x3e401ec0	0.1876173
195	0x3de9091f	0.11378693
196	0xbd99b6a9	-0.07505543
197	0xbd091c92	-0.033474512
198	0x3e0fb2fc	0.14033121
199	0xbb261e15	-0.002534752
200	0x3e26b6d4	0.16280681
201	0xbe3fd435	-0.18733294
202	0x3e4695e6	0.19393119
203	0xbe36a235	-0.17835315
204	0xbdedb19e	-0.116061434
205	0xbe14fe85	-0.14550216
206	0x3e3b5b8b	0.1829664
207	0xbe37113f	-0.17877673
208	0xbd582674	-0.052771047
209	0x3d07e42b	0.033176582
210	0x3d809729	0.062788315
211	0x3c62fcc4	0.013854209
212	0x3db33064	0.08749464
213	0xbdd6f4ff	-0.10495948
214	0xbdb23396	-0.087012455
215	0x3e1ebdfb	0.1550216
216	0x3e186f19	0.1488613
217	0xbdc5f905	-0.09666637
218	0x3e2d75d4	0.16939479
219	0xbceb6632	-0.028735254
220	0xbe69ea39	-0.22843255
221	0xbdf65ca9	-0.12029392
222	0xbcd491fa	-0.025948513
223	0x3e51c4a1	0.20485164
224	0xbe4671a1	-0.19379283
225	0x3d2a73d6	0.041614376
226	0x3d38e0a3	0.045136105
227	0xbc872e84	-0.016501673
228	0x3e29de4f	0.1658871
229	0x3d27221f	0.040804025
230	0xbe128955	-0.143102
231	0x3e52ee36	0.20598683
232	0x3e48736b	0.19575278
233	0xbdd9ee5b	-0.10641166
234	0x3d36fba6	0.044673584
235	0x3e1d06eb	0.1533467
236	0xbdb9dadd	-0.09074948
237	0x3e1d98e7	0.15390359
238	0xbdac78f6	-0.08421509
239	0x3cda34ae	0.026636448
240	0xbdf527b2	-0.11970462
241	0xbd82386e	-0.06358419
242	0xbe189552	-0.14900711
243	0x3d981a58	0.074269
244	0xbcba4bb5	-0.022741178
245	0xbd76d2ee	-0.060259752
246	0xbcd72513	-0.026262796
247	0xbd5d92e9	-0.054095183
248	0x3dad169b	0.08451577
249	0x3e4ce9a6	0.20011005
250	0xbe21627b	-0.15760224
251	0xbdfa8baa	-0.1223367
252	0x3d609fd7	0.054839935
253	0xbe234a94	-0.15946418
254	0xbdee4d37	-0.11635821
255	0x3e39d8fe	0.18149182

params.in_layer.0.bias f4 [32]
0	0x3e2cf2e8	0.16889536
1	0xbdf3b120	-0.11899018
2	0x3d09d925	0.03365435
3	0xbdea74a7	-0.11448031
4	0x3c8aa590	0.01692465
5	0x3cf20450	0.029543072
6	0x3df1fc67	0.1181572
7	0xbcb8887f	-0.022526024
8	0xbd55813b	-0.052125197
9	0xbe1fd41c	-0.15608257
10	0xbd69ba2a	-0.057062306
11	0x3dee6a1e	0.11641334
12	0xbe24f351	-0.16108443
13	0xbe287b97	-0.16453396
14	0x3dba7ced	0.09105859
15	0xbd96d63b	-0.0736508
16	0x3e1ef919	0.1552471
17	0x3d8cbb8c	0.06871709
18	0x3d5705a1	0.052495603
19	0xbd517bfa	-0.051143624
20	0xbd7133c6	-0.058887266
21	0xbdebcdca	-0.115138605
22	0xbe336e25	-0.17522486
23	0x3e1b5cf1	0.15172173
24	0xbd1451a8	-0.036210686
25	0xbdf60426	-0.1201251
26	0x3d58e84a	0.052955903
27	0x3d67ca26	0.05658927
28	0xbe2756c7	-0.16341697
29	0xbd4cea79	-0.050028298
30	0x3ceb9621	0.02875811
31	0xbddc4171	-0.107546695

params.core.0.weight f4 [32, 32, 3, 3]
0	0x3c5f92d8	0.01364585
1	0x3d3dc7c0	0.046333075
2	0x3c299853	0.010351258
3	0xbcfbacb5	-0.030722002
4	0xbd67e23a	-0.05661223
5	0x3d44e76c	0.048072264
6	0xbcd0f3e3	-0.02550692
7	0x3d3341f4	0.04376407
8	0x3c900412	0.017580066
9	0x3d38298e	0.044961505
10	0x3cad38b6	0.021145206
11	0xbc8e30bc	-0.017357223
12	0x3c9b8f13	0.018989122
13	0x3d032533	0.032017898
14	0xbd6beb86	-0.05759766
15	0x3d498582	0.04919959
16	0xbcab607c	-0.02092003
17	0x3d2b0301	0.04175091
18	0xbc632fcb	-0.013866375
19	0xbd45bcf5	-0.048275907
20	0x3b157b58	0.0022809114
21	0x3c9fe55b	0.019518545
22	0xbbbd1f90	-0.005771585
23	0xbd4c6034	-0.049896434
24	0x3cc0905a	0.023506332
25	0xbce1bbb3	-0.027555322
26	0xbd30a53f	-0.04312634
27	0x3d0effc3	0.034911882
28	0x3bed1728	0.0072354265
29	0x3d15c5db	0.036565643
30	0xbd2be119	-0.041962717
31	0x3cb0f6ea	0.021602113
32	0x3c9ae822	0.018909518
33	0x3d04c457	0.032413807
34	0xbd367a9b	-0.04455052
35	0x3cecba62	0.028897468
36	0xbcdef717	-0.027217431
37	0x3c9ed2d8	0.019387648
38	0xbc2693c2	-0.010167064
39	0xbd74d544	-0.0597737
40	0xbd03f35a	-0.0322145
41	0xbd586aff	-0.052836414
42	0x3b643943	0.003482417
43	0xbd23dbbd	-0.04000448
44	0x3d1d702a	0.038437046
45	0xbd818741	-0.06324626
46	0x3cc4521b	0.023964932
47	0xbd1632d7	-0.03666958
48	0xbd359dd1	-0.04433996
49	0xbcac1a7f	-0.021008728
50	0xbd54f107	-0.051987674
51	0x3bd7f565	0.0065905326
52	0xbc05d406	-0.008168226
53	0x3c97a26e	0.01851007
54	0x3d167f2e	0.03674238
55	0xbd0221ce	-0.03177052
56	0xbd3dc92b	-0.046334427
57	0xbd1c7321	-0.038195733
58	0xbc79c791	-0.015245334
59	0x393d42c4	0.00018049317
60	0xbb784c37	-0.0037887224
61	0xbd8139f9	-0.063098855
62	0x3cfcd8a0	0.030865014
63	0xbcdff891	-0.027340205
64	0xbbc53fe0	-0.0060195774
65	0xbd2dab72	-0.04239983
66	0xbd35b9ee	-0.04436677
67	0xbcf6d27a	-0.03012966
68	0x3c0db365	0.008648728
69	0xbd6d9be0	-0.058009982
70	0x3c79b06e	0.015239818
71	0xbd609b8e	-0.05483585
72	0x3c84ad68	0.016195968
73	0x3d02ce8e	0.031935267
74	0xbd4bdae8	-0.049769312
75	0xbd4f24af	-0.050572094
76	0x3d08b22d	0.033373047
77	0xbb99378c	-0.004675811
78	0xbc087b3c	-0.008330163
79	0xbd3034c4	-0.04301907
80	0xbc3c6dbf	-0.011500775
81	0xbce4c6f6	-0.027926903
82	0x3d401c34	0.046901897
83	0x3d289835	0.04116078
84	0xbc304d8d	-0.010760677
85	0xbceaa740	-0.028644204
86	0x3c114bdc	0.008868184
87	0xb94dc24b	-0.00019622703
88	0x3c81ce3a	0.015845407
89	0xbd45cd38	-0.048291415
90	0x3c8b21b5	0.016983846
91	0x3bf53727	0.0074833813
92	0xbc5e6773	-0.013574469
93	0x3a628b98	0.0008642017
94	0xbc82f511	-0.015985997
95	0x3cb39e2b	0.021926006
96	0xbc9344b7	-0.017977102
97	0x3d456ba7	0.04819837
98	0x3a41f6c3	0.0007399136
99	0x3d0be4cb	0.03415374
100	0xbc89a188	-0.016800657
101	0xbc3eacfb	-0.011637921
102	0x3c5a5d84	0.01332796
103	0x3d551b10	0.052027762
104	0x3d467825	0.048454423
105	0xbd60b254	-0.054857567
106	0x3d4684da	0.04846654
107	0x3c81de41	0.01585305
108	0x3d673b95	0.056453306
109	0x391ed2d5	0.00015146595
110	0x3d46f418	0.04857263
111	0x3a892518	0.0010463325
112	0xbd817a71	-0.06322182
113	0xbc04b0b8	-0.008098774
114	0x3c9ffdb7	0.01953016
115	0x3d371dff	0.04470634
116	0x3d1871d2	0.037217923
117	0x3c0d750f	0.008633866
118	0xbd4e7c56	-0.050411545
119	0xbbefa66f	-0.0073135416
120	0x3cee38c7	0.029079808
121	0x3c1029d8	0.008799039
122	0xbc9e3687	-0.01931311
123	0x3d50d878	0.05098769
124	0xbcf7f693	-0.030268943
125	0xbccbd859	-0.024883436
126	0xbc702280	-0.014656663
127	0xbcfbfb27	-0.030759407
128	0xbd3244b4	-0.04352255
129	0x3c10d884	0.008840684
130	0xbd545648	-0.051840097
131	0x3ca73d06	0.02041484
132	0xbd34e131	-0.04416007
133	0xbd0a1e08	-0.033720046
134	0xbd3efc85	-0.04662754
135	0xbd3c9d08	-0.046048194
136	0x3b8b797d	0.004256426
137	0x3d2dc3f2	0.042423196
138	0x3ca66132	0.020310018
139	0xbd74e944	-0.059792772
140	0xbc929cdf	-0.017897068
141	0xbcbbb8ae	-0.02291521
142	0xbc555895	-0.013021608
143	0x3c71133e	0.01471406
144	0x3c04f21c	0.008114364
145	0x3d1ad1c3	0.0377977
146	0xbd055b04	-0.032557502
147	0xbbb95638	-0.00565603
148	0xbc7eb508	-0.015546091
149	0x3cf51672	0.02991793
150	0xbd532d70	-0.051557004
151	0xbd397617	-0.045278635
152	0xbc7ab7b4	-0.015302587
153	0x3c224553	0.0099042235
154	0x3ca9512c	0.020668589
155	0xbd45d0c5	-0.0482948
156	0x3ca1298d	0.019673133
157	0x3c9e2c37	0.019308193
158	0xbd27be35	-0.04095288
159	0x3cb5caee	0.022191491
160	0x3ce8f910	0.028439075
161	0x3b82329f	0.0039733197
162	0xbc5d4d5b	-0.0135072125
163	0xbd54bfd1	-0.051940743
164	0x3d1a3075	0.03764387
165	0x3cb43917	0.021999879
166	0xbbfd78e8	-0.0077353604
167	0xbce84c27	-0.028356625
168	0xbd564452	-0.05231125
169	0xbaa48f98	-0.0012555001
170	0xbd1163df	-0.035495635
171	0x3c9a7927	0.018856598
172	0x3c6daf1e	0.014507083
173	0x3d0c32b2	0.034228034
174	0x3d47a064	0.048736945
175	0x3bff7070	0.007795386
176	0xbd59cff2	-0.053176828
177	0xbd065768	-0.0327982
178	0x3d19c0cd	0.037537385
179	0x3d342ca8	0.0439879
180	0xbc736089	-0.014854559
181	0x3cb0808d	0.021545673
182	0xbd3ebfd6	-0.046569668
183	0x3cfe7f72	0.03106663
184	0xbc88c949	-0.016697543
185	0xbcb44c1d	-0.02200895
186	0x3cb8190e	0.022472885
187	0xbc7f8e9e	-0.015597967
188	0xbd42860b	-0.047491115
189	0xbce9f1bc	-0.02855765
190	0x3c415be3	0.011801693
191	0x3cdbae3b	0.026816478
192	0x3d087005	0.033309955
193	0x3beb33d5	0.0071778097
194	0x3cf98d03	0.030462747
195	0x3cbb737b	0.022882214
196	0xbca462ab	-0.02006658
197	0xbb702036	-0.0036640293
198	0xbbbe2d01	-0.0058037047
199	0xbc62d209	-0.013844022
200	0x3acfc0d0	0.0015850309
201	0xbb6f2e6d	-0.0036496178
202	0x3c8c098a	0.017094392
203	0xbbddf0ea	-0.006773104
204	0x3be7b695	0.007071326
205	0x3ccc1d0b	0.024916193
206	0x3be5d100	0.00701344
207	0xbd817f2e	-0.06323086
208	0x3d0bf15c	0.034165725
209	0xbd3fe342	-0.04684759
210	0x3cdc9974	0.02692864
211	0x3b13feba	0.0022582249
212	0x3d032c9e	0.032024972
213	0xbd091ce3	-0.033474814
214	0x3cd0306d	0.025413716
215	0x3a31e4d1	0.00067861105
216	0x3d439f0d	0.047759105
217	0xbcf53962	-0.029934589
218	0xbcb4b742	-0.02206004
219	0x3c8a50be	0.016884204
220	0xbd02c416	-0.031925283
221	0xbd29cdfc	-0.041456208
222	0x3adbcf10	0.0016770083
223	0xbcddc9ca	-0.02707376
224	0x3d3f33e6	0.046680354
225	0x3d050dc2	0.032483824
226	0x3d4f6a47	0.050638463
227	0x3cec33cb	0.02883329
228	0xbd37c639	-0.044866774
229	0x3d67d667	0.056600954
230	0xbcfa4de5	-0.030554721
231	0xbd3b5e65	-0.04574432
232	0xbcd2bc7c	-0.025724642
233	0x3bffa286	0.0078013567
234	0xbd7c13e0	-0.06154239
235	0xbd129491	-0.035786215
236	0x3ca5b5dc	0.020228319
237	0x3bd0d6a6	0.0063732443
238	0x3cddbb72	0.02706692
239	0x3c75dc25	0.0150061
240	0x3d459922	0.048241742
241	0xbd63f37f	-0.055652138
242	0xbd20a8d1	-0.039223496
243	0xbd1e4bb8	-0.03864643
244	0xbcd93781	-0.026515724
245	0x3d15428c	0.036440417
246	0xbd12253b	-0.035680037
247	0xbd5e68cc	-0.05429916
248	0xbd683ad4	-0.056696728
249	0xbd1f8684	-0.038946643
250	0xb9dc86eb	-0.00042062192
251	0xbcf87182	-0.030327562
252	0xbd3f9719	-0.046774957
253	0xbce8e550	-0.028429657
254	0xbc49d10b	-0.012317906
255	0xbd6c31c0	-0.057664633

params.core.0.bias f4 [32]
0	0xbd4704dc	-0.04858862
1	0xbc346b6c	-0.0110119395
2	0xbc45dbde	-0.012076346
3	0x3be3161e	0.006930127
4	0xbc9606d4	-0.018313803
5	0xbd121ff7	-0.035675015
6	0x3d0ea078	0.034821004
7	0x3d4b336e	0.049609594
8	0x3cf94d6a	0.030432422
9	0x3d8084b2	0.062753096
10	0x3d507064	0.050888434
11	0xbccf1d6d	-0.025282586
12	0xbd7645c9	-0.060125146
13	0x3c17dc76	0.009268871
14	0x39219d7c	0.00015412824
15	0x3d27f268	0.04100266
16	0xbca1c79c	-0.019748501
17	0x3c8d887d	0.017276997
18	0xbd45ab8a	-0.048259296
19	0xbd03bca9	-0.032162342
20	0x3d22f9e0	0.03978908
21	0x3d4187be	0.047248594
22	0x3cb93261	0.02260703
23	0x3d768609	0.06018642
24	0x3c8b8f8d	0.017036224
25	0x3d40f041	0.047104124
26	0x3d215378	0.039386243
27	0xbd552a2b	-0.052042168
28	0xbb69f8bc	-0.0035701236
29	0x3d994ad1	0.07484973
30	0x3d04e12d	0.032441307
31	0xbab86c0a	-0.0014070284

params.core.2.weight f4 [32, 32, 3, 3]
0	0xbd578af4	-0.05262275
1	0xbd104734	-0.035224155
2	0xbd65c1cb	-0.05609302
3	0xbd22c95f	-0.039742824
4	0x3d3b8643	0.04578234
5	0xbc86a145	-0.016434321
6	0x3c698df7	0.014255038
7	0x3bbbd159	0.0057317433
8	0xbcccef07	-0.02501632
9	0x3cc003ce	0.023439314
10	0xbd4323cb	-0.047641557
11	0xbc9d79fc	-0.019223206
12	0x3d9b0c16	0.075706646
13	0x3d450edf	0.048109885
14	0x3d92ea16	0.071735546
15	0x3ca0f893	0.01964978
16	0x3ad0faf9	0.0015943936
17	0x3cf74ab8	0.030186996
18	0xbc1ef590	-0.009702101
19	0x3d04a6b8	0.032385558
20	0x3bf9c712	0.007622608
21	0xbbfeb720	-0.007773295
22	0x3d5128fd	0.05106448
23	0xbb6f31b0	-0.0036498122
24	0xbd729108	-0.059220344
25	0xbccd132a	-0.025033552
26	0x3d2b0844	0.04175593
27	0x3cd538f1	0.026028128
28	0xbc33bfc2	-0.010971012
29	0x3d4f188e	0.050560527
30	0x3d0d72f5	0.03453346
31	0x3d2adea3	0.04171623
32	0x3d246664	0.04013671
33	0x3c940650	0.018069416
34	0x3d2653ea	0.04060737
35	0x3c7fa61a	0.015603567
36	0x3d37493d	0.04474758
37	0x3dbdb711	0.09263433
38	0x3c00cbd8	0.0078611
39	0x3d3b49ae	0.045724563
40	0xbbd09050	-0.0063648596
41	0x3d4b7010	0.049667418
42	0x3b9476b5	0.0045307525
43	0x3d2dc21a	0.042421438
44	0x3c60e045	0.013725345
45	0xbc04e7ce	-0.008111907
46	0x3d90fe4d	0.07079754
47	0x3c129a97	0.00894799
48	0x3d5160d2	0.051117726
49	0x3dc838b8	0.09776443
50	0x3d2bf2c3	0.041979562
51	0xbbfb1aae	-0.0076630926
52	0x3d52538d	0.05134921
53	0xbd05652f	-0.0325672
54	0x3c818bc4	0.015813716
55	0x3d45f6fb	0.048331242
56	0x3d86bbdd	0.06578801
57	0xbba4a687	-0.0050247344
58	0x3de3d312	0.11124243
59	0x3db5ab7f	0.08870601
60	0x3d6d97f5	0.058006246
61	0x3d15ea00	0.036600113
62	0xbc103ad0	-0.0088030845
63	0xbc7d6d47	-0.015467948
64	0xbd18df54	-0.037322357
65	0xbd8dfe0e	-0.06933223
66	0xbdb419f9	-0.087940164
67	0xbd9d8035	-0.07690469
68	0xbd01ee4d	-0.031721402
69	0xbcabcec4	-0.020972617
70	0xbc021bec	-0.007941227
71	0x3dadbf15	0.08483712
72	0x3cd25547	0.025675429
73	0x396915d2	0.0002222874
74	0x3dcfe7bf	0.10151624
75	0x3d0b6fe5	0.034042258
76	0x3cfe70b2	0.031059597
77	0x3cdc623c	0.02690231
78	0x3dff2735	0.1245865
79	0x3df928ce	0.12165986
80	0x3e362129	0.17786087
81	0x3d843116	0.06454675
82	0x3de200bd	0.11035297
83	0x3d8cdbd7	0.068778686
84	0xbb81f861	-0.0039663767
85	0x3dcbd0e2	0.099519506
86	0x3c50d4ec	0.012746077
87	0x3c78b874	0.015180696
88	0x3c43bfa4	0.011947546
89	0x3b68235c	0.0035421466
90	0xbc74ef5c	-0.014949646
91	0x3d90c7d9	0.07069368
92	0x3d552f3d	0.052047003
93	0x3daa62e5	0.08319644
94	0x3e077968	0.13229907
95	0x3d81b087	0.06332498
96	0xbdcf0bbd	-0.10109661
97	0x3c8fe2ad	0.017564142
98	0xbcd0c3e8	-0.02548404
99	0xbd2613d1	-0.040546242
100	0x3d1538b4	0.03643103
101	0x3d4cd820	0.0500108
102	0x3bb91583	0.0056483163
103	0x3d9ab798	0.07554549
104	0x3dcc68c3	0.09980919
105	0xbcf75d48	-0.030195847
106	0x3d1db310	0.038500845
107	0x3d6561da	0.05600152
108	0x3b58f6a7	0.0033106
109	0xbcfa408a	-0.030548353
110	0xbd4a0da0	-0.0493294
111	0xbd261a14	-0.040552214
112	0xbcf85e78	-0.030318484
113	0x3d65b521	0.05608094
114	0x3bf9ecf5	0.0076271244
115	0xbd224f78	-0.03962657
116	0xbd574ec4	-0.05256535
117	0x3d31874a	0.043341912
118	0xbc0d0919	-0.008608126
119	0x3d203577	0.039113488
120	0x3c6ca675	0.014443983
121	0x3d9cf3ae	0.07663666
122	0x3db78261	0.08960415
123	0x3cf628cc	0.03004875
124	0x3dddca87	0.10829645
125	0x3de4543e	0.111488804
126	0x3d0d79a5	0.034539837
127	0x3de72d41	0.112879284
128	0x3d204d52	0.03913624
129	0x3d315068	0.043289572
130	0x3e1f3458	0.15547311
131	0x3da0b0c8	0.07846218
132	0xbd32e71e	-0.04367744
133	0xbd014338	-0.031558245
134	0xbda04264	-0.07825163
135	0xbbccae8f	-0.006246395
136	0xb8c876a8	-9.5588446e-05
137	0xbc4cc9e3	-0.012499305
138	0x3c8981b2	0.016785476
139	0x3bbe30a0	0.0058041364
140	0xbd80ca51	-0.06288589
141	0x3d56c868	0.052437216
142	0xbc8d7c78	-0.017271265
143	0xbc49f14b	-0.012325595
144	0x3b90e311	0.0044215997
145	0xb9fd9290	-0.00048365118
146	0x3cfe312a	0.031029303
147	0x3cb36ce9	0.021902518
148	0x3ce1bdc6	0.027556311
149	0x3c23307d	0.009960291
150	0x3c12062e	0.008912606
151	0x3d5bd689	0.053671394
152	0xbd6b7528	-0.057484776
153	0x3c4136eb	0.011792879
154	0x3e086541	0.13319875
155	0xbde76c05	-0.112999
156	0x3d93107f	0.07180881
157	0x3dc2acea	0.09505637
158	0xbd015401	-0.031574253
159	0xbb6be191	-0.0035992602
160	0x3d6eb6b7	0.05827972
161	0xbddbc80c	-0.10731515
162	0xbd8484c1	-0.06470633
163	0xbd3d3d60	-0.04620111
164	0xbd6ffd3a	-0.058591105
165	0x3d36714a	0.044541635
166	0x3d02a664	0.031896964
167	0x3cc84efc	0.024451725
168	0xbcef24b1	-0.0291923
169	0xbb3b364c	-0.00285663
170	0x3b2e27eb	0.0026574086
171	0x3b38c028	0.0028190706
172	0xbd664d72	-0.0562262
173	0xbd53a81d	-0.051673997
174	0xbd1d61f2	-0.038423486
175	0x3c085ea4	0.008323345
176	0x3c02b85c	0.007978525
177	0xb8bedc88	-9.100983e-05
178	0x3d5c3254	0.053758934
179	0x3ce32342	0.027726773
180	0x3d209b7c	0.03921078
181	0xbcb68ad7	-0.022283
182	0x3cb9c918	0.022678897
183	0x3d927f15	0.07153145
184	0xbb2a3a2e	-0.002597462
185	0x3bae2801	0.0053148274
186	0xbcbfae73	-0.023398614
187	0x3db0bdaa	0.086299255
188	0x3da33d5e	0.07970689
189	0x3c818618	0.015811011
190	0x3d8ecf2f	0.06973111
191	0x3d929926	0.07158117
192	0xbc6ae860	-0.014337629
193	0x3de7388e	0.11290084
194	0x3d36043f	0.044437643
195	0x3d41f8e9	0.04735652
196	0x3de5d63e	0.11222504
197	0x3cc9ef9e	0.024650391
198	0xbc304e4f	-0.010760858
199	0x3d5cfa36	0.053949557
200	0x3abbfef7	0.0014342953
201	0xbd23fd94	-0.040036753
202	0x3cbf9761	0.023387613
203	0x3af39c95	0.0018586094
204	0xba5fa7dc	-0.0008531788
205	0x3cc52cf7	0.024069292
206	0x3cbe2ea1	0.023215594
207	0x3cfc90c6	0.030830752
208	0x3d535a3c	0.051599726
209	0x3dbc5f91	0.09197915
210	0x3d36eef1	0.044661466
211	0x3e05f618	0.13082159
212	0x3e12c708	0.14333737
213	0x3d7807c3	0.060554277
214	0xbcf73a27	-0.030179096
215	0xbd3a659f	-0.04550707
216	0xbc727c24	-0.014800105
217	0x3dc59703	0.09647944
218	0xbb753076	-0.0037412918
219	0x3c4399d3	0.01193853
220	0x3e00ee30	0.12590861
221	0x3db7b0be	0.08969258
222	0xbb316a4e	-0.002707142
223	0x3ca4ee21	0.02013308
224	0xbd096b25	-0.033549447
225	0x3cd1194e	0.025524762
226	0xbb5ae528	-0.0033400748
227	0x3d975425	0.07389096
228	0x3c94a29d	0.018143946
229	0xbc97ccf2	-0.018530343
230	0x3d4b2bad	0.0496022
231	0xbd0fe43b	-0.035129767
232	0xbd34f025	-0.044174332
233	0xbdc17cb9	-0.09447617
234	0xbc9336d4	-0.01797048
235	0x3d339956	0.043847404
236	0x3c4f168a	0.012639651
237	0x3b20233f	0.002443507
238	0x3c6e50fd	0.014545676
239	0x3d6f1337	0.058367934
240	0xbd7ba600	-0.061437607
241	0x3c3ce79e	0.011529831
242	0xbb9a28a6	-0.0047045527
243	0xbc8b81e0	-0.017029703
244	0xbd1d5a8e	-0.038416438
245	0x3c54da8c	0.012991559
246	0xbb81dfb9	-0.0039634374
247	0xbcfec880	-0.031101465
248	0x3c4a50a3	0.012348327
249	0xbd001430	-0.031269252
250	0x3d3cc4cb	0.046086114
251	0x3d68eccd	0.056866456
252	0x3c4be48b	0.012444626
253	0xbc1a90c3	-0.009433928
254	0x3d3e26ba	0.04642365
255	0x3d2846fa	0.041083314

params.core.2.bias f4 [32]
0	0x3d0657f3	0.03279872
1	0x3d0571d2	0.03257925
2	0x3d56af62	0.05241335
3	0xbbe3fde0	-0.0069577545
4	0x3d1373c4	0.035999075
5	0xbce50311	-0.027955564
6	0x3d82f659	0.06394643
7	0xbb9d3f3f	-0.0047987993
8	0x3d09dd07	0.033658054
9	0xbd43fa31	-0.047846023
10	0x3b92d766	0.004481244
11	0xbca1f03f	-0.019767879
12	0x3c926701	0.017871382
13	0xb9499223	-0.00019223294
14	0x3c10b2c9	0.008831688
15	0x3cd88088	0.026428476
16	0xbd31c3c4	-0.043399587
17	0xbd641a47	-0.055689123
18	0x3d6569a9	0.05600897
19	0x3c08bc09	0.008345612
20	0x3d3fbe58	0.046812385
21	0xbc4d647d	-0.012536165
22	0xbd7798db	-0.06044851
23	0x3d482ef6	0.04887291
24	0x3d5e162b	0.05422036
25	0x3d1d0c46	0.038341783
26	0xbcca97ee	-0.024730649
27	0x3b1ef89d	0.0024257072
28	0xbda93cab	-0.082635246
29	0x3bdcf8c6	0.0067435233
30	0x3c4ea3f8	0.012612335
31	0x3b8893e4	0.0041680206

params.core.4.weight f4 [64, 32, 3, 3]
0	0xbd766185	-0.060151596
1	0x3ccf2eae	0.025290813
2	0x3c57c969	0.0131705785
3	0xbd028571	-0.03186554
4	0xbd32f414	-0.043689802
5	0x3c9824f3	0.018572306
6	0x3d804fd7	0.06265228
7	0xbc1b5fe4	-0.009483311
8	0x3aa8a9da	0.0012868003
9	0xbc5d2b05	-0.013499026
10	0xbca7804c	-0.020446919
11	0x3ca4807d	0.0200808
12	0xbc4a5370	-0.012348995
13	0xbd1b7d3a	-0.037961222
14	0xbc5f1b07	-0.013617284
15	0x3c4fa41e	0.012673406
16	0xbd37e562	-0.04489649
17	0xbda473d3	-0.08029904
18	0xbcaf0e69	-0.021369176
19	0x3cceb2a8	0.025231674
20	0xbd6e9508	-0.058247596
21	0xbb62ca88	-0.0034605581
22	0xbc25e66f	-0.01012574
23	0x3d1ed390	0.03877598
24	0x3cf91caf	0.030409185
25	0xba037dea	-0.0005016016
26	0x3c3797bb	0.011205609
27	0xbb603d11	-0.0034216086
28	0x3d0b81e4	0.03405942
29	0xbc9ff8af	-0.019527761
30	0x3cb11fc4	0.021621592
31	0xbd0c87ee	-0.03430932
32	0xbd8c7926	-0.06859045
33	0x3cd594ea	0.026071984
34	0xbcb99e92	-0.02265862
35	0x3d8d8881	0.06910802
36	0x3d3a6cf9	0.04551408
37	0x3c6e558d	0.014546764
38	0xbbe584f6	-0.0070043756
39	0x3cc455a1	0.023966612
40	0x3cebd25f	0.028786836
41	0x3bab8d38	0.0052353404
42	0xbd17d3fa	-0.03706739
43	0x3c8d0398	0.017213628
44	0x3d3fc826	0.046821736
45	0x3d631382	0.055438526
46	0x3c2cef98	0.0105551705
47	0x3cbb2def	0.022849051
48	0xbd3fc9b0	-0.046823204
49	0xbdb18c76	-0.08669369
50	0xbd99e5e4	-0.07514551
51	0xbcc7b91d	-0.024380261
52	0x3cbd25d9	0.023089336
53	0xbd3f44f1	-0.046696607
54	0x3d801d8e	0.06255637
55	0x3c8fb507	0.017542375
56	0xbd385afe	-0.045008652
57	0xbd1cf007	-0.038314845
58	0x3d7bff16	0.061522566
59	0xbc41a580	-0.011819243
60	0x3c2d5ad7	0.01058074
61	0xbda64991	-0.081195004
62	0xbd812609	-0.06306083
63	0xbd00aec3	-0.031416666
64	0x3c0e3b1c	0.008681085
65	0xbbe951bd	-0.0071203397
66	0xbd87f3bc	-0.066382855
67	0xbd4e36b7	-0.05034515
68	0xbc014c28	-0.007891692
69	0x3d78ec91	0.060772482
70	0xbb9dd267	-0.0048163417
71	0x3d8af669	0.0678528
72	0x3d7a317b	0.061082345
73	0x3db34605	0.087535895
74	0x3d3b45bd	0.045720804
75	0x3b85da93	0.004084894
76	0x3cd4d324	0.025979586
77	0x3d0f48f0	0.034981668
78	0xbcd71934	-0.026257135
79	0x3c87ea8a	0.01659133
80	0x3d8dec48	0.06929833
81	0x3c69ede1	0.014277906
82	0xbca24e82	-0.019812826
83	0x3c24cf54	0.0100591965
84	0x3c8f153c	0.01746618
85	0x3c61cbf4	0.013781536
86	0xbcc0d584	-0.023539312
87	0x3be03060	0.0068417042
88	0x3c1bfe44	0.009521071
89	0x3c9ec2f6	0.019380074
90	0x3ceefae3	0.029172366
91	0x397c43c8	0.00024057843
92	0x3d9aedf0	0.07564914
93	0xbc92c5b8	-0.017916545
94	0xbb45d345	-0.003018574
95	0xbcdf7fd2	-0.02728263
96	0xbd74dc5b	-0.05978046
97	0xbd09a092	-0.033600397
98	0x3bde93ca	0.00679252
99	0xbd5e4fa2	-0.054275163
100	0xbdbe2417	-0.09284227
101	0xbc762ebf	-0.015025794
102	0xbdc38801	-0.09547425
103	0xbd80db00	-0.06291771
104	0xbd5e6e83	-0.05430461
105	0xbc8531d2	-0.016259108
106	0x3d8a9b07	0.0676785
107	0xbcd6a859	-0.026203321
108	0xba64ca35	-0.0008727641
109	0x3c4ba599	0.012429618
110	0xbc2fbd71	-0.010726319
111	0x3d038eee	0.03211873
112	0x3cf7653b	0.030199638
113	0x3b36829f	0.0027848852
114	0x3da0f554	0.078592926
115	0x3d1f92fc	0.038958535
116	0x3d430799	0.047614668
117	0xbd4eb93a	-0.050469615
118	0x3c2f3f82	0.010696294
119	0x3c7a94ee	0.015294297
120	0xbc89c307	-0.01681663
121	0xbc2f7766	-0.010709619
122	0xbb0b11e9	-0.0021220392
123	0x3d210ef8	0.039320916
124	0x3d3500ea	0.044190325
125	0x3d97517a	0.07388587
126	0x3c874803	0.01651383
127	0xbd16c07c	-0.03680466
128	0xbd264f29	-0.040602837
129	0x3d3c11bb	0.045915347
130	0xbd9a86bf	-0.07545232
131	0xbc430c40	-0.011904776
132	0x3d87deca	0.066342905
133	0x3c7566eb	0.014978151
134	0x3d66d09e	0.056351297
135	0x3cfee890	0.031116754
136	0x3d654609	0.055974994
137	0xbc3f41c1	-0.011673392
138	0xbd25d812	-0.040489264
139	0xbcd31c56	-0.025770348
140	0xbb9e4e81	-0.0048311357
141	0xbcb658c8	-0.022259131
142	0x3d2dc219	0.042421434
143	0x3a0d190f	0.0005382457
144	0xbca567b8	-0.020191059
145	0xbce41505	-0.027842054
146	0xbd58dc73	-0.05294461
147	0xbc91c80a	-0.017795581
148	0xbc896008	-0.016769424
149	0x3d5d4ba1	0.054027203
150	0xbcb88142	-0.022522572
151	0x3c8d9c2e	0.017286386
152	0x3d48e177	0.049043145
153	0x3d59b130	0.053147495
154	0xbd0f35f3	-0.03496356
155	0x3c9ddc5a	0.01927011
156	0xbd34d0cc	-0.044144437
157	0x3d48d30d	0.0490294
158	0xbd4958d2	-0.04915697
159	0xbc916492	-0.017748151
160	0x3cec2010	0.028823882
161	0xbd5cc501	-0.053898815
162	0x3d89ad02	0.06722452
163	0xbc3c68d3	-0.011499601
164	0x3d0a49e2	0.033761866
165	0x3c6bc817	0.014390967
166	0xbd3b3c7f	-0.04571199
167	0xbd556cf0	-0.052105844
168	0x3d68a24f	0.056795415
169	0x3d701fb1	0.058623973
170	0x3c746667	0.014916993
171	0xbcc49882	-0.023998503
172	0x3d4e866c	0.050421163
173	0xbb3d9573	-0.002892819
174	0xbd91b748	-0.07115036
175	0xbcb1dec3	-0.021712666
176	0xbd2110a7	-0.03932252
177	0x3b47874f	0.003044564
178	0xbbd89da8	-0.006610591
179	0x3dc0fd12	0.09423269
180	0xbd2899b8	-0.041162223
181	0xbd963eb8	-0.073361814
182	0x3c8a0670	0.016848773
183	0xbd8702a8	-0.065923035
184	0x3ce427c4	0.027850993
185	0x3d3dbbc9	0.046321664
186	0x3d151e16	0.036405645
187	0x3d3b552d	0.045735527
188	0x3db216a5	0.08695725
189	0x3c91ee76	0.017813902
190	0xbd0af576	-0.033925496
191	0x3d02cebe	0.031935446
192	0x3cec2673	0.028826928
193	0xbd1f1947	-0.038842466
194	0x3d38e999	0.04514465
195	0xbd5d3f1d	-0.054015268
196	0xbcddea12	-0.027089152
197	0x3d588256	0.052858673
198	0xbd59d794	-0.053184107
199	0x3ce3a9f6	0.027791005
200	0x3c64fe5b	0.013976659
201	0x3bcdd5b7	0.0062815803
202	0xbd327ae9	-0.043574248
203	0xbd6de575	-0.058080155
204	0xbcafe6fa	-0.021472443
205	0x3d686353	0.056735348
206	0xbca80398	-0.020509526
207	0xbcd72982	-0.02626491
208	0xbc9662a3	-0.01835758
209	0x3c507ab4	0.012724567
210	0xbd2895bf	-0.041158434
211	0x3c2fb4fb	0.010724301
212	0x3c93c47c	0.018038027
213	0xbca072ad	-0.019585932
214	0x3bb8f767	0.005644727
215	0x3da332aa	0.07968648
216	0xbc8c029f	-0.017091094
217	0xbcd04f63	-0.02542848
218	0x3cbca0f7	0.023025973
219	0xbccefde2	-0.025267545
220	0xbd9d1d81	-0.07671643
221	0xbd3ac2b0	-0.045595825
222	0xbdbaed79	-0.091273256
223	0xbe1cd6bc	-0.1531629
224	0xbd10aea4	-0.0353228
225	0x3d196fae	0.03746002
226	0xbbc4fe83	-0.0060117855
227	0x3d222ec8	0.039595395
228	0x3d2c88d9	0.042122696
229	0xbd18b3f5	-0.037280995
230	0x3c97a516	0.018511336
231	0x3ca2565b	0.019816568
232	0xbd379d7a	-0.044827916
233	0xbc8401ea	-0.016114194
234	0xbd5a5620	-0.05330479
235	0x3bed2198	0.0072366707
236	0xbd4dae14	-0.050214842
237	0xbd07af37	-0.033126082
238	0x3d6612d6	0.056170307
239	0xbbc94e2b	-0.0061433516
240	0x3d47eb8e	0.048808627
241	0x3d9c69f5	0.07637397
242	0x3b879989	0.004138176
243	0xbc569c18	-0.013098739
244	0xbcd8ebc7	-0.026479615
245	0xbd21e5f9	-0.03952596
246	0xbc07986e	-0.008276088
247	0x3d703928	0.05864826
248	0x3d2d430f	0.04230028
249	0xbb8c6da3	-0.0042855307
250	0x3d31b983	0.04338981
251	0x3c2cce8a	0.01054729
252	0x3ba3030c	0.0049747285
253	0x3c213697	0.009839675
254	0xbd6caf24	-0.057784215
255	0xbdae26aa	-0.08503468

params.core.4.bias f4 [64]
0	0xbd89890f	-0.06715595
1	0x3cbef034	0.023307897
2	0x3cf7b13d	0.030235881
3	0x3cb462f2	0.022019837
4	0xbd32d6e9	-0.043661986
5	0x3c6fcb1b	0.014635826
6	0xbd22ca84	-0.039743915
7	0x3d6e3bfc	0.058162674
8	0x3c281a9b	0.0102602495
9	0xbc679112	-0.014133709
10	0x3dc84350	0.09778464
11	0x3ba06d73	0.00489586
12	0xbd3fb329	-0.04680172
13	0xbd509788	-0.05092576
14	0xbd926305	-0.07147793
15	0x3d1e2868	0.038612753
16	0x3c9f54df	0.01944965
17	0xbd7bbceb	-0.061459463
18	0xbd6039c7	-0.0547426
19	0xbd41d799	-0.04732475
20	0xbda146e8	-0.078748524
21	0x3d871893	0.06596484
22	0xbc89638b	-0.016771099
23	0x3da8cff4	0.08242789
24	0xbd43345a	-0.04765735
25	0xbb68e481	-0.003553659
26	0xbcfe3e92	-0.031035695
27	0xbd8115e0	-0.063030005
28	0xbaabc2d6	-0.001310433
29	0xbdc94752	-0.098280564
30	0x3c3a88fd	0.0113852
31	0x3cbc2a81	0.022969486
32	0xbd14671b	-0.03623114
33	0xbb11d142	-0.0022249972
34	0xbd582dba	-0.052777983
35	0x3d0254b5	0.031819064
36	0x3c12decf	0.0089642545
37	0xbd26dd40	-0.040738344
38	0xbd4fc7d9	-0.0507277
39	0x3d81d827	0.06340056
40	0xbd91fa54	-0.071278244
41	0xbcdaa0be	-0.026687976
42	0x3dc999c0	0.098437786
43	0x3d2b283d	0.04178642
44	0x3db080ca	0.086183146
45	0x3c655f29	0.013999739
46	0xbc8df25f	-0.017327486
47	0x3d5b1d6f	0.053494867
48	0x3d7d177e	0.061789982
49	0xbddfb319	-0.10922832
50	0xbd8b3946	-0.067980334
51	0x3d4b3004	0.04960634
52	0xbd66da0b	-0.056360286
53	0x3da01293	0.07816043
54	0x3c9742e6	0.018464517
55	0xbcc0821b	-0.02349954
56	0x3d8668f4	0.06562987
57	0xbd9d32a6	-0.07675676
58	0x3d23614e	0.03988772
59	0x3db4ce44	0.088284045
60	0xbc81cb4f	-0.015844015
61	0x3bab4a07	0.0052273306
62	0xbd3db6b0	-0.046316803
63	0x3cdf63b3	0.02726922

params.core.6.weight f4 [64, 64, 3, 3]
0	0xbbc62710	-0.006047137
1	0x39c63c33	0.00037810355
2	0x3c2be6e8	0.010492064
3	0xbe10ec7e	-0.14152715
4	0xbd7f8aa6	-0.062388085
5	0xbc653f01	-0.013992072
6	0xbd0e1e23	-0.03469671
7	0xbc6c87be	-0.01443666
8	0x3cc404a3	0.023927992
9	0x3d06f9f5	0.03295322
10	0xba4d43ed	-0.0007830251
11	0xbc4a1eaa	-0.012336412
12	0x3d2fdece	0.042937092
13	0xbcd149d3	-0.025547897
14	0xb8f1acf0	-0.000115239876
15	0x3c26d7af	0.010183259
16	0xbcbb1164	-0.022835441
17	0xbcd36a28	-0.025807455
18	0x3d3628da	0.044472553
19	0x3d1cfe68	0.03832856
20	0xbbafc417	-0.005363952
21	0x3da7f6ba	0.08201356
22	0x3db6f1e8	0.08932859
23	0xbc46f5d2	-0.012143569
24	0x3d933bc7	0.07189136
25	0x3d9131c4	0.0708957
26	0xbc9f1dbe	-0.019423362
27	0x3d82bfb8	0.06384224
28	0xbde6e347	-0.112738185
29	0x3dafd19f	0.08584904
30	0xbcb4b743	-0.022060042
31	0xbe28e0fa	-0.16492072
32	0x3cd416b2	0.025889728
33	0xbd52d120	-0.05146897
34	0xbe16aee6	-0.14715156
35	0x3d8c9791	0.068648465
36	0x3d1c889e	0.038216226
37	0x3c8227f9	0.015888201
38	0x3d64ae11	0.055830065
39	0x3cd644a9	0.026155787
40	0xbb15fb22	-0.0022885283
41	0x3bef0828	0.0072946735
42	0x3c92c819	0.01791768
43	0xbb86060b	-0.004090076
44	0xbcc56e97	-0.024100585
45	0xbd9bea10	-0.07613003
46	0xbc6c3a1c	-0.014418151
47	0x3d36e933	0.04465599
48	0xbe230a1f	-0.1592183
49	0xbe05a39a	-0.1305069
50	0xbb4db130	-0.003138613
51	0xbd846424	-0.06464413
52	0xbd44535c	-0.04793106
53	0x3d16f410	0.03685385
54	0x3d0babb0	0.03409928
55	0xbd496982	-0.049172886
56	0x3bb71d17	0.0055881846
57	0xbd985558	-0.07438153
58	0xbe0e6870	-0.13907027
59	0xbc529493	-0.012852806
60	0xbce266f6	-0.027636986
61	0xbd22e833	-0.039772224
62	0xbd818c5e	-0.06325601
63	0x3cd0f7a8	0.025508717
64	0x3c2ca4ab	0.010537307
65	0xbcf6fbad	-0.030149305
66	0x3d3a3ca8	0.045468003
67	0x3c8af85f	0.016964136
68	0x3cebeeff	0.028800486
69	0xbca6cca8	-0.02036126
70	0x3c47b549	0.012189218
71	0x3bbadfbd	0.005702941
72	0x3d8d8264	0.06909636
73	0x3c50f61f	0.012753992
74	0xbcf5b792	-0.02999476
75	0x3d1fadee	0.03898423
76	0x3dab7853	0.083725594
77	0xbdac3c35	-0.08409921
78	0x3dfd9661	0.12382198
79	0x3dc7c9a1	0.097552545
80	0xbcbce7c5	-0.023059735
81	0x3c32959b	0.010899927
82	0x3cbfbe80	0.023406267
83	0x3cc4f19c	0.02404099
84	0xbc87cb0e	-0.016576316
85	0xbd6358eb	-0.05550472
86	0x3c3399ef	0.010961994
87	0xbd2ac004	-0.041687027
88	0xbc5cacfd	-0.013468978
89	0x3b3c3a32	0.002872121
90	0x3af8d841	0.0018985347
91	0xbcbed196	-0.023293298
92	0xbd163b67	-0.036677744
93	0x3d23803c	0.039917216
94	0xbbf2c579	-0.0074087945
95	0xbc3fddec	-0.011710625
96	0x3d45c980	0.04828787
97	0xbcc1d4eb	-0.023661098
98	0x3c992c24	0.018697806
99	0x3cfccd40	0.03085959
100	0xbd15e70a	-0.03659729
101	0xbd854380	-0.06507015
102	0xbcc3123d	-0.023812408
103	0xbd4579b5	-0.048211772
104	0xbe1e57fe	-0.15463254
105	0xbb7c8b1a	-0.003853506
106	0xbc3cc2d9	-0.011521065
107	0xbd7d2711	-0.061804835
108	0xbb3eb111	-0.002909724
109	0xbd02ac84	-0.031902805
110	0x3c8aff1f	0.016967354
111	0xbd9212f2	-0.0713252
112	0xbde8d75e	-0.11369203
113	0x3c82d093	0.015968597
114	0xbce4d562	-0.02793378
115	0xbd6246a8	-0.055243164
116	0x3d320508	0.04346183
117	0x3cf0ac32	0.029378984
118	0xbbf4def8	-0.007472869
119	0x3c98e8b0	0.018665642
120	0x3ce61142	0.028084401
121	0xbca4b74e	-0.020106938
122	0xbd0c450e	-0.034245543
123	0x3c04ebfc	0.008112904
124	0x3d1f9019	0.03895578
125	0xbbf6fa48	-0.00753716
126	0x3d93c4db	0.072152816
127	0xbc29c558	-0.010361992
128	0xbc17c41e	-0.009263067
129	0xbd359e13	-0.044340204
130	0xbd89b66b	-0.067242466
131	0x3d13392f	0.035943206
132	0xbb26ab71	-0.0025431777
133	0xbde76e56	-0.11300342
134	0xbbc7aaaa	-0.006093343
135	0x3d961e04	0.07329944
136	0x3d56227b	0.052278977
137	0xbd709ba1	-0.05874217
138	0x3d37e956	0.04490026
139	0x3d5b47a0	0.053535104
140	0xbdcd3ee0	-0.10021758
141	0x3dd506b7	0.104016714
142	0x3dafc4d6	0.08582465
143	0xbd0cd3a5	-0.034381527
144	0x3d3f1dd3	0.046659302
145	0x3d4695c1	0.04848266
146	0x3dafd2a9	0.08585102
147	0x3dc8f818	0.09812945
148	0x3cc67afc	0.024228565
149	0x3d89be19	0.067257114
150	0x3dea2464	0.11432722
151	0x3c882e1a	0.016623545
152	0xbb22961d	-0.0024808713
153	0x3b89f970	0.0042106435
154	0xbbf5db07	-0.0075029167
155	0x3d0dd1e9	0.034624014
156	0xbccb63e8	-0.024827912
157	0xbc240140	-0.010010064
158	0x3d1bbd57	0.038022365
159	0x3cbb2786	0.022845995
160	0xbb28051e	-0.0025637816
161	0x3d2451c5	0.040117044
162	0x3c2f8975	0.010713925
163	0xbcac2953	-0.021015799
164	0xbce5e159	-0.028061556
165	0x3cc30102	0.023804191
166	0xbc979a33	-0.018506145
167	0xbd7eded9	-0.062224243
168	0xbd04034c	-0.032229707
169	0xbd59e323	-0.05319513
170	0xbd14d3c0	-0.036334753
171	0xbb6dd2d0	-0.0036288984
172	0x3d213cff	0.03936481
173	0xbcc94f28	-0.024573877
174	0x3cb47172	0.022026751
175	0x3c0f577c	0.008748885
176	0x3d25c145	0.04046752
177	0xb99e7c08	-0.0003022852
178	0x3c66642c	0.014061969
179	0x3bfe5730	0.0077618584
180	0x3d691eca	0.05691413
181	0x3d83a665	0.064282216
182	0xbd826fe4	-0.06368998
183	0x3da5305f	0.08065867
184	0x3d56184f	0.052269276
185	0xbd9fd941	-0.0780511
186	0x3d070482	0.032963283
187	0x3dc59a02	0.09648515
188	0xbc61c925	-0.013780867
189	0xbb6c0eb7	-0.0036019513
190	0xbcd36040	-0.025802732
191	0xbbaf89c9	-0.0053570014
192	0xbc959bc3	-0.01826275
193	0xbc8fbafc	-0.017545216
194	0x3c80759b	0.015681079
195	0xbc7d0074	-0.015442003
196	0xba743dbc	-0.00093170605
197	0x3cbefe15	0.023314515
198	0x3cd80736	0.026370626
199	0x3d1dc9fe	0.038522713
200	0x3cd5eb3e	0.026113149
201	0xbc2b7ece	-0.010467244
202	0xbd285743	-0.041098844
203	0x3c0b7ca4	0.008513603
204	0x3b0498b8	0.002023263
205	0xbccf0871	-0.02527258
206	0xbc1d12d4	-0.0095870085
207	0xbafc7e49	-0.001926371
208	0xbd5ee8e2	-0.054421313
209	0xbbca5fed	-0.006175986
210	0x3d2ad669	0.041708384
211	0x3c8ef1a9	0.017449217
212	0x3c237acb	0.009978007
213	0x3ce8a892	0.028400693
214	0xba33de1b	-0.00068614044
215	0xbbd44e86	-0.0064790873
216	0xbc4c5450	-0.012471274
217	0xbbcbee10	-0.0062234476
218	0xbc31e914	-0.010858793
219	0xbd0c893e	-0.03431057
220	0xbcc5384b	-0.024074694
221	0xbd03fc88	-0.032223254
222	0x3cd873aa	0.02642234
223	0x3c4f3640	0.012647212
224	0x3d17313d	0.03691219
225	0x3dcd08b2	0.10011424
226	0xbc23e54f	-0.010003402
227	0xbda61b9c	-0.08110735
228	0x3da9059e	0.082530245
229	0x3d80a2a5	0.06281022
230	0xbd94621e	-0.07245277
231	0x3d0bd30e	0.034136824
232	0x3d6d4268	0.057924658
233	0xbdb6d5a0	-0.089274645
234	0x3d138f97	0.03602561
235	0x3c30deff	0.010795354
236	0xbd36533c	-0.044512972
237	0xbc4e9460	-0.012608618
238	0xbced38f3	-0.02895782
239	0x3ca786e0	0.020450056
240	0x3d147d91	0.036252562
241	0xbc78158d	-0.015141857
242	0xbd0ae616	-0.033910833
243	0x3d808ffa	0.06277461
244	0xbc9986c9	-0.018741028
245	0xbc2b06a6	-0.010438597
246	0x3cea77c8	0.02862157
247	0x3d7eb1f3	0.062181424
248	0xbc4aadbd	-0.012370524
249	0xbc946451	-0.01811424
250	0x3cc2e525	0.023790905
251	0x3c4390d6	0.011936387
252	0x3d005347	0.03132942
253	0x3d66a43d	0.056308974
254	0xbd0c4640	-0.034246683
255	0x3c507644	0.012723509

params.core.6.bias f4 [64]
0	0xbd8aecf6	-0.06783478
1	0x3d3dc042	0.04632593
2	0xbd58d457	-0.052936878
3	0xbd827d5f	-0.06371569
4	0xbd4849e8	-0.048898607
5	0x3d3ebf97	0.046569433
6	0xbd220893	-0.03955896
7	0x3d255f88	0.04037431
8	0xbc9e04b4	-0.019289352
9	0xbd1840b2	-0.037171073
10	0xbc90722a	-0.017632563
11	0xbd229dc6	-0.039701246
12	0x3c242cda	0.010020459
13	0x3c505119	0.012714648
14	0x3d8f9775	0.0701131
15	0xbc6f3bfe	-0.014601706
16	0x3b67f3c0	0.003539309
17	0xbdbfd34f	-0.09366476
18	0xbca51745	-0.020152697
19	0xbce10fbe	-0.027473327
20	0x3d424d66	0.047437094
21	0x3ce1b103	0.027550226
22	0x3d7651fd	0.060136784
23	0xbbdc00b7	-0.0067139524
24	0xbd4e01dd	-0.050294746
25	0xbcc86cbe	-0.024465915
26	0xbd7068ae	-0.05869358
27	0xbcf5a14f	-0.029984144
28	0x3d819727	0.06327658
29	0xbd0bbf0a	-0.034117736
30	0x3d358ce0	0.044323802
31	0xbcc9c701	-0.024631025
32	0xbd54442f	-0.051822837
33	0x3b370d4a	0.0027931505
34	0x3caf05b7	0.02136503
35	0xbc1ef800	-0.0097026825
36	0xbcea0ba3	-0.028570002
37	0x3ccb17cf	0.024791626
38	0xbd48bc22	-0.049007542
39	0x3d23b887	0.0399709
40	0x3d256f25	0.0403892
41	0xbc9ee5be	-0.019396659
42	0x3c995ee3	0.018722003
43	0x3da08bbd	0.07839153
44	0x3dbd6158	0.092470825
45	0xba6dafae	-0.0009067011
46	0xbbdaccb8	-0.0066772364
47	0x3d3dc315	0.046328623
48	0xbc3adb91	-0.011404888
49	0x3dbb5b14	0.09148231
50	0x3d2c7911	0.042107645
51	0x3d17e814	0.03708656
52	0xbd7d3b84	-0.061824337
53	0x3c68d17f	0.014210104
54	0x3cf700b2	0.030151699
55	0xbc9bce79	-0.019019352
56	0xbd3ce343	-0.04611517
57	0xba65be6a	-0.00087640306
58	0xbd1df4ab	-0.03856341
59	0x3d7aefbe	0.061263792
60	0x3d1d16ba	0.038351752
61	0xbca4bf6e	-0.020110812
62	0x3c9b8468	0.018984035
63	0xbd354577	-0.0442557

params.core.8.weight f4 [64, 64, 3, 3]
0	0x3c2f73f1	0.010708795
1	0x3d1b79f8	0.037958115
2	0xbd3d7fdd	-0.046264518
3	0xbd6ede0b	-0.058317225
4	0xbc83b3e0	-0.016076982
5	0xbd37da9a	-0.04488621
6	0x3bdf9fb9	0.0068244603
7	0x3c8aa269	0.016923146
8	0x3c647a06	0.013945108
9	0x3d86336f	0.06552779
10	0x3b349871	0.0027556682
11	0xba215dbe	-0.0006155631
12	0xbc60096e	-0.013674123
13	0x3cd07022	0.025444094
14	0x3d49d64d	0.04927664
15	0x3d304ad1	0.0430401
16	0xbcc3f351	-0.023919733
17	0xbbfcbb01	-0.0077127223
18	0x3c24f708	0.010068662
19	0xbdb0779c	-0.08616564
20	0xbd700985	-0.05860283
21	0xbd33e538	-0.043919772
22	0xbda0dcb3	-0.07854595
23	0xbdb14cd6	-0.086572334
24	0xbd34a50b	-0.04410271
25	0xbcfaccb6	-0.030615192
26	0xbd0b57e8	-0.03401938
27	0xbc4e1a07	-0.012579448
28	0x3ccb10a6	0.024788212
29	0xbd1ab800	-0.037773132
30	0x3b0c64da	0.0021422417
31	0xbbd74327	-0.0065692845
32	0xbd126bf0	-0.03574747
33	0x3dc44603	0.09583666
34	0x3d42bd73	0.047543954
35	0x3d17336f	0.036914285
36	0xbd8ea07f	-0.06964206
37	0xbda4e3b4	-0.080512434
38	0xbc24c4a2	-0.010056647
39	0xbd81adab	-0.06331953
40	0xbdb481f8	-0.08813852
41	0x3d1adcdc	0.037808284
42	0xbbd80af2	-0.0065931017
43	0xbd196e38	-0.03745863
44	0xbc28cb4f	-0.010302379
45	0xbd2962cc	-0.041353986
46	0xbd83df40	-0.06439066
47	0xbd8aadda	-0.06771441
48	0x3c4f3f85	0.012649422
49	0x3cf91502	0.030405525
50	0xbd37458d	-0.044744063
51	0x3d6fc5dc	0.058538303
52	0x3c7e5f7a	0.015525693
53	0xbcadebf2	-0.021230672
54	0x3bba9830	0.0056944117
55	0x3c87c43b	0.016573062
56	0x3c8c5b3d	0.01713335
57	0x3b9c8cc8	0.0047775246
58	0x3d0af5fd	0.033926
59	0xbce0ac33	-0.027425861
60	0x3c7e8414	0.01553442
61	0xbb8e9c68	-0.004352141
62	0x3cc6ee61	0.02428359
63	0xbd1bdbea	-0.038051523
64	0x3c98dd5d	0.018660242
65	0xbcc547ca	-0.024082083
66	0xbd193caa	-0.03741137
67	0x3ca9dc47	0.02073492
68	0xbd06a376	-0.032870732
69	0xbd5666f5	-0.05234428
70	0xbd00aa8e	-0.031412654
71	0x3c880978	0.016606078
72	0x3be46767	0.0069703343
73	0xbd167eea	-0.03674213
74	0x3cd9ca1d	0.026585633
75	0xbbf018c0	-0.007327169
76	0xbc92f559	-0.017939257
77	0xbd15f63a	-0.036611773
78	0xbd80c982	-0.062884346
79	0xbcfe9a57	-0.031079454
80	0x3c833bd0	0.016019732
81	0x3cc6282f	0.024189083
82	0x3b4a85d8	0.003090253
83	0x3d0ba741	0.034095053
84	0xbb145268	-0.0022632126
85	0x3b802b82	0.0039114365
86	0x3d4539f4	0.04815097
87	0xbd8812ee	-0.066442356
88	0x3d8c275c	0.06843445
89	0xbc565fea	-0.013084391
90	0xbc8a659a	-0.01689415
91	0x3cc28c2e	0.023748484
92	0xbcec4a39	-0.028843986
93	0xbbf1726c	-0.0073683765
94	0x3d09e1d6	0.03366264
95	0x3d09cfa8	0.033645302
96	0x3cbd0e31	0.023078056
97	0x3b162a77	0.0022913495
98	0x3d2110ec	0.03932278
99	0xbd07fb6f	-0.03319877
100	0xbd7b61d9	-0.06137261
101	0xbd3e31f5	-0.04643436
102	0xbdab1720	-0.0835402
103	0xbbcc1f0c	-0.006229287
104	0x3cf91554	0.030405678
105	0xbd6cc473	-0.057804536
106	0xbd142973	-0.03617234
107	0x3d63705a	0.05552707
108	0xbd8d777d	-0.06907556
109	0xb9d61a60	-0.00040836912
110	0xbd21d134	-0.039506152
111	0xbdae074b	-0.08497485
112	0xbafc66ee	-0.001925675
113	0xbbb7eb7a	-0.005612788
114	0xbd043657	-0.032278385
115	0x3cc2b8e3	0.023769801
116	0x3bac32b9	0.00525507
117	0xbc267278	-0.010159127
118	0xbd5d11be	-0.053972
119	0xbc671c2f	-0.014105841
120	0x3c502728	0.012704648
121	0x3c3e1716	0.011602184
122	0xbd0a33d9	-0.033740852
123	0xbc8b7609	-0.017024057
124	0x3cce9ba0	0.025220692
125	0xbd4d9c87	-0.050198104
126	0x3c2eeb24	0.010676179
127	0xbd3424b7	-0.043980327
128	0xbd84d492	-0.06485857
129	0x3d4fd879	0.050743554
130	0x3b2be652	0.002622981
131	0xbcb336d1	-0.021876724
132	0x3b4926bd	0.0030693256
133	0x3afa87a1	0.0019113907
134	0x3d1f664d	0.03891592
135	0x3cb464d9	0.022020744
136	0xbce68f18	-0.028144404
137	0x3cf265c7	0.029589547
138	0x3cb93102	0.022606377
139	0x3c0abf94	0.008468527
140	0xbcc7ee18	-0.024405524
141	0x3ba8a1c8	0.005146239
142	0x3cd7b826	0.026332926
143	0x3d1962ad	0.03744762
144	0xbd9ad221	-0.0755961
145	0x3cd55239	0.026040183
146	0x3bfa559b	0.0076395995
147	0xbcd639d7	-0.026150627
148	0x3bfc2d48	0.0076958276
149	0x3d4c9a06	0.049951576
150	0xbd4f98e0	-0.050682902
151	0x3bef46be	0.0073021343
152	0x3d1f5d5d	0.038907398
153	0xbd70c8ad	-0.05878513
154	0xbdbb1ba6	-0.09136133
155	0x3c73843d	0.014863071
156	0xbd9df002	-0.077117935
157	0xbc854c1b	-0.016271641
158	0xbd6c8f94	-0.057754114
159	0xbce147fb	-0.027500143
160	0xbd868411	-0.065681584
161	0x3c9a1109	0.018806951
162	0xb82d2c96	-4.1287938e-05
163	0x3afd216d	0.001931233
164	0x3d6f680c	0.058448836
165	0xbd7546d4	-0.059882
166	0x3d7557e8	0.059898287
167	0x3caff8a8	0.021480873
168	0x3be43480	0.0069642663
169	0x3cb127cb	0.02162542
170	0xbd74a6e0	-0.059729457
171	0xbd91888a	-0.07106121
172	0xbca942ac	-0.020661674
173	0xb6df2fb4	-6.6514713e-06
174	0xbdeaa663	-0.11457517
175	0xbbd1e2d7	-0.0064052152
176	0xbcc88488	-0.024477258
177	0xbdda86ce	-0.10670243
178	0xbd75837f	-0.059939858
179	0xbc408e6c	-0.011752706
180	0x3bc7d57f	0.0060984488
181	0xbcaac0a3	-0.02084381
182	0x3cd33b73	0.025785184
183	0x3d2bb4fd	0.04192065
184	0x3d0c2e3b	0.034223776
185	0xbca0b7a4	-0.019618817
186	0x3d0021c8	0.031282216
187	0x3c5b9a87	0.013403541
188	0xbd85300f	-0.06503307
189	0xbd03032d	-0.03198545
190	0xbd8758c3	-0.06608727
191	0xbdbb3f76	-0.091429636
192	0xbac09103	-0.0014691654
193	0x3c93a294	0.01802186
194	0xbd288695	-0.041143972
195	0x3cd81a1d	0.02637964
196	0xbcdfe9c6	-0.027333152
197	0xbceb2cff	-0.02870798
198	0xbd7e13ee	-0.062030725
199	0xbd080e4d	-0.033216763
200	0xba6a8275	-0.0008945831
201	0xbc803c21	-0.015653672
202	0x3cfc42ea	0.030793626
203	0x3d8b7cab	0.06810888
204	0xbb35fa1c	-0.0027767485
205	0x3d5a5e54	0.053312615
206	0x3c882f41	0.016624095
207	0x3d536144	0.05160643
208	0xbb9a397d	-0.00470656
209	0x3d19384a	0.037407197
210	0x3bc6fdc2	0.0060727308
211	0x3d02e800	0.031959534
212	0xbb9db025	-0.004812258
213	0x3cb0ae69	0.02156754
214	0xbc20c2bb	-0.009812052
215	0xbb26fe5f	-0.0025481207
216	0x3c8dc5c1	0.01730621
217	0x3d1481ee	0.036256723
218	0x3d035703	0.032065403
219	0x3c8f631d	0.017503316
220	0xbd6a9adb	-0.057276588
221	0x3c2c3f1b	0.010513092
222	0x3c4fe5e2	0.012689086
223	0xbbc0faac	-0.0058892574
224	0x3d2d8d66	0.042371176
225	0x3b9d08d8	0.004792314
226	0xbc13b79c	-0.009015944
227	0xbc19bcf4	-0.009383429
228	0x3d1b0493	0.03784616
229	0xbc01f95c	-0.007932987
230	0xbc028964	-0.007967327
231	0xbd10e3e7	-0.035373595
232	0xbbdf7328	-0.0068191476
233	0xbc3fbecf	-0.011703207
234	0xbd06c082	-0.032898434
235	0xbd1ce88f	-0.038307723
236	0x3c30560e	0.010762705
237	0xbc6cdb8d	-0.014456642
238	0xbd03a6a2	-0.032141335
239	0xbd112657	-0.035436954
240	0xbc9baa8b	-0.01900222
241	0xbd1ef35c	-0.038806304
242	0xbd66b00b	-0.05632023
243	0x3ca72284	0.0204022
244	0xbc07a1a4	-0.008278284
245	0x3cc2b73f	0.02376902
246	0x3d0c4a87	0.034250762
247	0x3a7729c5	0.00094285264
248	0xbcb88642	-0.022524957
249	0x3c2cf23c	0.0105558
250	0x3cea3e2d	0.0285941
251	0xbcb81ef2	-0.022475693
252	0x3da95dbb	0.08269831
253	0x3d9bb52d	0.07602916
254	0x3d3395ef	0.04384416
255	0xbd9755dd	-0.07389424

params.core.8.bias f4 [64]
0	0x3d843205	0.06454853
1	0x3ca05c27	0.019575192
2	0xbcfe41d3	-0.031037247
3	0x3d8f181f	0.069870226
4	0xbd12524b	-0.035723012
5	0x3d196cd7	0.037457313
6	0xbbf79326	-0.0075553833
7	0x3d14c136	0.036317073
8	0x3c662045	0.01404578
9	0xbd95a5eb	-0.07307037
10	0x3d05f8d4	0.032708004
11	0xbc45f86b	-0.012083153
12	0xbc7d3944	-0.015455548
13	0x3c7b9c5b	0.015357102
14	0x3bbf4579	0.005837139
15	0x3cd20d53	0.02564112
16	0xbd0efe99	-0.034910772
17	0xbbcc82e2	-0.0062411884
18	0x3c878087	0.016540779
19	0xbd4ef8d7	-0.05053028
20	0xbb15fee5	-0.0022887525
21	0x3c95a121	0.018265309
22	0x3cb9360d	0.022608781
23	0x3ce24cf4	0.027624585
24	0xbce3d756	-0.027812641
25	0x3d27de3d	0.040983427
26	0xbd214e09	-0.03938106
27	0x3d12023d	0.035646666
28	0x3d67f2e1	0.05662811
29	0x3cccd6bd	0.025004739
30	0x3d501014	0.050796583
31	0x3c51f085	0.012813692
32	0x3cb1ee4a	0.02172007
33	0x3c065389	0.008198627
34	0x3d21e6cc	0.039526746
35	0xbd7e4599	-0.062078092
36	0x3d253b6d	0.040339876
37	0xbc6ada43	-0.014334264
38	0x3d7fd3bf	0.062457796
39	0xbc906543	-0.01762641
40	0xbd0decb7	-0.034649577
41	0xbc6d3d55	-0.014479955
42	0xba84a9e5	-0.0010121433
43	0x3d32a17d	0.04361104
44	0x3cfff82c	0.031246267
45	0x3da1a449	0.07892663
46	0xbd6b0ada	-0.057383396
47	0xbd5b1d25	-0.05349459
48	0x3d8bedfd	0.06832502
49	0xbd22290f	-0.039589938
50	0xbd69358f	-0.056935843
51	0x3cb50824	0.022098608
52	0xbcde9809	-0.027172105
53	0x3c84c1db	0.016205719
54	0x3d3d42a7	0.046206143
55	0x3d13d0fc	0.036087975
56	0xbd3d4409	-0.04620746
57	0xbd5274ee	-0.051381044
58	0xbd0acc06	-0.03388598
59	0x3cba97cd	0.022777462
60	0xbd02fef9	-0.031981442
61	0xbbe0606d	-0.0068474323
62	0xbd2b7d49	-0.041867528
63	0xbc9a6296	-0.018845838
