models/prior_scale/0.1/prob_model.pth (torch, 851234 bytes, 18 tensors)

params.in_layer.0.weight f4 [32, 3, 3, 3]
00000000: 531c f3bd 6424 513d 9cdf 493d 3aed edbd
00000010: 0864 483d f11b 133e 3b2e 413e 3278 933d
00000020: d2db e2bd 140d 27be 7fd3 103e d7c8 143e
00000030: 9017 2dbe cf89 f9bd f47e 163b 149a 033d
00000040: 9499 15be 1c67 633d d81a b6bd 45a6 edbd
00000050: 1ad0 ac3d d0af 2fbe e55e b7bd d3fa 1c3e
00000060: 897c 183e e8d8 54bb d093 22bd 927d 20bd
00000070: 8d78 88bd 7f30 1abd b166 113e 3115 63bd
00000080: 6f79 21be 0f28 53be 3a13 1b3e db4b 543e
00000090: 8e97 173e 3eda e03d cd7c b43d 07dc 973c
000000a0: 60cb 063e 873b 2e3e 0669 26be 3dd8 ed3d
000000b0: 9f02 35be 8922 9fbc 8117 42be 5c71 d8bd
000000c0: e94b b8bb d804 34bd 6d7e 473d bd6d 8e3d
000000d0: 9ebb 89bc 3ddb 43be 2f65 33be da31 b83d
000000e0: de81 80bd 23e0 8f3d 9e8d 183e 99c3 493c
000000f0: ad3e 5fbd a6ce a93e af8f dd3d ed6c 90bd
00000100: f7b2 b4bb 8da4 bf3d 1225 bf3d 71f3 743d
00000110: 92ba 4d3e 7f19 ddbd 4a36 473e 2a31 83bd
00000120: a32f a43b 5f73 23be 6aa5 133d 9b56 12be
00000130: 58d3 093d 81ab 5fbd 4741 2e3e b99c 08bd
00000140: 77f3 0abe 46e6 dabc 8f17 093c e7bc b63d
00000150: 5a41 3cbe 5771 3b3e b1a5 0abe fe39 e5bd
00000160: e77e 653d abf7 02bd 6fe5 d73d b991 163d
00000170: ae07 433e 9200 42bd bf27 6e3d 4104 073e
00000180: 5dee e5bb 2b67 2c3e cd91 16be 5aa5 933d
00000190: 6289 4ebe 3c2d 29be b50d 113e 7ee5 183e
000001a0: 17a0 443b 4e52 df3b a980 38bd 1d47 2dbe
000001b0: d2e3 b2bd 6cff f83c f63d 103e 31f7 323e
000001c0: 267f 26be 9d39 c83d 1e7e 1e3e ad7f 25be
000001d0: 5aa8 ea3d 15a3 2f3e 57b5 0d3e adc5 803d
000001e0: d239 213e 1156 64bd 6571 f73c af34 a63d
000001f0: 8113 ffbc f07e d33d 47b4 50bc adda dabc
00000200: 5c8a 17be d4e7 18be a023 73bd c84e cfbd
00000210: 90f1 29bd 41ba 9bbb 74f2 8e3c a7c1 a13d
00000220: e567 da3c 329e a3bd 22c3 c53c ec25 88bd
00000230: 5017 013c 46ca 07bd 858e e5bd 15b0 a5bc
00000240: 2e05 25be eb51 06be f2aa adbc 0b6f 0dbe
00000250: 813b 2bba 626e dbbd 5af3 1e3e 8203 c63c
00000260: 4904 273e 76e3 f33d fb82 2ebe ea28 5dbd
00000270: 3a81 b1bd ac8f 0fbc fe05 4e3c c47a f5bb
00000280: 74f1 063e 4d72 2a3e 6dd3 bdbd 2769 eabb
00000290: 752a 20bb 83aa bcbd 4760 49be f0fd a1bd
000002a0: 57a7 3abd de57 153e 2d89 393e 1396 393d
000002b0: 7985 d33d d3fb e6bd 0cec 04bd e6cc 38be
000002c0: 4b3a d4bc 81dc 363e 3b4a 243e fb6b 05bd
000002d0: abc9 2cbe 69d0 bcbd f507 e93d 32a6 593d
000002e0: f14d a73c 4efe 1bbb 24bd a63b 3316 4ebd
000002f0: e842 d1bd c8a9 f23c bcdf 0abd 686f d3bc
00000300: 9ca5 a13c d0ba 2fbe d23c d73d 47cd 1e3e
00000310: e302 3bbe f3ac 34be b26b df3d 6753 1b3e
00000320: 40b4 b2bd b543 e3bd 3334 a2bd be38 33be
00000330: f4aa 92bd e096 c9bd bceb 5cbd 3ab2 ff3d
00000340: 22d3 19be 4b83 3bbe ebf8 0bbe 86a4 c73d
00000350: d4f5 3e3c 13fd 93bd 6eb8 cb3d fe6f bf3d
00000360: a059 debd 831e b13d b6b0 24be add6 573d
00000370: da9e 5e3e 0d96 c5bc 7d24 31be 329b 683e
00000380: dff3 763e 32bc f4bd ec86 e03b 48f7 56bd
00000390: 0d13 45bd ca96 1c3e e1a3 f73d 890d 353e
000003a0: ae3a e43d 9dc0 1c3e 52df a2bd d396 6a3c
000003b0: 3d93 c73d 7b53 fd3d 835b 32be 2240 a93b
000003c0: 7013 b1bd e29a f93c ac6c 07be 2c21 163d
000003d0: 14e1 6dbd 606a cfbc 36f9 12be b697 a43d
000003e0: 18bd 31bd 6dcc 3d3e c51b 2ebe 7eac 9c3d
000003f0: a758 25be 49b1 313e 14a4 35be d803 d2bd
-0.11870637 0.051060095 0.049285516 -0.11617513 0.048923522 0.14366128 0.18865292 0.0720066
-0.11077084 -0.16313583 0.1414318 0.1452974 -0.1690352 -0.12184488 0.0022963854 0.032129362
-0.14609367 0.055518255 -0.08891839 -0.11603979 0.0843813 -0.17156911 -0.089536466 0.15330057
0.14891256 -0.003247792 -0.039691746 -0.039182253 -0.06663618 -0.037643906 0.1419933 -0.05544013
-0.1576898 -0.2062075 0.15144053 0.20732062 0.14803907 0.109791264 0.08812866 0.018537534
0.13163519 0.17014895 -0.16251001 0.1161351 -0.17676781 -0.019425647 -0.18954279 -0.105684966
-0.0056242836 -0.04394993 0.048704553 0.06954525 -0.016813096 -0.19126602 -0.17519067 0.089938834
-0.0627477 0.070251726 0.14897773 0.0123147005 -0.05450313 0.33165473 0.10818421 -0.07052026
-0.0055144983 0.093575574 0.093332425 0.059802476 0.20090702 -0.107958786 0.19454303 -0.06405862
0.0050105616 -0.1596198 0.036046423 -0.1429085 0.03364882 -0.05460692 0.17017089 -0.033352587
-0.13569437 -0.026721131 0.008367433 0.08922749 -0.18384305 0.18304954 -0.13539769 -0.11192702
0.056029227 -0.031974476 0.10541808 0.036760066 0.19045898 -0.047363825 0.058143374 0.13185216
-0.0070169405 0.1683623 -0.14704056 0.07209273 -0.20169595 -0.16521162 0.14165385 0.14931294
0.0030002648 0.0068152314 -0.045044575 -0.16921659 -0.087348595 0.030395232 0.14086136 0.17477109
-0.16259441 0.09776614 0.15477797 -0.16161986 0.11457892 0.17152055 0.13838707 0.06287704
0.15744713 -0.05574614 0.030205438 0.08115517 -0.03113723 0.10326946 -0.012738294 -0.0267156
-0.14798874 -0.14932185 -0.059360147 -0.10122448 -0.041490138 -0.004752428 0.017449595 0.078982644
0.026660869 -0.07989158 0.024140898 -0.06647858 0.007879093 -0.033151887 -0.11208824 -0.020225564
-0.16115257 -0.13117187 -0.021199677 -0.13811891 -0.0006531999 -0.10714413 0.15522519 0.024171595
0.16310228 0.11908619 -0.17042153 -0.053994097 -0.08667226 -0.008762281 0.012574671 -0.0074914414
0.13178045 0.16645165 -0.09268842 -0.0071536484 -0.002443937 -0.0921221 -0.19665633 -0.07909763
-0.045569744 0.145843 0.18118735 0.045309138 0.10328192 -0.112785004 -0.032451674 -0.18046913
-0.025906703 0.17857553 0.16043942 -0.03257368 -0.16873805 -0.092194386 0.11378471 0.05313701
0.020422908 -0.00238027 0.0050884653 -0.05031414 -0.102178395 0.029621974 -0.033904776 -0.025809959
0.019732289 -0.17161107 0.105096474 0.15507995 -0.1826282 -0.176441 0.10909213 0.15168534
-0.08725786 -0.110968985 -0.079201125 -0.17502114 -0.07161513 -0.0984323 -0.05393575 0.12485166
-0.15021947 -0.18311803 -0.13669173 0.09748177 0.01165529 -0.072260045 0.099472865 0.09347533
-0.10856938 0.08648398 -0.16083035 0.052694965 0.21740285 -0.024119401 -0.17299075 0.22715452
0.24116467 -0.11949958 0.0068520214 -0.05248192 -0.04811387 0.15291896 0.12091804 0.17680945
0.11144005 0.15307851 -0.07952751 0.014318186 0.0974488 0.12369438 -0.17417721 0.005165116
-0.086462855 0.030469362 -0.13225049 0.03665273 -0.05807598 -0.025319278 -0.14352879 0.08036749
-0.043393224 0.18535013 -0.1700278 0.07650088 -0.161471 0.17352785 -0.17738372 -0.102546394

params.in_layer.0.bias f4 [32]
00000000: cfbf 2bbe 7cab 0e3e 5254 a9bd 450d b9bd
00000010: 5002 b5bc 20dd aabd 828d b73d ac23 793d
00000020: c102 13be 5cfe 01be 7068 033e 0666 00bd
00000030: 213f 8abd 4aa1 d73c a87d 633b 3805 bd3d
00000040: f626 523d 894e dd3c 803d e43d 5b60 3dbe
00000050: f0b8 a93d c827 a7bd 987c 2b3e a44e 9d3c
00000060: 1e47 2bbe d5af f8bd a827 433d fa26 1b3e
00000070: a0c5 18be 6a1a 8fbd 0a85 103e 400f 893d
-0.16772388 0.13932604 -0.08268036 -0.09035734 -0.02209583 -0.083429575 0.08962537 0.060825035
-0.1435652 -0.12694687 0.12832808 -0.031347297 -0.06750322 0.026322026 0.0034712348 0.09229511
0.051306687 0.027014988 0.11144543 -0.18493788 0.08287227 -0.081618845 0.16746747 0.019202538
-0.16726348 -0.12142912 0.04764524 0.15151587 -0.14919138 -0.0698746 0.1411325 0.06692362

params.core.0.weight f4 [32, 32, 3, 3]
00000000: 038e 61bd e8a3 bfbc ff79 2f3d 0c91 25bd
00000010: f73c 1c3d 2a70 2ebd 7216 30bd 2095 4fbd
00000020: c029 e9bc 07d9 6fbd f189 44b9 bab6 2bbc
00000030: bc67 55bb efb7 4e3a bd4f d9bc 7204 e13c
00000040: f5fd 033d b485 45bd 92f8 7dbd b711 273d
00000050: 2599 b53d 1c0e 1bbd 006e 8cbb 8c60 aa3d
00000060: e50a 50bd 694a 9a3d 317c 07bc 7cb6 bbbd
00000070: ea48 f43c bfeb 83bc cbaf 8abd 87dd 473d
00000080: ce52 9a3d d11f bbbd 88c4 093d 286d 813d
00000090: 72d0 8ebd 9fd1 e1bc 29ce 82bd fa0a 2ebd
000000a0: efcb c4bc 4cbd 003d 9c0d 053d f3ad 17bd
000000b0: 3b08 813c 7abe 2bbd 6b89 cbbc d037 043d
000000c0: 695a 1dbc f1f3 003d e9b6 5a3d 55eb 5e3d
000000d0: 9801 50bd 8869 04bd eb71 41bd 5460 88bd
000000e0: 3d48 5f3d f872 49bb dce6 1ebd 84d5 8a3c
000000f0: 80f9 963c b72a 0e3d fc2a 9ebd 0c39 1abd
00000100: 1220 ad3c 57de 0e3d d43f 103b 2d5e 12bd
00000110: be43 ea3c 8e63 9fbc 27b5 2cbd 34d3 053a
00000120: f001 7bbd 32e5 6abd 3978 67bc 3bbc d7bd
00000130: c473 263d 50c3 a33d 42fc a7bc 67f3 2d3d
00000140: f621 ff3c 5695 bdbc b435 463c be64 f93c
00000150: acc3 1ebc 328b 08bd e386 183d 1010 77bc
00000160: 7b69 f8bc 933e 063d e101 893d 345c b73c
00000170: 94b8 893d e4f8 60bd 88e8 a43d bbf0 9e3d
00000180: b0b2 35bd b6c9 b8bd 3e94 99bc 1e7e 18bc
00000190: d887 a83a 5900 2cbb 58ec f33a 9a37 4f3c
000001a0: d1ff 113d 596f 2d3d 1a9f 453d 1e03 c73c
000001b0: e909 2e3e 5947 3d3e b8b9 e93d 89f7 f83d
000001c0: b81d 473e e99d 5c3e 25f4 683e 4096 20bb
000001d0: 12ca 033e 2089 c93b dabf 12bd 35e9 913d
000001e0: af82 14bc 6a20 e3bd 29d8 a93b 0c1b 01be
000001f0: 5224 77bd 37fa 2fbd 286f ca3a c330 053d
00000200: b015 c83b cd8d 55bd 0af3 dbbc a6be 69bd
00000210: 810e 393d ffec 1a3d 7d8a 193d e8f5 07bd
00000220: ed03 d5bb f9b6 743d fbba 5bbd e426 76bb
00000230: ebfb 933d 612f 533d 2e2a 98bc eea5 a43d
00000240: 101f e3bd 1b13 ecbc 1d97 023d a7cc 65bd
00000250: 3268 cd3d c33b 303e 9f73 42bd de8e 4d3d
00000260: 30e0 c33b d3c5 29bc 2d40 0fbd cc55 96bc
00000270: 5fd5 803d 9cda f93b 3298 5bbd 2e8c 293d
00000280: fe01 313d cc5f 433d e46f 943c 185e 2b3d
00000290: 7665 dab8 6f4e f73c d612 933d 9c1d b43d
000002a0: e754 b6bc 8188 553b 8866 973c f4f1 2abc
000002b0: 66ef 09bd d28a 8f3c 5eb3 803c e064 d1bc
000002c0: 7fb3 333d f7dd 573d ca66 8f3c dda0 353d
000002d0: ac74 8cbd 0e49 86bd 49c4 57be 3f1f 81bc
000002e0: 9a8b 23bd 12dc aabd 8c17 ac3d 4d39 1d3e
000002f0: aeb9 fa3d be24 a93c d5fd 4ebd 6669 c13c
00000300: 33fe 5b3d f7d8 4d3d bbef 303d 3761 11bd
00000310: 001d bfbc 36f8 40bd 51b3 9cbd 3d90 84bc
00000320: 373f ac3c cf4f dfbc 888d 773d 4d59 553d
00000330: c230 883d 969c 203d 8494 6a3c f8f8 013c
00000340: 1295 993c cbfc 0d3d d018 ea3b 3109 41bd
00000350: a765 2bbd 85f4 103d 74c0 0dbc cf9f 323d
00000360: 0c04 483e 0fe9 253e fdb4 1a3e 2b11 8dbd
00000370: 8be5 9cbb 1fd5 cf3c 3e4f 88bd 0ee6 913d
00000380: ab02 a73d 3457 64bc c260 d4bd aeab 073d
00000390: 9be2 b7bd e0df 95bd 0755 71bd e7b0 9cbd
000003a0: 64a6 09bd f2f1 15bd 5891 60bd 8ca2 90bb
000003b0: b20b efbc bc44 b33b 445d 223b 913c 1f3d
000003c0: f610 e23c f0f1 60bd 043e 32bd f5be 083e
000003d0: b30e 9c3d 3f03 a83d 3cba 943b db7d 15bc
000003e0: bd87 c73d f625 15be 5b5b dabd 6582 86bd
000003f0: dcef a3bd 940b 893d 95d5 b13d b6bf 7dbd
-0.055067074 -0.023393586 0.042840954 -0.04042153 0.038144078 -0.042587437 -0.042990156 -0.050679326
-0.02846229 -0.058556583 -0.00018743404 -0.010480577 -0.0032563051 0.00078856846 -0.02652728 0.02746794
0.032224614 -0.048223212 -0.062004633 0.04078838 0.088671006 -0.037855253 -0.004285574 0.08319196
-0.05079164 0.07533724 -0.008269356 -0.091656655 0.029819924 -0.016103623 -0.06771811 0.04879525
0.07535325 -0.09136928 0.033634692 0.06319648 -0.069733515 -0.027565775 -0.06386978 -0.042490937
-0.024023024 0.031430528 0.032483682 -0.037031125 0.015750995 -0.0419297 -0.0248458 0.03227979
-0.009604075 0.03148264 0.053397093 0.05442365 -0.05078277 -0.032327205 -0.04722778 -0.06658998
0.05451225 -0.0030738693 -0.038794383 0.016947515 0.018429518 0.034708705 -0.07723042 -0.03765206
0.021133456 0.03488001 0.00220107 -0.035734344 0.028596755 -0.019456651 -0.042164948 0.0005105019
-0.061281145 -0.057347484 -0.014127784 -0.10533949 0.040637746 0.07996237 -0.020506028 0.042468455
0.031144124 -0.023142498 0.012097765 0.030443545 -0.0096902065 -0.033335872 0.037238013 -0.015079513
-0.030323735 0.03277452 0.066898115 0.022382833 0.067246586 -0.05492486 0.08052164 0.077607594
-0.044359863 -0.09022848 -0.018747445 -0.009307412 0.0012857867 -0.0026245324 0.0018609865 0.012647534
0.035644356 0.042342518 0.048247434 0.024293479 0.16995968 0.18484248 0.11412376 0.121565886
0.1944493 0.21544613 0.22749384 -0.0024503618 0.12870052 0.00615038 -0.035827495 0.07124559
-0.0090643605 -0.11090167 0.005183239 -0.12607974 -0.060337372 -0.042963233 0.0015444504 0.032517206
0.006106101 -0.052137185 -0.026849288 -0.057066582 0.045179848 0.037823673 0.03748559 -0.0331935
-0.006500712 0.05974481 -0.053645115 -0.0037559802 0.07225784 0.051558856 -0.0185748 0.08039461
-0.11089909 -0.028817704 0.031882394 -0.056103375 0.10029639 0.17210297 -0.047473546 0.050185077
0.005977653 -0.010362106 -0.034973312 -0.018351458 0.06290697 0.007624937 -0.05361194 0.04139345
0.04321479 0.04769878 0.01811976 0.04183778 -0.000104139486 0.030188767 0.07181327 0.0879471
-0.022257281 0.0032582583 0.018481508 -0.010433663 -0.033675574 0.01752225 0.015710529 -0.025560796
0.043872353 0.052701917 0.017505068 0.044342864 -0.06858191 -0.06556903 -0.2107097 -0.01576197
-0.039928056 -0.08342756 0.08402929 0.1535389 0.12242447 0.020647403 -0.05053504 0.023609828
0.05370922 0.050255742 0.043197375 -0.035493102 -0.023329258 -0.047111712 -0.076513894 -0.01618206
0.021026237 -0.027259735 0.06043771 0.052087117 0.06649925 0.039211832 0.014317635 0.007932894
0.01874784 0.03466491 0.007144071 -0.047127906 -0.04184499 0.035389442 -0.008651841 0.043609437
0.19532794 0.16202186 0.15108104 -0.0688804 -0.004788106 0.025370179 -0.06655739 0.071239576
0.08154806 -0.0139368065 -0.103700176 0.03312271 -0.089787684 -0.073180914 -0.05891898 -0.07650929
-0.033605948 -0.03660769 -0.05482611 -0.0044139083 -0.029180381 0.0054708403 0.002477483 0.03887612
0.027595978 -0.05491823 -0.043516174 0.13354094 0.07619991 0.08203744 0.0045388024 -0.009124245
0.09742687 -0.14565262 -0.10661956 -0.065678395 -0.08004734 0.066916615 0.08683316 -0.061950408

params.core.0.bias f4 [32]
00000000: 5a0d 3b3d 7117 0bbd dd4e 843c fb18 d93c
00000010: 9360 58bd ebdd 273d 2b48 803d e5f6 4c3d
00000020: c713 433b 97eb 5d3b 43ba 643c cd78 babc
00000030: 74bc a73c da8f 963b 20da 403c 2e19 503d
00000040: 0bdf c93c 781f ccbc 8a7c 39bd b9a7 53bd
00000050: b742 233d a00e 363d bf6e 8cbc 2d38 343c
00000060: d171 1f3d c2c3 0a3d 224b fbbc 25d0 efba
00000070: baf6 503b 403e 14bd 6da1 613d 67dc b53b
0.04566703 -0.033957902 0.016150886 0.02650117 -0.052826475 0.04098312 0.06263765 0.050040144
0.0029766427 0.0033862346 0.013960424 -0.02276268 0.020475604 0.004594785 0.011770755 0.050805263
0.024642488 -0.02491735 -0.045284785 -0.051673625 0.039858546 0.04444754 -0.017142652 0.0109997215
0.038926903 0.033878095 -0.030675475 -0.0018296285 0.0031885342 -0.03619218 0.05508559 0.0055499556

params.core.2.weight f4 [32, 32, 3, 3]
00000000: c6e3 57bd 25a1 ebbc eb6e 90bd be2a b3bd
00000010: 4abb fbbc 0747 f9bc 794e dcbd 8e5a 1ebe
00000020: 5012 f0bd 92b5 613c 1644 5c3c a20b 933c
00000030: 0c66 30ba d7eb 2e3c 1e54 42bd 0816 813c
00000040: 5c03 a2bd f987 5c3c 496b 0fbd 42c9 31bd
00000050: 117a 04bd 542c 7cbc 033a 373d 8f71 823d
00000060: 79fc b13c 5934 3a3e 6182 333d bf47 503c
00000070: 0cf5 553d 4c6d 8c3d 9608 653c 2307 303d
00000080: d9b0 bb3c c45a 03bd b916 9c3d fd20 eabb
00000090: 3a38 c9bc d003 7fbc b596 643d 144b 04bd
000000a0: 80f2 56bd 5c13 85bb 1c61 473c 0c9c 813b
000000b0: 1605 91bc 23e9 b7bc 0a4c 8e3d 38b6 0abd
000000c0: 011f 35bd b9d0 d23c a5f9 c1bc 467b 713c
000000d0: 6ca1 ca3d cea9 6d3d c16e 4c3d 626b 353d
000000e0: 3506 6bbd 9868 49bd ba98 8bbd 6608 87bd
000000f0: 9443 9fbd 006c c0bd 9a6b fbbd 339e bdbc
00000100: fd9c 383b d449 0f3c 7cf6 37bd ebc7 cfbc
00000110: 9004 d6bc 2868 b83c 0d3e 63bd 5b96 183c
00000120: 73b2 7fbc e646 2d3d 1b05 34bc 6767 943c
00000130: fa8a 273e fa6b 133e 39ff f5bd a1c2 a8bd
00000140: ea0a e3bd 4f4c fcbc ce7e 633c 4d67 87bd
00000150: c6d3 083d 9f57 e13d 425f 1a3c e4f1 2b3e
00000160: 9dc1 1a3e f85d 343e b09e 413d fd37 853c
00000170: 858f 01bd 5767 b3bb f55e 4a3d 2215 b13c
00000180: 058a 6b3d 10f4 be3b 07b8 b63d ae45 33bc
00000190: 113d ed3a 1736 1dbc 52aa 813c 48d3 2f3d
000001a0: 2425 8039 0982 4e3c f66e d7bc e73c f0bc
000001b0: 2f50 4a3d 4290 0c3c 1d37 5e3d a9ca 6d3d
000001c0: 933e c1bd ba2b 353d ab8d f0bd eec5 58be
000001d0: 132c 24be b971 3cbc 7685 193d b803 c63d
000001e0: ae3f 773d 19aa 3f3d ab90 a63d 0a41 583d
000001f0: e9d0 ae3d d582 083d 6a60 c8bd 42ac 0a3c
00000200: a06c e63c ed42 5ebd 6fc9 5c3b f14d 043c
00000210: 278a c6bd 56c0 b6bd 6957 a4bd b362 b2bc
00000220: c33c 783d 7067 673d aa04 a1bc 8c89 0cbd
00000230: 3482 d6bd 37b8 4a3d 002a a73d ac7d bf3d
00000240: 4d01 e43c 204b ae3d 5cfd 4d3d 3e0d 2c3d
00000250: 7e64 65bc 4ad9 0a3d 6fb1 813d cfc4 d5bc
00000260: 80b5 483d 9094 04bc 7f0d 44bd 8827 b0bb
00000270: 0645 103c 16f4 02bc 08dd 033d 3466 053e
00000280: 6c14 8a3d c494 223d dba5 1b3d b116 6abd
00000290: da2b 18bd a225 c23c 87d6 fabc 392a 5cbd
000002a0: 5783 423d 86b0 033d 83eb 693d e447 ef3b
000002b0: e3be 18bd 128a 663d 8710 533d 1d82 c03d
000002c0: 5df2 4bbc 27c8 4c3d a56f 723d 6bfb 99bc
000002d0: e236 ccbd cf3e d73c 2a6d 8dbd fe4f 55bd
000002e0: 2afa ecbc 2cc8 0c3d b5bd 153d ff86 ae3c
000002f0: 0223 c23d 68a4 be3c 97ce 39bc 372b 8ebc
00000300: 683d a13d b187 8e3d 88fc c93d aedb 1a3d
00000310: 195a a03d 38a6 79bc e8c0 23bd b897 89ba
00000320: 5ac1 65bd c5b3 16bd e015 663d ce19 443c
00000330: 924a 5b3d bff2 a23d 6075 ad3d 4649 8fbb
00000340: 6d95 8a3d b0c3 fe3d 9723 b33d 0d82 573d
00000350: 3e62 9e3d 4739 703d e19c 59bb aa8e 583d
00000360: d01f 0dbd 6412 a8bb 0426 a0bc c2d7 383c
00000370: 2438 5a3c f155 67bb 0dfa 223d 56db 1abd
00000380: 8e9a 16bd 8dc5 58bd 651a 43bc 32bd e7bd
00000390: 82c1 5c3d 9f88 9f3d d2a7 10bd 3280 e93d
000003a0: d18a f33d dfe9 0f3e 4c88 383d 384f 8a3d
000003b0: ab7f 35bd ec93 6b3d 917f bd3d 2b92 77bc
000003c0: 717d 6fbc 9a90 883d 3896 d43c 4aa5 0fbe
000003d0: 9e9d 5c3a d227 c7bd fe3a 26bc 0a0b 063d
000003e0: e11d c53c 8d57 373d e147 47bd fdab 9cbc
000003f0: 1230 8abc 5b6c 893d 9808 c33c bec4 243d
-0.052707456 -0.028763363 -0.07052406 -0.08748387 -0.030728955 -0.030429376 -0.10757155 -0.15464231
-0.11722243 0.0137762 0.013443967 0.017949883 -0.00067290734 0.010676346 -0.0474435 0.015757576
-0.07910797 0.013460153 -0.035014424 -0.043404825 -0.032342974 -0.015391428 0.04473306 0.06369316
0.021726834 0.18184032 0.04382551 0.012712418 0.052235648 0.06856784 0.013979098 0.042975556
0.022911476 -0.032068983 0.076215215 -0.007145046 -0.024562944 -0.015564874 0.055807788 -0.032298163
-0.05247736 -0.0040611457 0.012169149 0.00395537 -0.01770262 -0.022450035 0.06948097 -0.033865184
-0.04421902 0.025734292 -0.02367861 0.014738863 0.0989407 0.058023266 0.04991031 0.04429186
-0.057378966 -0.049172014 -0.0681624 -0.06593399 -0.077765614 -0.09395599 -0.12276383 -0.023146724
0.0028169744 0.008745629 -0.0449128 -0.025363883 -0.026125222 0.022510603 -0.055479098 0.009313191
-0.01560651 0.042303942 -0.010987545 0.018115712 0.16361609 0.14396659 -0.120115705 -0.082402475
-0.11086066 -0.030798106 0.013885213 -0.066115 0.033405088 0.110030405 0.009422125 0.16791493
0.1511292 0.17613971 0.047270477 0.016262049 -0.03163101 -0.0054749656 0.049406964 0.021616522
0.057504673 0.0058274344 0.08921819 -0.010941906 0.0018099864 -0.009595416 0.015828285 0.042926103
0.00024441734 0.012604245 -0.026298027 -0.029325916 0.049392875 0.008579316 0.05425178 0.0580546
-0.09435763 0.044231154 -0.11745771 -0.21169254 -0.16032438 -0.011501723 0.037480794 0.09668678
0.060363464 0.046793077 0.08133062 0.0527964 0.0853594 0.033327896 -0.097840145 0.008463921
0.028127968 -0.054263044 0.00336894 0.008075223 -0.09694319 -0.08923404 -0.08024485 -0.02177558
0.060604822 0.05649513 -0.019655544 -0.034310862 -0.10474053 0.049492087 0.08162308 0.09350142
0.027832652 0.08510423 0.05029045 0.042004816 -0.01400101 0.03389863 0.06332671 -0.026094822
0.049001217 -0.008092061 -0.047864433 -0.0053758062 0.008805519 -0.007992765 0.032193214 0.13027269
0.067421764 0.039692655 0.03799997 -0.057150546 -0.037151195 0.023699585 -0.030619873 -0.053751204
0.047488537 0.032150768 0.057109367 0.007302271 -0.03729142 0.056284018 0.051529434 0.09399817
-0.012447921 0.049995568 0.059188504 -0.018796643 -0.099714056 0.026275067 -0.06905587 -0.05207824
-0.028927881 0.034370586 0.03655787 0.021304606 0.094793335 0.023271754 -0.011340759 -0.01735459
0.078730404 0.06959475 0.0986262 0.03780716 0.07829685 -0.015237384 -0.03997889 -0.0010497486
-0.056092598 -0.036792535 0.056173205 0.011969043 0.053537913 0.079564564 0.08469653 -0.0043727485
0.06766782 0.12439668 0.087470226 0.05261426 0.07733582 0.058648374 -0.003320508 0.05287043
-0.034454167 -0.0051291455 -0.019549377 0.011281909 0.013319049 -0.0035299028 0.03978925 -0.03780683
-0.03676849 -0.052922774 -0.011908148 -0.11315383 0.05389548 0.0778973 -0.035316296 0.114014044
0.118917115 0.14054058 0.045051858 0.06753391 -0.044311207 0.057514116 0.09252847 -0.015110533
-0.01461731 0.066682056 0.025950536 -0.14027897 0.0008415821 -0.09724392 -0.010145901 0.03272537
0.024062099 0.04476123 -0.048652533 -0.01912498 -0.016868625 0.0671012 0.023807809 0.04022669

params.core.2.bias f4 [32]
00000000: fb06 b43c 5df4 ae3c 72ba 103d 75cf dc3c
00000010: 0def 61bd 44d7 953d db06 c2bc 9521 f3bc
00000020: 60b8 0bbd ea26 4cbc 59b6 473c 1b03 7bbd
00000030: c7da 293d 3ed1 d13b 21f5 e23c 26fb 433d
00000040: 7ccc 5dbc 166d 12bc 0550 bc3d f479 e83b
00000050: d23f 72bd 82fd 94bc acdd 713d 0614 5f3d
00000060: f15c 123c 861e 9bbb 7556 fcbc 1056 fa39
00000070: 7be7 a23d fd39 a1bc c206 bab9 a282 53bd
0.021975985 0.021356756 0.035334058 0.026954392 -0.055159617 0.07316449 -0.02368491 -0.0296791
-0.03411138 -0.01246045 0.012189471 -0.06128226 0.041468408 0.0064031174 0.027704777 0.047846936
-0.013537522 -0.008937141 0.0919495 0.007094616 -0.059142895 -0.018187288 0.059049293 0.054462455
0.008933292 -0.0047338633 -0.030802945 0.00047747837 0.07954308 -0.019680971 -0.0003548172 -0.051638253

params.core.4.weight f4 [64, 32, 3, 3]
00000000: 5daa 05bd 2941 5dbd 5714 37bd d2d0 5bbd
00000010: 28ed 5abd 1467 5dbd 17ca 5cbd 31b2 333c
00000020: f682 71bb ba8b 4f3d ebf6 483d e1f9 3d3d
00000030: 69f5 3dbd 7d7c 383d 2378 26bd 7730 333d
00000040: 1bcf 103c af35 1abc 7f5a 43bd 7a68 ebbc
00000050: 4bed 5bbd 3559 ab3b 3579 0bbd bf1a 95bc
00000060: 5964 5abd 6a4f 66bc 132f 5e3d 7977 d03b
00000070: 8c01 2abc 5cbf a9bc adba eabb 2dc9 223d
00000080: a4c5 15bd 3f7a 16bc f7c1 a93b 1d33 9fbc
00000090: a611 fbbc ddf9 5f3d 5cac a7bc 5725 04bd
000000a0: 7f79 593c 401e 2c3d 767d ecbc a0be 613c
000000b0: a631 003d 4fe2 d9bb 3aba 3fbd bd09 1dbd
000000c0: 6a57 4cbc e1cc 223d 90e3 52bd 9da2 5bbd
000000d0: f908 fdbb 620f 6cbb 6995 e4bc 8cb9 28bd
000000e0: 429c cdbc a7e5 143d 983a 12bc c006 85bc
000000f0: 263a 82bc 0f22 21bd f0ef dc3b eb60 4d3d
00000100: 0c92 44bd 2a72 52bd a82f 79bd 7d12 063d
00000110: ff84 28bd cc9a e8bc 6123 36bd e71a 9e3c
00000120: 049b 1d3b 00d2 46bc b709 5a3d 52bd 8cbc
00000130: b2d7 fb3c 034a 1a3d b0fd e13b 9a3a a93c
00000140: f8f7 64bb 39fe 2cbd c74f f13c 4217 d2bc
00000150: 8191 62bb d9ca 2a3d 9eee 0abd bf48 f83c
00000160: 4599 efbb 0576 3dbc 3af3 263d 79cd 8ebc
00000170: 52a5 6fbd c107 213d 9482 6ebc d870 4c3d
00000180: 6ee7 263d dd78 c33c 71c6 79bd 4c63 973b
00000190: 1a46 ad3c 5ad0 ca3c 4228 e83c 3849 75bc
000001a0: 8466 353b 7080 193c 28f4 703a cd91 2abd
000001b0: eb33 283c 867b 1b3d 6cd7 bbbb 2b00 523d
000001c0: 1a2f aebc bbe6 93bb 11bb 0abd 5548 4bbd
000001d0: d552 813b 9903 533d c9b5 3e3d e389 3abd
000001e0: ff45 4f3c 33ab 423b be91 27bc 7108 503d
000001f0: 5d84 b23c ea94 c9ba 4a3c 35bd de24 ea3c
00000200: 2053 3bbc b019 50bc 2a00 cb3c 0e03 e73c
00000210: 555c 60bb 4b75 0bbd ac07 aabc dc2f 5cbd
00000220: 1ac6 1ebd 52e5 04bd e758 2e3d 31cb 88bc
00000230: 800a 313c 260b 35bd 16e8 3e3d 6e5b 7cbd
00000240: 08f1 9dbc c0f4 f43b 462e 37bd 0841 053c
00000250: 7207 b73c 0c2c febc 2746 563d f723 483d
00000260: d2ca f73c a031 753c 7262 b9bc 2aec 3fbd
00000270: 2738 ccbb 793e c43b 2ff8 cdbc 4645 c2bc
00000280: 9502 3fbc dc30 e6bc 39b1 62bd ff22 0ebd
00000290: 1be3 e03c 5c54 6ebd 6463 b8bc 4c9f 3bbd
000002a0: ee12 9d3c 38df 79bd 76c7 5ebd 1261 55bd
000002b0: dd5d 3abc 4644 22bd 54e8 e8bb ff02 77bd
000002c0: f175 323d e8bc 7bbd a490 c9bc 122e 4cbd
000002d0: e5b7 1b3d 7651 863c d25b f73c 2cd5 05bd
000002e0: d66a d63c c449 53bd 98e6 06bc 16bb ef3c
000002f0: dee1 d73c 323c 9abb 02eb f23c ef65 85bc
00000300: de8d 473c 44e8 b1bc 253a 21bd 6428 03bd
00000310: 5a2f 53bd 5c67 ba3c 904f e2bc 8a53 473d
00000320: 37b3 2b3d a110 e7bc bf61 e53b 4814 c2bc
00000330: 2d34 2c3d 7319 8bbc 0196 913c ddc8 1d3d
00000340: 5bf0 423d c0c0 f83b 5304 063c 8c2b b83b
00000350: 7039 d33b f9dc 013d ff12 21bd 6642 9e3c
00000360: 5067 51ba 514b 4bbc bc29 70bd 59f0 983a
00000370: d7c8 723c 9966 293d a43d 7f3c bf3b 2a3d
00000380: 1684 54bd 6a44 4bbd e927 9f3c 0843 8a3c
00000390: 99d0 413d c219 59bc b265 c1bc 2db4 20bd
000003a0: b802 933c 36b4 143b 0001 68bd e70d 31bd
000003b0: cc46 c6bc 9052 f83b eb02 103d a47a efbc
000003c0: 28e3 34bc 709f afbc ae59 cabc 5776 643d
000003d0: de3b 36bd e58a 3f3d d078 37bd 94bb 7fbc
000003e0: 985e 77bb 885a aebc 71e1 323d d627 883c
000003f0: 77f2 533d d18b b53b 4085 6fbd f1a0 3c3d
-0.032633174 -0.05401722 -0.044697132 -0.053665943 -0.053448826 -0.05405338 -0.053903665 0.010967777
-0.003685174 0.050670363 0.049063604 0.04638088 -0.04637662 0.045040596 -0.040641915 0.04374739
0.00883844 -0.009412213 -0.047693726 -0.028736342 -0.053693097 0.00522914 -0.03405114 -0.01820123
-0.053318355 -0.01405702 0.054244112 0.0063618985 -0.010376345 -0.02072113 -0.007163367 0.039742637
-0.036565438 -0.009184419 0.005180593 -0.019433552 -0.030648064 0.054681648 -0.02046793 -0.032262173
0.013273596 0.042021036 -0.028868418 0.013778359 0.03129735 -0.0066492925 -0.04680846 -0.038339365
-0.012472013 0.03974617 -0.05148655 -0.053621877 -0.007722017 -0.003601991 -0.027903276 -0.041192576
-0.025098924 0.036351826 -0.008925103 -0.01623857 -0.015896868 -0.03933912 0.00674247 0.050141256
-0.047990844 -0.051378407 -0.060836464 0.032732476 -0.04114246 -0.028394125 -0.044467334 0.019299937
0.0024048695 -0.012135029 0.05323192 -0.017180119 0.0307425 0.03766824 0.006896697 0.020657826
-0.003493784 -0.042234633 0.029456986 -0.025645856 -0.003457159 0.041697357 -0.03391897 0.030308126
-0.0073119723 -0.011563783 0.040759303 -0.017431961 -0.05850727 0.039314035 -0.014557499 0.049912304
0.040748052 0.023861343 -0.060980264 0.0046199914 0.021151591 0.024757553 0.028339509 -0.01497107
0.0027679512 0.009369001 0.00091916556 -0.041642953 0.010266284 0.037959598 -0.0057324674 0.05126969
-0.021262694 -0.004513589 -0.033869807 -0.049629528 0.003946642 0.051517103 0.046560083 -0.045541655
0.012650966 0.0029704093 -0.010227619 0.0507893 0.021791631 -0.0015379463 -0.04424695 0.028582033
-0.011433393 -0.012701437 0.024780352 0.028199699 -0.0034234722 -0.034047406 -0.020755611 -0.05375658
-0.038763143 -0.03244526 0.042565253 -0.016698452 0.010805726 -0.044200085 0.046608053 -0.06161063
-0.019279972 0.0074754655 -0.044721864 0.00813318 0.022342417 -0.031026863 0.052312996 0.048862424
0.03024808 0.014965445 -0.02262995 -0.046856083 -0.00623228 0.0059888926 -0.025142757 -0.023714673
-0.01165833 -0.02809947 -0.055344794 -0.034701344 0.027452042 -0.05818592 -0.02250833 -0.045806214
0.019174065 -0.061003894 -0.05438944 -0.052094527 -0.011374918 -0.039615892 -0.007107774 -0.06030559
0.04356951 -0.061459452 -0.024605103 -0.049848624 0.038017172 0.016396265 0.03019515 -0.032674
0.02617399 -0.05158402 -0.008233689 0.029264014 0.026352819 -0.004706883 0.029653076 -0.016283957
0.01217982 -0.021717198 -0.03936209 -0.03202094 -0.05155883 0.022754364 -0.027625829 0.048663653
0.04191896 -0.028206171 0.0070001776 -0.023691311 0.042041946 -0.016979909 0.017771723 0.038521636
0.047592502 0.007591337 0.008179742 0.0056204256 0.006446056 0.031704877 -0.039324757 0.01931877
-0.0007988112 -0.012408094 -0.05863355 0.0011668309 0.014818392 0.04135761 0.015578661 0.041560885
-0.05188378 -0.04962579 0.01942821 0.016877666 0.047318075 -0.01325077 -0.023608062 -0.03923433
0.017945632 0.0022690422 -0.05664158 -0.04322615 -0.02420368 0.0075782016 0.035159033 -0.029233284
-0.011040486 -0.02143833 -0.024700966 0.05577692 -0.044490688 0.04676332 -0.04479295 -0.015608687
-0.0037745591 -0.021283403 0.04367203 0.016620558 0.051744904 0.005540349 -0.058476686 0.046051923

params.core.4.bias f4 [64]
00000000: 0bba efbc faab 6fbc 8c46 04bc 8206 a8bc
00000010: 34ee aabb 94f9 6f3d 3a38 763c 8038 53bd
00000020: 135c 32bd 2f59 04bd 6b37 dc3c b4b2 023d
00000030: 7f55 783d 17cf 09bd 3578 3dbd 9a89 09bc
00000040: d897 8cbd 8c2b e1bd d5f0 7a3c 23da e23c
00000050: ac9c 0dbb f281 183d 9ff6 8d3c 3adf d43c
00000060: d704 9cbc 10ae 303d fbb8 403c b91f 54bc
00000070: b9bd a7bc b17f 9a3d c71e 78bb 7c1c 893c
00000080: ff92 953b 676a 253d 30d7 e73d a7b2 52bc
00000090: edff c93c 9922 5c3d 3e60 57bd 6492 6d3d
000000a0: c5b5 063d 9cdc 29bd 5ae9 9d3c 82f3 27bc
000000b0: ed00 aa3c c0b8 0bbd 917d a43c 7e4d a53c
000000c0: 0487 123d b703 e3bb 22d7 b13c 19c8 d63b
000000d0: 1900 b7bd 42d7 a43d aeed 743d cd91 65bd
000000e0: c5f9 293d 9c9a 66ba afe3 923c eced ca3c
000000f0: 7dd7 b7bd 9376 fdbb 60a8 e73c dde9 163c
-0.029263517 -0.014628405 -0.00807346 -0.020510916 -0.0052163843 0.058587626 0.015028054 -0.051567554
-0.04354484 -0.032311615 0.026881894 0.031908706 0.06062841 -0.033644762 -0.046257216 -0.008394623
-0.068648994 -0.10994634 0.015316208 0.027691906 -0.0021608276 0.0372333 0.017329512 0.025985349
-0.019045277 0.04313475 0.011762853 -0.012947016 -0.020476209 0.075438865 -0.0037860142 0.016737215
0.0045646424 0.040384676 0.11320341 -0.012859977 0.024658168 0.053743932 -0.052582018 0.058000937
0.032888193 -0.041470155 0.01927631 -0.010250928 0.020752395 -0.03411174 0.020079406 0.020178553
0.035773292 -0.006927933 0.021709029 0.006554615 -0.089355655 0.0804887 0.05979698 -0.05604725
0.041497964 -0.00087968423 0.017930834 0.024771653 -0.08976648 -0.0077350824 0.02827853 0.009211031

params.core.6.weight f4 [64, 64, 3, 3]
00000000: 7066 39bc 2446 3a3b df56 86bc 36dd ce3c
00000010: 748e 2f3b 09be 223d 60d7 d43b d2bd e9ba
00000020: 28b1 6c3a b292 56bd d2d9 203c 705b 6cbb
00000030: a48a 5bbd 57fc 21bd 0ea5 6e3d eb06 c93d
00000040: 8cf4 913d 53a6 b13c 4fab 143c 0268 8c3d
00000050: de90 a03d b33a 123d c379 3a3d 02d4 9a3d
00000060: 5b46 42bd cf86 86bd a7bf 9dbb 6816 7fbb
00000070: 7b26 15bd 4a85 a63c 48df c43c eb58 c53c
00000080: 01f9 dc3c 1822 603b bef9 c9bc 6198 2dbd
00000090: 2cc6 2d3b ea7b 313d 241d a63d 4d94 8d3b
000000a0: 85d8 3cbd d20f acbc 6455 f03c 118b f5bc
000000b0: fb69 a73b 18f3 993b 3094 94bd 8e2b b8bd
000000c0: 5ef1 88bc 9cab 18bc f263 beba 9a8c 3f3c
000000d0: f02f 593d 1e54 a5ba e4e2 e1bc b5e4 c9bc
000000e0: 5ba5 7c3c c437 4abc 53c8 f03c 5cdb cc3c
000000f0: 6243 f83c b254 18bd 39c8 92bc 49e9 02bd
00000100: 329a 9ebc 13ab 4d3b be71 a73c 364d 013d
00000110: 31b5 d23c c558 6d3b 6330 02bc b24a 80bc
00000120: 3294 bfbc bd6e ae3c 59cf 25bc a065 85bd
00000130: 2291 b2bc fc70 51bd d3e1 75bd 4f6f 94bd
00000140: 6db8 ea3c 092a 10bd 7be6 a43c a9cb 113d
00000150: 9336 08bc 9466 303c d4c6 593d 5861 df3c
00000160: f7d3 16bd 6ab0 823b 1026 dd3c b713 403d
00000170: 3600 92bb d646 ab3c 6e78 663d 9a07 4c3d
00000180: ce82 91bc b63f 02bd c018 35bd 1202 f33c
00000190: 578b f33c 459b 233d 6b15 a2bb e1ea 6ebc
000001a0: 1f30 debc 272a 25bd 7aeb 633c 75f2 523b
000001b0: d6b9 143d c0bc 923c f8b9 0fbd ca2f 72bd
000001c0: 8abb 8bbd ac60 b7bc c22a 1d3d 2841 103d
000001d0: 20e3 d13c 61c7 c6bc ef89 5dbc aec7 4bbc
000001e0: e149 b9bd ea87 88bd 109b 2cbd 8fcd dd3c
000001f0: 361d 4f3d 942d b03d be91 163d 66a8 c13c
00000200: baef a53c 6f18 c9bc 0fba e3bc eb30 a13c
00000210: 6fb7 923b 525b 38bd 44e2 bf3a e0c3 febc
00000220: 8f38 873b d203 0d3c 6235 7f3c 3349 443c
00000230: 2336 563c c752 923c 465b fabc b8cf 99bc
00000240: d697 f1bb 8676 0cbc 651b 30bc 3fb6 db3c
00000250: 3b74 543d 0daf 8e3b aebd e43c a0df 13bd
00000260: 2990 39ba dd46 18be 21e6 29be 87c0 fabd
00000270: 8e5a fdbd c042 e4bd ff1a c8bd 1cae 81bd
00000280: 4cd6 49bd 05ac 80bd be89 ecbc 1e16 0e3d
00000290: 9763 2bbc 4658 adbb c603 6c3c 5aba 083c
000002a0: e92f c83b 6dfc 293d 4cbf 27bc 4702 4bbb
000002b0: 62e8 a0bc 9b99 99bd 0a58 4b3d 888b 9f3d
000002c0: 657e fb3c 4741 683d b55f 8e3c 8dd6 a8bc
000002d0: 77c5 9ebc 5f64 9d3d 68f4 793d 0ce4 9dbd
000002e0: b7ad c53c 8900 133d f444 8bbc 137c 293b
000002f0: c262 d93b 856d 1abd 1813 03bd c98e e7bb
00000300: 50b3 79bd 8eeb 83bc 822c 7abd 4621 263d
00000310: 40e5 0bbd bc3a a13c 5f20 63bb 960a b03c
00000320: 64b2 9c3c 4b32 ab3c f1db 4b3c c6de 07bd
00000330: 1a72 bf3c a966 c9bc da84 0cbc 4e58 733d
00000340: 1c34 6c3d 5c95 4b3c 53a1 b5bc 0f91 b6bc
00000350: 1442 8abc e6db 8bbb d88e 893d 9ebf b43d
00000360: 754a b83c 7ceb c2b9 b105 5fbd 5500 73bc
00000370: 86af 9cbd 6cce 333a 592d f63b 7f79 e93c
00000380: f1d4 d33b a434 973c 9f34 803d 1354 263d
00000390: 21d7 c93c f6e2 433d d212 2cbc e898 f53c
000003a0: a4c6 84bb e60a e3bb 089a c93c 810e 803c
000003b0: f08f 16ba 148f 93bc 25ca 90bb ce7d 06bd
000003c0: 44a1 d93c 7c73 cb3a 1635 edbc 0eda 903c
000003d0: 573b cfbc ffca adbc e1f6 933d 8ee9 383d
000003e0: 1567 4fbc b3aa 75bd 6a75 873b 9f8a 82bd
000003f0: eee7 793a 32e4 8ebb 899d cebd f330 d3bd
-0.011315927 0.0028423155 -0.016398845 0.025251966 0.002678779 0.039732013 0.0064954013 -0.001783306
0.0009029084 -0.052385993 0.009817557 -0.0036065243 -0.053599015 -0.03954729 0.058262877 0.098157726
0.07126722 0.021685755 0.009074046 0.068557754 0.07840131 0.03570051 0.045526277 0.075599685
-0.047430377 -0.065686814 -0.0048141065 -0.0038923267 -0.03641365 0.020327229 0.02403225 0.024090251
0.026974203 0.003420001 -0.02465522 -0.042381648 0.0026515825 0.043331064 0.08111027 0.0043206573
-0.046104927 -0.021003637 0.029337592 -0.029973539 0.0051090694 0.0046981685 -0.07254827 -0.089926824
-0.016716655 -0.009318259 -0.0014525636 0.011691237 0.053024232 -0.001261357 -0.02757401 -0.024645189
0.015420283 -0.012342397 0.029392397 0.025006942 0.030305568 -0.037190147 -0.01791774 -0.03196076
-0.019360635 0.0031382486 0.020439979 0.031567775 0.025721164 0.003621624 -0.007946107 -0.015660618
-0.023386095 0.021293039 -0.010120236 -0.06513524 -0.02179772 -0.05113314 -0.060029816 -0.07247793
0.028652394 -0.035196338 0.020129433 0.035594616 -0.008313793 0.010766644 0.053168133 0.027268097
-0.03682324 0.0039883154 0.026995689 0.0468938 -0.0044555916 0.0209078 0.056267194 0.049811937
-0.017762568 -0.03179904 -0.044213057 0.029664073 0.029729528 0.039943 -0.004946401 -0.014582367
-0.027122555 -0.040323403 0.013911122 0.0032187973 0.03631004 0.017912269 -0.035089463 -0.059127606
-0.068228796 -0.022384964 0.038370855 0.035218388 0.025620997 -0.024264993 -0.013521655 -0.012437744
-0.090472944 -0.066665486 -0.042140067 0.027075557 0.050564967 0.08602443 0.036760084 0.023639869
0.020255912 -0.024547784 -0.02779868 0.019676646 0.0044774334 -0.045008965 0.0014639576 -0.03109926
0.0041266154 0.008606868 0.015576692 0.011980343 0.013074431 0.017861737 -0.0305611 -0.018775806
-0.0073728366 -0.00857318 -0.010748719 0.0268203 0.05186866 0.004354364 0.027922478 -0.036101937
-0.00070786715 -0.14870782 -0.16591693 -0.12243753 -0.123707876 -0.11145544 -0.09770774 -0.06332037
-0.049276635 -0.0628281 -0.028874274 0.03468906 -0.010460756 -0.005290064 0.0144051965 0.008345211
0.006109227 0.041500498 -0.01023848 -0.00309767 -0.019642059 -0.07500001 0.049644507 0.07790285
0.030699918 0.05670288 0.017379621 -0.020610118 -0.019381268 0.0768516 0.0610241 -0.07709512
0.024130685 0.035889182 -0.017000653 0.0025861308 0.0066340873 -0.037702102 -0.03200063 -0.007066582
-0.06096202 -0.016103532 -0.061077602 0.040559076 -0.034154177 0.019681327 -0.0034656746 0.021489423
0.019128032 0.020898005 0.012442575 -0.033171438 0.023369838 -0.024585085 -0.008576596 0.059410386
0.057666883 0.012425747 -0.022171652 -0.022285966 -0.016877212 -0.0042681573 0.067166984 0.088256106
0.022496441 -0.00037178013 -0.054448787 -0.014831622 -0.07650666 0.00068590674 0.00751273 0.028500317
0.0064645936 0.018457718 0.06260037 0.040607523 0.024638714 0.04782387 -0.010502534 0.029980138
-0.004052 -0.0069287894 0.02460958 0.015631916 -0.0005743494 -0.01801256 -0.0044186288 -0.03283482
0.026566155 0.0015522088 -0.028955977 0.017682102 -0.02529685 -0.02121496 0.07224823 0.04514461
-0.012658854 -0.059977245 0.00413387 -0.06374096 0.00095331564 -0.004360699 -0.10088641 -0.10312071

params.core.6.bias f4 [64]
00000000: 7eb2 253d 509a 7dbd 9c44 dabc 8c61 09bd
00000010: 2ca3 c9bc c0a7 053d 4c7d 22bd 81ec f8bc
00000020: cae1 88bc 6cfc 593d d0c4 abbb b57b 3e3d
00000030: 293a 6e3d 2d53 86b8 3533 893d be1c c7bc
00000040: fde7 4abd 7d4b a83b 7116 42bd 2397 083d
00000050: 3534 1b3d 1728 1b3d 5ae5 46bd 46df 9ebc
00000060: 349c c13c 9bb0 803c ff82 24bc dcc4 32bd
00000070: e41b 96bd 8e5a b7bc f24b 77bc bd5a 4fbc
00000080: 8331 61bd 9355 03bd 0cdf 7bbd be22 613d
00000090: c17d f4bc 8e28 c03c 6868 8fbc 0bd2 723d
000000a0: 3342 5fbd 8788 003d 49f5 213d 007e e6bc
000000b0: 8133 5c3d 4300 423c 478b 41bd dc11 e13c
000000c0: 4809 26bd 6b75 95bd 1364 0a3d 564f 5d3c
000000d0: b10c 2fbc 394d 15bd d3bb 123c bc10 3cbd
000000e0: 48f8 5a3c 3837 71bc 246f 94bc 8d0c 783d
000000f0: aa2d bf3a 7ff0 04bc 0353 843c 174b 91bc
0.040453427 -0.061914742 -0.026644044 -0.033540294 -0.02461394 0.032630682 -0.039670274 -0.030386211
-0.016709227 0.053219244 -0.0052419677 0.046504695 0.058160935 -6.4051106e-05 0.0669922 -0.024305698
-0.049537648 0.005135952 -0.047384683 0.03334726 0.037891585 0.03788003 -0.04855857 -0.019393574
0.023634054 0.015709212 -0.0100409975 -0.04364477 -0.073295385 -0.022382047 -0.01509379 -0.012655911
-0.05497886 -0.03206403 -0.06149201 0.054964773 -0.02984512 0.023456838 -0.01750584 0.059282344
-0.054506492 0.031380203 0.039540563 -0.028136253 0.053760055 0.011840883 -0.047251966 0.027474336
-0.040536195 -0.07297786 0.033786844 0.013507685 -0.010684178 -0.0364506 0.008955914 -0.045914397
0.013364859 -0.014722638 -0.018119402 0.060558844 0.0014585753 -0.008113979 0.016152864 -0.017736001

params.core.8.weight f4 [64, 64, 3, 3]
00000000: 9602 803d 5534 ddbc d551 ca3c 54c6 9b3d
00000010: 7dbe 383d a67a 72bd 05b4 2f3a 66f9 03bd
00000020: 84ff b9bd b5dc 34bb 4f97 81bc 5a32 b7bc
00000030: 2d28 67b8 2748 6bbc 78d0 98bd ff15 dc3b
00000040: b4b3 ddbb 23e1 873d 9b71 b43c 94e7 ff3b
00000050: c731 d8bc 0a70 043d a481 b83c 01d0 a6bc
00000060: 79ec a53c b212 103d c6d0 55bc 42ec 2ebd
00000070: 9309 40bc f129 163d c3eb d4ba 1f2d 3239
00000080: f4a0 e83a 8fa4 a63b b81d 8c3c ccf1 0e3d
00000090: 02f6 a13c 2c4f 343d a2f8 603c d383 56bd
000000a0: 38b6 533c 3990 da3c c208 cc3d d221 4f3d
000000b0: 1947 353d 8e6b bcbc 859c 0a3c d999 28bb
000000c0: d20b e7bc ecaa 093d 2aeb 1bbd 87b3 bcbc
000000d0: d494 8b3d d76a b73c 9509 fabd b349 70bd
000000e0: 1307 4c3d 2c11 253d 4d28 20bd fd02 a13c
000000f0: 4e33 eebd c767 e8bc 5f8c 433d 09f3 c33a
00000100: b687 26bd 379c a33d ecee 8d3d 5def 043d
00000110: e5a9 883d 7d38 1fbc 4d4a d83b 8016 413c
00000120: 46ea 783c 5fa5 c73b 6441 6a3d 3288 1b3d
00000130: 2cc4 6a3d 9b8c 873d 40b7 80bd 6410 bfbd
00000140: 681c 3dbe fbf9 d3bc 7b13 5ebc 4655 63bd
00000150: 56c4 993c 634b 1e3b c6cc b2bd f41d 123d
00000160: 009e 93bc c3b5 c1bb 9347 2bbc c17f 513c
00000170: 71b5 70bc d72a f33c cdb9 783d a7e5 ce3c
00000180: 7428 2a3b 5edb 343a c663 d3bc f5f5 0e3d
00000190: c345 e93c 2cf9 0d3d dbd1 32bd 7ca5 1ebd
000001a0: 20fd c13c 8084 3a38 fccc 0e3d 376f 0b3d
000001b0: 1f1a 6dbd 02ca 3abc 0943 ae3b adb4 6e3c
000001c0: 1ce8 133d 3dbb 6e3d d458 e5bb 3f71 b4bc
000001d0: ed25 e0bd 2be0 acbc 689a 23bd 6847 0cbd
000001e0: 4803 6ebd b1a4 513c aa42 3d3d a6c1 ecbc
000001f0: edd0 363d d9d3 1fbd 33b3 efbb 3f9c 213d
00000200: ded4 6bbc b62e 043d caec 82bb 271a e6bc
00000210: 79a1 6dbc 086d 443d 9b91 193c d231 95bc
00000220: 7674 17bd c002 91bc 135f 683c 70f5 f33b
00000230: 7e7d 5ebc ffc5 173d 73a7 fdbc 74be 25bc
00000240: 7d1a e5ba e3eb 453d da65 0cbc fece 413d
00000250: 856a 963d d3a9 123c bd67 7cbd d537 13be
00000260: 7a7a 89bd aeb1 d83c 2066 2ebc c028 9cbd
00000270: 4ed6 063d 4e27 f83c 5fec 1b3d c343 68bd
00000280: 12bf 76bb 6af1 acbd 3b7b 233c ed33 e4bc
00000290: ff43 153d dfb8 d5bc c55b b73c 8f41 823b
000002a0: f57e 8f3b 0a17 25bd 91b5 d6bc 0e2b 28bd
000002b0: 274b 24bd 7723 36b9 1782 25bd 3221 403d
000002c0: eea8 a6bb 6b9b d4bc 7eba 8d3a d045 a4bb
000002d0: 8622 8f3d 2462 5cbd 54d8 093d c2de 313d
000002e0: 309e 43bc 4c93 adba 38a3 ae3d a2f3 fcbd
000002f0: 45d3 0dbd f049 93bc a8a9 173c 762e 6e3d
00000300: ced5 14bd 03c6 263d 12fe e73b 72a3 3cbd
00000310: 51d1 4bbc 97e1 f7bc 7eee 933d 60b7 983d
00000320: e53a 5f3b df91 1cbc 75a1 2abd 0d9a 0cbd
00000330: 29e3 b63d 355a c43c 74c2 d2bb 234b 393d
00000340: 1b13 0b3d e187 c8bc 486a 073c 2b75 c33b
00000350: 97cb caba dbef 8dbb 0eeb 8f3b 28de 953d
00000360: 167a 0e3d 49ae 623c fcc8 c23a cf67 8fbc
00000370: c3eb 383b c72f b1bb 32d4 0fbd bcda a43c
00000380: 1277 d1bd 3340 bd39 a794 2b3c 5028 cebc
00000390: f9f2 b43b f946 d9ba d028 aabc dab8 57bd
000003a0: 7b68 e0b9 8aa6 87bd cc56 923a c73a 853c
000003b0: ed76 76bc e487 d5bb ef42 293d b534 0bbd
000003c0: 0097 6fbd 86a0 6e3d 4b26 cabc f63d 093d
000003d0: c4e6 eabc a9c3 2ebc 8b2b 98bb 2848 283d
000003e0: f68a d83c 79ff 163d b77a 10bd beee f63c
000003f0: b508 79bd f54f 7fbc b2dd b33c 21cb 1cbd
0.06250493 -0.027002493 0.024697224 0.076061875 0.04510354 -0.059198998 0.0006702545 -0.032220267
-0.09081939 -0.0027597372 -0.01581922 -0.022362877 -5.511211e-05 -0.014360464 -0.07461637 0.0067164893
-0.006765807 0.06634738 0.022026828 0.0078095887 -0.026390923 0.03233341 0.022522755 -0.020362856
0.02025436 0.03517408 -0.013050264 -0.04270578 -0.011721033 0.036661092 -0.0016244579 0.00016992212
0.0017748163 0.005085535 0.017104015 0.034898564 0.019770626 0.044020817 0.013731154 -0.05237181
0.012921862 0.026680099 0.09962608 0.050569363 0.044257257 -0.023000505 0.008460169 -0.0025726466
-0.028203879 0.03361027 -0.038066067 -0.023034824 0.06815496 0.022389812 -0.12208859 -0.058664035
0.049811434 0.04029958 -0.039100934 0.019654745 -0.11630879 -0.028369797 0.04774129 0.001494975
-0.040656768 0.0798878 0.06930336 0.032454837 0.0667303 -0.009718058 0.006600654 0.01178515
0.015192574 0.006092712 0.057191268 0.037971683 0.05731599 0.06618615 -0.06284952 -0.09329298
-0.18467867 -0.025876036 -0.013554449 -0.055501245 0.018770378 0.002415382 -0.08730464 0.035673097
-0.018019676 -0.0059115603 -0.010454076 0.012786807 -0.0146916965 0.029683514 0.06072407 0.025255991
0.0025964053 0.00068991433 -0.025804412 0.03490253 0.028475648 0.034661457 -0.043657165 -0.038732037
0.02368027 4.4469256e-05 0.034863457 0.03404161 -0.05788624 -0.0114007015 0.00531805 0.014569444
0.03611003 0.058284033 -0.0069991145 -0.022026656 -0.10944734 -0.021102985 -0.039942175 -0.034247786
-0.058108598 0.012795613 0.046206154 -0.028900933 0.04463284 -0.039020393 -0.0073150634 0.03945565
-0.014394013 0.03227111 -0.0039955126 -0.028088642 -0.01450383 0.047955543 0.009373094 -0.018212233
-0.0369763 -0.017701507 0.014182824 0.00744503 -0.013579724 0.03705406 -0.030963635 -0.010116208
-0.0017479208 0.048320662 -0.008569205 0.047316544 0.07344536 0.008951622 -0.06162237 -0.14376767
-0.06712814 0.026451912 -0.010644466 -0.0762496 0.03291922 0.03029218 0.038067218 -0.056705248
-0.0037650508 -0.084444836 0.009978111 -0.027856791 0.0364418 -0.02608913 0.022382626 0.0039751003
0.004379148 -0.040305175 -0.026209624 -0.041056685 -0.040110733 -0.00017370084 -0.040407266 0.046906658
-0.005086056 -0.025953015 0.0010813025 -0.005013205 0.06989007 -0.05380453 0.033653572 0.04342533
-0.01193957 -0.001324275 0.08527225 -0.12351157 -0.03462531 -0.017979592 0.009256758 0.058149777
-0.036336713 0.040716182 0.007079848 -0.04605431 -0.012440042 -0.030258937 0.07223223 0.07456851
0.0034062203 -0.009556263 -0.041657884 -0.0343266 0.08930046 0.023968795 -0.006431872 0.04523767
0.033953767 -0.024478855 0.0082650855 0.0059648952 -0.0015472051 -0.0043315715 0.0043920344 0.073177636
0.0347844 0.013835498 0.0014860923 -0.017505554 0.0028216697 -0.005407307 -0.035114475 0.020123832
-0.10227789 0.0003609672 0.010472453 -0.025165707 0.0055221287 -0.0016576938 -0.020771414 -0.052666523
-0.00042802453 -0.06623562 0.0011164784 0.016263379 -0.015043003 -0.0065164436 0.0413236 -0.033985812
-0.058493614 0.058258556 -0.024676463 0.033506356 -0.02867449 -0.010666766 -0.0046438626 0.04108444
0.02643345 0.03686473 -0.03527328 0.030143138 -0.06079932 -0.015583028 0.021956299 -0.038279656

params.core.8.bias f4 [64]
00000000: ac13 c23c 9622 28bc 0004 18bd 19ee d03c
00000010: ea50 ef3c 37f8 b5bc 920b 1fbd 27b6 b0bc
00000020: 1a94 923c 3ac0 2cbd f798 4cbd 6310 62bd
00000030: fc48 6c3d ea18 15bd bb76 96bc e6ed 6e3d
00000040: 1ba7 513d 6788 113d 63f5 693d c54a a6bc
00000050: 603e 043c 20a7 b03c 8bbf 183d bf38 e23c
00000060: 0fbe 7b3b 6c61 0ebd 20d7 4fbd 4536 673c
00000070: 83d1 9dbd a351 1a3d 8275 5c3c fc12 683c
00000080: 7b52 36bd 7ea4 30bc f17c 943c a8cb df3c
00000090: c717 e6ba bece ffbc eafd cc3c 70d8 413d
000000a0: 53d1 04bd e653 26bd 6dcc c03b 436f 423d
000000b0: 38e8 04bd 295c ab3c fdca 993d 1482 e4bc
000000c0: 2d6d eabc 0362 313d 9c89 3dbd b156 e0bb
000000d0: 0210 b7bc 0926 883c 286c 29bd 3dc4 3b3d
000000e0: 50b4 45bd 055c bbbc c87b 10bd 3e62 2d3c
000000f0: 6343 c2bc 3ff6 07bc 465a 8f3d 7d15 823c
0.02369102 -0.010262152 -0.03711319 0.025504159 0.029213388 -0.022213085 -0.038829394 -0.021571232
0.017892886 -0.04217551 -0.049950566 -0.05519141 0.05768679 -0.036400713 -0.018367162 0.058332346
0.051184755 0.035530474 0.057118785 -0.020299325 0.008071512 0.021564066 0.037292045 0.02761495
0.0038412844 -0.034760877 -0.05074227 0.01411206 -0.07705977 0.03767551 0.01345575 0.0141646825
-0.044512253 -0.0107814055 0.018125983 0.02731879 -0.0017554694 -0.031226512 0.02502342 0.04732555
-0.03242619 -0.040607356 0.0058837445 0.04746939 -0.032448024 0.020917969 0.0750942 -0.027894057
-0.028616512 0.043306362 -0.046273813 -0.006846272 -0.0223465 0.0166197 -0.04136291 0.045841444
-0.048267663 -0.022871027 -0.035274297 0.010582505 -0.023713773 -0.008298456 0.0699964 0.015879387
