models/prior_scale/0.5/prob_model.pth (torch, 851234 bytes, 18 tensors)

params.in_layer.0.weight f4 [32, 3, 3, 3]
0	0x3cd8a177	0.02644418
1	0x3d1c6437	0.03818151
2	0x3e2e7574	0.17036992
3	0xbe2efc2e	-0.17088386
4	0xbe07d5e8	-0.13265193
5	0xbe184f94	-0.14874107
6	0xbe276326	-0.16346416
7	0x3dac3451	0.08408416
8	0xbdf7556f	-0.12076842
9	0x3d8e9218	0.06961459
10	0xbd2b7ba2	-0.041865952
11	0x3e1fd350	0.15607953
12	0xbd6aae63	-0.057295214
13	0xbc438d1c	-0.011935499
14	0xbe28b067	-0.16473542
15	0xbd8f21b4	-0.0698885
16	0xbe4a8cb8	-0.19780242
17	0xbdb2a9ec	-0.08723816
18	0xbe16bc78	-0.14720333
19	0x3e16be67	0.1472107
20	0x3e446eaa	0.1918284
21	0x3e03b403	0.12861638
22	0x3c0cb7fa	0.008588785
23	0x3c74b0cd	0.014934731
24	0x3d9f9f5c	0.07794067
25	0xbcd89903	-0.02644015
26	0xbda858d7	-0.0822007
27	0xbe3f412e	-0.18677208
28	0xbc8191ac	-0.015816532
29	0x3d8e0a36	0.06935541
30	0x3de753d6	0.11295287
31	0x3d8023de	0.06256841
32	0x3deb728e	0.11496459
33	0xbd72c98c	-0.05927424
34	0x3ca2dabc	0.019879691
35	0x3d9022fe	0.07037924
36	0xbe026dda	-0.12737218
37	0xbd595c54	-0.053066567
38	0xbe372869	-0.17886509
39	0x3cc3cbd0	0.023900896
40	0xbe3c7016	-0.18402132
41	0xbd54c054	-0.05194123
42	0xbe1bf88f	-0.15231536
43	0x3d3a6bcc	0.04551296
44	0xbdbb1756	-0.0913531
45	0x3cfc94f8	0.030832753
46	0xbe375034	-0.17901689
47	0xbe22d7de	-0.1590266
48	0x3d9e2dee	0.07723604
49	0xbd2b9a70	-0.04189533
50	0xbdb0bf27	-0.086302094
51	0xbe05ccc6	-0.13066396
52	0xbc991c44	-0.018690236
53	0x3cea68a0	0.028614342
54	0x3e710fdd	0.23541208
55	0xbe13b34b	-0.14423864
56	0xbdd75aa2	-0.10515334
57	0x3c5d4262	0.013504596
58	0xbe27f994	-0.164038
59	0xbdbec5c3	-0.09315064
60	0x3d1e2f1b	0.038619142
61	0xbe076c8c	-0.13225001
62	0xbd990b05	-0.07472805
63	0x3e165751	0.14681746
64	0xbe355d71	-0.17711426
65	0x3e28accd	0.16472168
66	0x3e17ce9d	0.1482491
67	0xbd6c220d	-0.05764966
68	0x3de0e2a2	0.10980727
69	0x3e1cf28c	0.153269
70	0xbe19b659	-0.15010966
71	0x3da8a628	0.08234817
72	0xbca666ee	-0.020312753
73	0xbdf9e07d	-0.12201021
74	0xbdda0010	-0.10644543
75	0xbd9199d0	-0.071094155
76	0xbdc4e028	-0.09613067
77	0x3dac9149	0.084261484
78	0xbd984ce8	-0.07436544
79	0xbc2bd007	-0.010486609
80	0x3cba6a6f	0.02275583
81	0xbd87b20b	-0.06625756
82	0xbe03b5d2	-0.12862328
83	0x3e2da9b4	0.16959268
84	0x3d11dfde	0.035613887
85	0xbe7554df	-0.23958157
86	0x3d28c251	0.04120094
87	0x3e5f3450	0.217973
88	0xbded0ce7	-0.115747266
89	0x3e0114b4	0.12605554
90	0x3de85585	0.113444366
91	0x3d9c5d7b	0.076350175
92	0x3d9595d0	0.07303965
93	0x3e187055	0.14886601
94	0xbe265831	-0.1624458
95	0xbe2adf19	-0.16686668
96	0xbc777f02	-0.015105965
97	0xbe4baff7	-0.19891344
98	0xbd9da5ce	-0.0769764
99	0x3dc08767	0.09400826
100	0x3d85ccb7	0.06533187
101	0x3df28255	0.11841265
102	0xbd9be827	-0.07612639
103	0x3e1d8d4e	0.15385935
104	0x3defc6b2	0.1170782
105	0xbe40f5d4	-0.18843776
106	0xbd9f7cdf	-0.07787489
107	0xbd96787b	-0.073471986
108	0x3dd942ef	0.1060847
109	0x3df03624	0.117290765
110	0x3e1d03bf	0.1533346
111	0xbe214afb	-0.15751259
112	0xbe0af11b	-0.13568537
113	0x3e5664a3	0.20936827
114	0xbc945ca6	-0.018110584
115	0x3e1ff072	0.15619066
116	0xbceb2e56	-0.028708618
117	0xbb3beaa0	-0.0028673783
118	0xbe22a3c5	-0.15882786
119	0xbe339285	-0.17536362
120	0x3dd8c279	0.10583968
121	0xbe2dfc77	-0.16990839
122	0x3deb6fad	0.1149591
123	0x3dc89517	0.09794062
124	0xbe26fd49	-0.16307558
125	0xbe490447	-0.19630538
126	0x3d218952	0.0394376
127	0x3e392e46	0.18084058
128	0x3e3b218e	0.18274519
129	0x3b7939f9	0.003802894
130	0x3e253891	0.1613486
131	0xbe0283d6	-0.12745604
132	0x3e02590d	0.12729283
133	0xbe07308d	-0.13202114
134	0xbdd8f718	-0.105940044
135	0xbe1e7ecd	-0.15478058
136	0xbdf65914	-0.12028709
137	0xbd537bec	-0.051631853
138	0xbd9292b6	-0.07156889
139	0x3cefaf18	0.029258296
140	0x3de9fb62	0.114249006
141	0xbda60198	-0.08105773
142	0xbd04ba0c	-0.03240399
143	0x3cfd0bc0	0.030889392
144	0x3cec8cf8	0.028875813
145	0x3db252aa	0.08707173
146	0x3e00a5b9	0.12563218
147	0xbe3f6eb2	-0.1869457
148	0xbdebf007	-0.11520391
149	0x3e37c869	0.17947544
150	0x3d3c325c	0.045946464
151	0xbd79cf48	-0.060988694
152	0x3d5ff900	0.054680824
153	0xbce71c00	-0.028211594
154	0xbe1cdb00	-0.15317917
155	0xbe1a1730	-0.15047908
156	0xbcc4adc8	-0.024008647
157	0xbd32160c	-0.043478057
158	0xbe1a9f2f	-0.15099786
159	0x3d6a534c	0.057208344
160	0xbca87a04	-0.020565994
161	0x3db13eca	0.08654554
162	0x3e019771	0.12655427
163	0x3e7aafeb	0.2448117
164	0x3e27ac59	0.16374339
165	0x3d234303	0.03985883
166	0xbd906729	-0.07050926
167	0x3c33124c	0.010929655
168	0xbe42030e	-0.18946478
169	0xbe4566de	-0.19277522
170	0xbd8b2533	-0.067942046
171	0x3de949f5	0.11391059
172	0x3d34c970	0.04413742
173	0x3c3861f6	0.011253824
174	0xbd5e8c9e	-0.05433332
175	0x3da03ae9	0.07823736
176	0xbe0ee93f	-0.13956164
177	0x3c8ac1e3	0.016938156
178	0x3dde0720	0.10841203
179	0xbe5349bb	-0.20633595
180	0x3dfb5b02	0.12273218
181	0x3def0d3f	0.11672448
182	0xbe194ef9	-0.14971532
183	0x3c798bea	0.015231112
184	0x3e0a32fa	0.13496009
185	0x3d9fd31b	0.07803937
186	0x3cd4e59b	0.02598839
187	0x3e26abe4	0.16276509
188	0x3da2edd0	0.079555154
189	0x3e209461	0.15681602
190	0x3e47e759	0.19521846
191	0xbe111452	-0.14167908
192	0x3da2f17f	0.07956218
193	0xbdd5dc93	-0.10442462
194	0x3da090eb	0.07840141
195	0x3e0c0280	0.13672829
196	0xbdfaa8cc	-0.12239227
197	0x3e354adc	0.17704338
198	0xbd9c18fa	-0.076219514
199	0xbd726ea0	-0.05918753
200	0x3d9bde6e	0.076107845
201	0x3e622048	0.22082627
202	0x3c9265a3	0.01787073
203	0x3e153dd0	0.14574361
204	0xbdfd9b64	-0.12383154
205	0xbe208e1a	-0.15679207
206	0xbc713050	-0.014720991
207	0xbccc99f3	-0.024975752
208	0xbe05ac8b	-0.13054101
209	0xbcb6ab2c	-0.022298418
210	0x3ba86faa	0.0051402645
211	0x3cd9c29f	0.02658206
212	0xbbe06642	-0.0068481276
213	0x3d895e67	0.06707459
214	0xbd431c0a	-0.047634162
215	0x3d3fa049	0.04678372
216	0xbdf10948	-0.117693484
217	0xbd6d5d43	-0.05795027
218	0x3e5a01f1	0.21289803
219	0xbe33fcec	-0.17576951
220	0xbe2b07a1	-0.16702129
221	0xbd5061ea	-0.050874628
222	0xbdf03584	-0.11728957
223	0xbe54a5ce	-0.20766374
224	0x3e2b2d01	0.16716386
225	0x3d08d69a	0.033407785
226	0x3d8e93d8	0.06961793
227	0x3ddeb493	0.108742855
228	0xbe1f6aa5	-0.15568025
229	0xbd729128	-0.059220463
230	0xbcabb164	-0.02095861
231	0xbcd6fead	-0.026244486
232	0xbd536e05	-0.051618595
233	0xbdc91852	-0.09819092
234	0x3e08bd8d	0.13353558
235	0x3e15b60a	0.14620224
236	0xbd2cb4a2	-0.042164452
237	0x3d9c866a	0.07642825
238	0x3cc64b86	0.024205934
239	0x3c80722a	0.015679438
240	0x3d8f0949	0.06984193
241	0x3d1fde3e	0.039030306
242	0xbced4e46	-0.028967988
243	0x3dba6fc2	0.09103347
244	0x3e4ea0f4	0.20178586
245	0xbdfdfcd2	-0.12401737
246	0xbdf1c915	-0.118059315
247	0x3bf8a8e4	0.0075884927
248	0x3d667f69	0.05627385
249	0xbe172811	-0.14761378
250	0xbd901204	-0.07034686
251	0xbcd1b465	-0.025598714
252	0x3dae5ca2	0.08513762
253	0x3ba17b8c	0.004928058
254	0x3d1a5b9f	0.037685033
255	0x3e000f8b	0.12505929

params.in_layer.0.bias f4 [32]
0	0x3e28ad05	0.16472252
1	0x3da49946	0.08037047
2	0xbc8500a2	-0.016235653
3	0x3d8f347c	0.069924325
4	0x3df904ea	0.121591404
5	0xbe0ff1d2	-0.14057091
6	0xbe1044e3	-0.14088778
7	0xbd0068e9	-0.03135005
8	0xbc2a99da	-0.010412658
9	0xbe2a981a	-0.16659585
10	0x3d0eeab4	0.0348918
11	0xbdfbfed9	-0.12304468
12	0x3d2e6585	0.042577285
13	0xbe0d31c2	-0.13788512
14	0x3da8281a	0.08210774
15	0xbcdecd30	-0.02719745
16	0x3dca817e	0.0988798
17	0x3d21f27c	0.03953789
18	0x3cead8a5	0.028667757
19	0xbdbaac47	-0.091148905
20	0xbdea0328	-0.11426383
21	0x3e0db6be	0.13839242
22	0x3dbff837	0.09373515
23	0xbdd4b52d	-0.10386119
24	0xbdd0dfed	-0.101989605
25	0x3d7081e3	0.05871762
26	0x3e2763cc	0.16346663
27	0x3e0bbb83	0.13645749
28	0xbd1a865c	-0.03772579
29	0x3e171211	0.14752986
30	0x3d658cf8	0.05604264
31	0xbe3227d5	-0.17398007

params.core.0.weight f4 [32, 32, 3, 3]
0	0xbbe24397	-0.00690503
1	0x3be1c21b	0.0068895943
2	0x3c162e06	0.009166246
3	0xbc876acb	-0.016530415
4	0xbd931368	-0.07181436
5	0xbd819302	-0.06326868
6	0x3d05d5f2	0.032674737
7	0xbd23da80	-0.0400033
8	0xbd9b6597	-0.07587736
9	0x3d32f6c7	0.043692376
10	0xbd2218a8	-0.039574295
11	0xbca25f0c	-0.019820713
12	0xbb9f57e4	-0.0048627723
13	0x3d3cdc7d	0.04610871
14	0xbcff20a4	-0.031143494
15	0xbd41d124	-0.047318593
16	0xbd61244a	-0.05496625
17	0x3b32ef54	0.0027303295
18	0x3e00bb1b	0.12571375
19	0x3dfd1194	0.123568684
20	0x3d9f448d	0.07776747
21	0x3e26e600	0.16298676
22	0x3e3880b0	0.1801784
23	0x3e3184a9	0.17335762
24	0x3e40d5bb	0.18831532
25	0x3d8b2898	0.06794852
26	0x3dcac469	0.099007435
27	0x3dba8d22	0.0910895
28	0x3e0843bc	0.13307089
29	0x3d95635a	0.072943404
30	0x3dcceafe	0.10005759
31	0x3dbcce2f	0.09219014
32	0x3b58e9ac	0.0033098264
33	0x3d475fb7	0.048675265
34	0xbc64680e	-0.013940824
35	0x3d72b058	0.059250206
36	0xbce1d6e8	-0.027568296
37	0xbd941617	-0.07230776
38	0xbd76b5fc	-0.060232148
39	0xbc86bc32	-0.01644716
40	0x3d0117d4	0.031516865
41	0xbd877c53	-0.0661551
42	0x3c26239f	0.010140329
43	0x3ac6e99b	0.0015175821
44	0xbc0129c0	-0.007883489
45	0x3c144b80	0.009051204
46	0xbc025694	-0.007955212
47	0x3d6e4acd	0.058176804
48	0xbd047bc4	-0.032344595
49	0x3d549e65	0.05190887
50	0x3d12eb6d	0.03586905
51	0x3bc4e670	0.0060089156
52	0xbb500f88	-0.0031747539
53	0x3d4efad7	0.05053219
54	0xbcc71dd0	-0.024306208
55	0xbd0e007c	-0.03466843
56	0x3cb105cc	0.02160921
57	0xbbd46996	-0.0064823134
58	0xbd4a1229	-0.049333725
59	0xbc978a1c	-0.018498473
60	0xbcd792f4	-0.02631519
61	0xbd46c465	-0.04852714
62	0xbd8a4def	-0.06753146
63	0x3b415915	0.002950256
64	0x3d886014	0.066589504
65	0x3db4be71	0.08825386
66	0x3cd54049	0.02603163
67	0xbbb07f22	-0.005386249
68	0x3dc77c55	0.09740511
69	0x3d84a19c	0.06476137
70	0x3b215fda	0.0024623782
71	0x3d79630b	0.06088547
72	0xbc251c94	-0.010077614
73	0xbc078a38	-0.0082727
74	0x3cb07a77	0.02154277
75	0x3c247053	0.010036546
76	0x3cca7963	0.024716085
77	0x3d27a773	0.040931176
78	0xbda06912	-0.078325406
79	0xbaf541de	-0.0018711647
80	0xbccc502b	-0.02494057
81	0x3d4612f6	0.048357926
82	0xbd2bc12d	-0.041932274
83	0x3d679431	0.05653781
84	0x3d4b5a99	0.049646948
85	0x3d8433c8	0.06455189
86	0x3d96be58	0.07360524
87	0xbcbb1c7c	-0.02284073
88	0x3d40412e	0.04693716
89	0x3de0b2eb	0.10971626
90	0x3c08e271	0.008354769
91	0xbc3cff3d	-0.011535463
92	0xbd8f5eaf	-0.07000481
93	0xbd5ba280	-0.05362177
94	0xbd954807	-0.07289129
95	0x3bcd1f47	0.006259832
96	0xbcbe5323	-0.023233002
97	0xbdc42a15	-0.09578339
98	0xbdd05a50	-0.10173476
99	0xbd075498	-0.03303966
100	0x3cd44be6	0.025915097
101	0xbcc31890	-0.023815423
102	0xbd0c5333	-0.034259032
103	0xbcd02796	-0.025409501
104	0x3d4f9f5d	0.05068909
105	0x3d1e648d	0.03867011
106	0xbd2aca82	-0.041697033
107	0x3d440f15	0.047865946
108	0xbc12b5ca	-0.008954475
109	0xbd657d83	-0.0560279
110	0xbcb67f13	-0.02227739
111	0xbcf773af	-0.03020653
112	0xbbdb49e1	-0.0066921567
113	0xbb04116c	-0.0020151986
114	0x3e14f6e8	0.14547312
115	0x3dd5d4ea	0.10441001
116	0x3e30d3cb	0.17268293
117	0xbc9e0d44	-0.019293435
118	0x3d096791	0.033546034
119	0xbc740c34	-0.014895488
120	0x3b8ab1ec	0.0042326357
121	0xbc4d4594	-0.012528796
122	0xbbfd6d50	-0.0077339783
123	0xbd37d3fe	-0.044879906
124	0x3d0dbdcf	0.034604844
125	0x3d2c9e9f	0.04214346
126	0x3c901c02	0.01759148
127	0x3b1544c4	0.0022776583
128	0x3cd1ce92	0.025611196
129	0x3d1df645	0.03856494
130	0x3d5b2607	0.053503063
131	0x3c5def04	0.013545755
132	0xbc36a060	-0.011146635
133	0x3d68de51	0.056852642
134	0xbd075390	-0.033038676
135	0xbc4a9590	-0.01236476
136	0x3bfc9920	0.0077086836
137	0x3bde82a0	0.006790474
138	0xbd69c720	-0.057074666
139	0x39ab2ab4	0.00032647478
140	0xbcf56ffb	-0.029960623
141	0x3d26c4cb	0.04071502
142	0x3c9d334e	0.019189503
143	0x38a029b4	7.637162e-05
144	0x3d208507	0.039189365
145	0xbd3f3dec	-0.046689913
146	0xbcfd33d9	-0.030908512
147	0xbc8d3e2e	-0.017241564
148	0x3c9dd076	0.019264441
149	0x3c97e722	0.01854283
150	0x3c95a16a	0.018265445
151	0x3c495eec	0.012290698
152	0x3c80aa9e	0.015706357
153	0x3d55ac4a	0.05216626
154	0x3cb206f1	0.021731826
155	0x3d1edaab	0.038782757
156	0xbc24ebce	-0.010065986
157	0x3d0e695c	0.034768447
158	0x3d08e9dc	0.03342615
159	0x3cb93b02	0.022611145
160	0x3bab4b5e	0.0052274903
161	0x3ac2a951	0.0014851486
162	0x3cb879a8	0.022518948
163	0x3c846536	0.016161542
164	0xbc01960c	-0.007909309
165	0x3d932e9c	0.071866244
166	0xbcb4f14d	-0.022087717
167	0x3c23e90d	0.010004294
168	0xbdc7dc3d	-0.09758804
169	0xbbe788c2	-0.0070658633
170	0xbd1338c2	-0.0359428
171	0x3bef8c4b	0.0073104254
172	0x3c2a3a67	0.010389901
173	0x3d1be672	0.038061567
174	0x3d822ac0	0.0635581
175	0x3d925b82	0.0714636
176	0x3d54eb11	0.05198199
177	0xbd180fbb	-0.037124377
178	0xba56a02f	-0.00081873214
179	0xbcb35999	-0.02189331
180	0xb9d2a658	-0.00040178257
181	0x3d1e353a	0.03862498
182	0x3de2db60	0.11076999
183	0x3d3fe629	0.046850357
184	0x3aa13119	0.0012297957
185	0xbcbd92c8	-0.02314128
186	0x3d1c530d	0.03816514
187	0x3c67e72c	0.014154237
188	0xbc52511b	-0.01283672
189	0xbc18ca7d	-0.009325621
190	0x3cb82a48	0.022481099
191	0x3ca30dc9	0.019904034
192	0x3c95eddb	0.018301895
193	0x3d60a3ef	0.05484384
194	0xbd61095f	-0.054940578
195	0x3d2afad6	0.041743122
196	0xbd716d48	-0.05894211
197	0xbc0f73a0	-0.0087555945
198	0xbc2c5727	-0.010518826
199	0xbce586cc	-0.028018378
200	0x3c9058f1	0.017620536
201	0xbb9e7e60	-0.0048368424
202	0x3d1e6df3	0.038679074
203	0xbc9d6894	-0.019214906
204	0x3d07770d	0.03307252
205	0x3c947201	0.018120768
206	0x3cf558fb	0.029949656
207	0x3ea5d8a8	0.32391858
208	0x3e7ba3a3	0.24574141
209	0x3e97cd0c	0.29648626
210	0x3dc104ed	0.09424768
211	0x3dd00d7f	0.10158824
212	0x3d3d0f79	0.046157334
213	0x3e6abc85	0.22923477
214	0x3e76deec	0.24108475
215	0x3e990ac2	0.2989102
216	0xbd0b23c8	-0.03396967
217	0x3d539458	0.051655143
218	0xbd4af769	-0.049552355
219	0x3c235166	0.009968137
220	0x3cb82be5	0.022481868
221	0xba77b773	-0.00094496383
222	0x3c5b9159	0.013401353
223	0xbd8ab046	-0.06771903
224	0x3d3354b8	0.043781966
225	0xbd31998b	-0.04335932
226	0xbd604627	-0.054754402
227	0x3d411a4d	0.047144223
228	0xbdb5477d	-0.08851526
229	0xbd974918	-0.073869884
230	0xbd0849d7	-0.033273544
231	0x3da48cee	0.08034693
232	0xba99c15f	-0.0011730603
233	0xbd208b28	-0.03919521
234	0x3c04e9ec	0.008112412
235	0xbd39a3d7	-0.045322265
236	0x3cfa7ef5	0.030578116
237	0xbb9455fe	-0.0045268526
238	0x3ccba761	0.024860086
239	0x3d51ec0a	0.051250495
240	0xbd99bfb5	-0.07507268
241	0xbdb4786f	-0.088120334
242	0xbc9c8ee8	-0.019111112
243	0x3e290182	0.16504481
244	0x3e0dcede	0.13848445
245	0x3de76959	0.1129939
246	0x3d9f9377	0.077917986
247	0x3e088ce4	0.13334996
248	0x3e05c418	0.13063085
249	0x3d446901	0.047951702
250	0x3db125ea	0.0864981
251	0xbcbefec9	-0.02331485
252	0x3e422770	0.18960357
253	0x3e592d04	0.21208578
254	0x3e498bf4	0.19682294
255	0x3e016a83	0.12638287

params.core.0.bias f4 [32]
0	0xbcfe695b	-0.031056097
1	0xbd21d87b	-0.039513092
2	0xbcbdd2ef	-0.02317187
3	0x3bf185fa	0.0073707076
4	0x3ce438b4	0.02785907
5	0x3b11fa89	0.0022274575
6	0xbcb5daae	-0.022199001
7	0x3c84524c	0.016152523
8	0xbd2afcd9	-0.04174504
9	0xbd154520	-0.036442876
10	0x3b86025c	0.0040896367
11	0xbcc1f5be	-0.02367675
12	0xbd0b2927	-0.033974793
13	0x3c3b4990	0.011431113
14	0x3cb82666	0.022479247
15	0xbd1f14aa	-0.038838066
16	0xbb8f5c73	-0.0043750345
17	0xbce211af	-0.027596323
18	0xbcd22651	-0.025653036
19	0xbd3d78ac	-0.04625766
20	0xbcf003d6	-0.029298704
21	0x39d030d4	0.0003970923
22	0xbd17c64c	-0.037054345
23	0x3c9d9744	0.019237168
24	0x3d161fed	0.03665154
25	0x3a10b2b5	0.00055197935
26	0x3cd72ac3	0.026265508
27	0xbd7b09f8	-0.061288804
28	0xbd2dff18	-0.042479604
29	0x3b9a7040	0.0047130883
30	0xbbb47005	-0.005506518
31	0x3d3a849e	0.04553663

params.core.2.weight f4 [32, 32, 3, 3]
0	0x3d4d050c	0.05005364
1	0x3ce8fd7d	0.028441185
2	0x3c61a381	0.0137718925
3	0xbccd2bac	-0.025045238
4	0xbd5a9581	-0.053365234
5	0xbd454cac	-0.048168823
6	0x3ce9981c	0.028514914
7	0xbd156cf4	-0.03648086
8	0x3d2fd967	0.04293194
9	0xbcb06e5e	-0.021537002
10	0xbc94d468	-0.01816769
11	0xbb92fa4e	-0.004485405
12	0x3d4af9c9	0.04955462
13	0x3d21183d	0.039329756
14	0xbd204a70	-0.03913349
15	0x3d53a6a1	0.05167258
16	0xbccc31e8	-0.02492614
17	0x3c9bb8a7	0.019008948
18	0xbc1eb5e0	-0.009686917
19	0x3d3c46eb	0.04596607
20	0x3e13e20b	0.14441697
21	0x3ab9549a	0.0014139593
22	0x3d79aca8	0.060955673
23	0x3d9cd4e6	0.07657795
24	0xbc3d7ed1	-0.01156588
25	0xbba91bd2	-0.005160787
26	0xbc5885d3	-0.0132155
27	0xbd582af9	-0.052775357
28	0x3c3a02d0	0.01135321
29	0x3c3cf378	0.011532657
30	0xb98f956a	-0.00027386408
31	0x3d1a2e3b	0.037641745
32	0xbc334d2d	-0.010943693
33	0x3d48721d	0.048936952
34	0x3d7a5586	0.061116718
35	0x3d3824e3	0.044957053
36	0xbd6e19bf	-0.058130022
37	0x3d1308fa	0.035897233
38	0x3c84d691	0.016215594
39	0xbd9deecc	-0.077115625
40	0xbd29f6c1	-0.04149509
41	0xbd1e0abe	-0.038584463
42	0xbd9dbadd	-0.07701657
43	0x3c6f7e80	0.014617562
44	0xbd3a854c	-0.045537278
45	0xbd67f06f	-0.05662578
46	0x3d67a6c8	0.05655554
47	0x3d188856	0.037239395
48	0xbce82a84	-0.028340586
49	0x3def5191	0.116854794
50	0x3e096ac3	0.13419633
51	0xbd9de315	-0.07709328
52	0x3df7c75d	0.120985724
53	0x3e059b59	0.13047542
54	0xbc584aa3	-0.0132013885
55	0xbcf56e90	-0.029959947
56	0xbdd34b4e	-0.103170976
57	0xbc879f4a	-0.016555447
58	0x3d935cc9	0.07195432
59	0xbc89048e	-0.016725805
60	0x3ccd00d2	0.025024805
61	0x3c90bfea	0.017669637
62	0x3ce4c0d4	0.027923979
63	0x3e68fcbc	0.2275266
64	0x3e4633d5	0.1935571
65	0x3e554761	0.2082801
66	0x3cefceb5	0.02927337
67	0xbbe62830	-0.0070238337
68	0x3d3e5f0b	0.04647736
69	0x3d98fac4	0.07469705
70	0x3e343136	0.17596897
71	0x3e1951c2	0.14972594
72	0xbe063fa9	-0.13110222
73	0x3e1e41ab	0.15454738
74	0xbdb44988	-0.088030875
75	0xbd252b14	-0.040324286
76	0x3db24033	0.08703651
77	0x3d713253	0.058885884
78	0xbd047ba1	-0.032344464
79	0x3d202cde	0.03910529
80	0x3a90620d	0.001101555
81	0x3c823b88	0.015897527
82	0xbd23a952	-0.0399564
83	0x3d5326a0	0.051550508
84	0xbd71cd37	-0.0590336
85	0xbd62625c	-0.055269584
86	0xbaeaf212	-0.0017924926
87	0xbd340b72	-0.043956228
88	0xbd882db5	-0.06649343
89	0xbba33183	-0.0049802675
90	0x3cd7e6b4	0.026355125
91	0x3c6c5260	0.014423937
92	0xbd59b26f	-0.053148683
93	0x3a8a775f	0.001056414
94	0x3dbcc05e	0.09216379
95	0x3d3f27ad	0.046668697
96	0x3cf597a0	0.029979527
97	0x3d4cbadf	0.0499829
98	0x3c703b8f	0.014662637
99	0x3c761201	0.015018941
100	0x3d86508c	0.06558332
101	0xbce92d5a	-0.028464008
102	0x3b91ecb1	0.0044532646
103	0x3cf19b5b	0.029493025
104	0x3db96ed6	0.090543434
105	0xbd30f208	-0.04319957
106	0xbbe0a873	-0.006856018
107	0x3c5a12ef	0.013310178
108	0xbcb5277c	-0.022113554
109	0xbd4335b1	-0.047658626
110	0xba59b748	-0.0008305204
111	0xbc99fb8f	-0.01879671
112	0x3c84ec6c	0.016226016
113	0xbd570d2d	-0.0525028
114	0x3be30490	0.006928034
115	0x3d0e4c45	0.034740705
116	0xbc015c2e	-0.0078955125
117	0xbc1038ef	-0.0088026365
118	0x3d502cb3	0.05082388
119	0x3d35379a	0.04424248
120	0x3bfb2482	0.007664264
121	0x3d6555e9	0.055990133
122	0xbaa157b9	-0.0012309469
123	0x3bc1c764	0.005913662
124	0xbce1d5ec	-0.027567826
125	0xbd03c5ad	-0.03217094
126	0xbc586a70	-0.01320897
127	0xbd45c12d	-0.04827993
128	0xbd31f03d	-0.043442
129	0x3d276170	0.040864408
130	0xbcff5f19	-0.031173276
131	0xbc9f4ffc	-0.01944732
132	0x3d5890ea	0.052872576
133	0x3cd303f1	0.025758715
134	0x3d377cc8	0.044796735
135	0xbd355bd1	-0.044277016
136	0x3c106341	0.0088127265
137	0x3cefc9c2	0.02927101
138	0xbd8e3162	-0.06943013
139	0x3d55732e	0.052111797
140	0x3cf6d379	0.030130135
141	0x3d1ef2b6	0.038805686
142	0x3cae8c8a	0.021307249
143	0x3a65d897	0.0008767931
144	0xbcfe3cea	-0.031034905
145	0xbe0bf170	-0.1366632
146	0xbd769255	-0.060198147
147	0xbd9f7f02	-0.07787897
148	0xbd43171c	-0.04762946
149	0xbd900c25	-0.070335664
150	0xbb7fd89d	-0.0039039024
151	0x3c71532a	0.0147293005
152	0x3c620f34	0.01379757
153	0xbd42f275	-0.047594506
154	0xbd362e68	-0.04447785
155	0x3d283717	0.041068163
156	0x3d6eaa45	0.05826785
157	0xbd4d4371	-0.050113145
158	0xbce58309	-0.028016584
159	0x3d0f2f8f	0.034957465
160	0x3d4357b1	0.04769105
161	0x3d209d9b	0.039212804
162	0xbd242cb6	-0.040081702
163	0x3d241d6b	0.040067118
164	0xbc98f4c6	-0.018671405
165	0x3cb690be	0.022285815
166	0x3b76f2f8	0.0037681442
167	0xbc035ff8	-0.008018486
168	0xba3c1ff4	-0.0007176392
169	0xbb76cbe8	-0.0037658159
170	0xbcab173e	-0.020885106
171	0x3d1aca85	0.037790794
172	0xbd6321d2	-0.055452175
173	0x3cb0c916	0.02158026
174	0xbcd2574a	-0.025676388
175	0xbd12b6b0	-0.035818756
176	0xbd4fd65d	-0.050741542
177	0x3c61ebfc	0.013789173
178	0xbca2e5da	-0.019884992
179	0x3cdc5dce	0.026900198
180	0x3b27c0b1	0.002559703
181	0xbcb507ba	-0.02209841
182	0x3d695055	0.056961376
183	0xbcb08100	-0.021545887
184	0xbd66b757	-0.05632719
185	0x3d0ec22b	0.03485314
186	0xbbf67181	-0.007520855
187	0xbd73103d	-0.059341658
188	0x3d16dd4e	0.036832146
189	0x3d5305d8	0.051519245
190	0x3cb0ec60	0.021597087
191	0x3dc7c0e8	0.09753591
192	0xbd1ed592	-0.038777895
193	0xbaa87cba	-0.0012854554
194	0x3cbfb74e	0.023402836
195	0xbd0f959e	-0.035054795
196	0xbd7f16f8	-0.062277764
197	0x3bf360bf	0.0074273045
198	0x3b43e1cf	0.002988923
199	0x3d774b07	0.060374286
200	0x3e13a638	0.14418876
201	0xbd6d9615	-0.058004458
202	0x3ca015b9	0.019541608
203	0x3ddca3c0	0.1077342
204	0xbd582eff	-0.052779194
205	0xbba35e8e	-0.004985637
206	0xbe06800c	-0.13134784
207	0x3ca3e178	0.020004973
208	0xbd92dd01	-0.071710594
209	0xbb659a92	-0.0035034758
210	0xbd0a08b1	-0.033699695
211	0xbd1f6126	-0.038911007
212	0xbcd544d3	-0.026033795
213	0x3ccdf3f9	0.02514075
214	0x3d11ad65	0.035565753
215	0xbbc19d64	-0.005908655
216	0x3cb042f6	0.021516304
217	0xbcfd467e	-0.030917402
218	0x3d124ad9	0.03571591
219	0xbd7b6856	-0.0613788
220	0xbcbd28f5	-0.023090819
221	0x3dc98ea1	0.098416574
222	0xbd8d8689	-0.06910426
223	0x3b7314e5	0.0037091312
224	0x3bd85ea0	0.006603077
225	0xbce97b57	-0.028501196
226	0x3d747417	0.059681024
227	0x3c1b5c47	0.00948245
228	0x3d50cd0f	0.05097681
229	0xbb5a4f7a	-0.0033311532
230	0x3d340dfa	0.04395864
231	0x3c8dbc04	0.017301567
232	0x3d7985c9	0.060918603
233	0x3d93ff51	0.07226432
234	0x3c9cdef4	0.019149281
235	0x3ca12158	0.01966922
236	0x3c87a229	0.016556816
237	0x3ce527bd	0.02797305
238	0x3d2b3fd1	0.041808907
239	0x3d109792	0.0353008
240	0x3c6b8840	0.014375746
241	0x3d9544c8	0.072885096
242	0x3d92e56f	0.07172667
243	0x3d629b5a	0.055323936
244	0x3d3a2a05	0.04545023
245	0x3cd2236d	0.025651658
246	0xbd228208	-0.03967479
247	0x3d51914c	0.051163957
248	0x3c2aa0c3	0.010414305
249	0xbb9f2d25	-0.0048576766
250	0xbcf69276	-0.030099135
251	0x3d38a11c	0.04507552
252	0xbc3687fb	-0.011140819
253	0x3a5e92ac	0.0008490484
254	0x3d39212c	0.04519765
255	0x3c990cdf	0.018682895

params.core.2.bias f4 [32]
0	0x3bfe0176	0.007751639
1	0x3d089e92	0.03335435
2	0x3d0def10	0.034651816
3	0xbd35f86e	-0.044426374
4	0x3c16af5f	0.009197085
5	0x3d1e9866	0.038719557
6	0x3d469a6f	0.048487123
7	0xbb7a80d9	-0.0038223772
8	0xbd7cc404	-0.061710373
9	0xbd7620d7	-0.060089912
10	0x3d42b805	0.047538776
11	0xbc2fe169	-0.010734894
12	0xbd22dbb5	-0.03976031
13	0xbd51e5e4	-0.05124463
14	0x3d28bbb5	0.041194636
15	0x3c5c8f2e	0.013461871
16	0xbd68a651	-0.056799237
17	0x3cf2d6eb	0.029643496
18	0x3d13105e	0.03590428
19	0xbc40eb79	-0.011774891
20	0x3c372019	0.011177086
21	0xbc20d67d	-0.009816763
22	0x3d348793	0.044074606
23	0xbd932b7d	-0.07186029
24	0x3d546a92	0.051859446
25	0x3c952ecb	0.01821079
26	0x3cb87e16	0.02252106
27	0xbcf95cf7	-0.030439837
28	0x3b0bdfb6	0.002134306
29	0x3d074f7a	0.03303478
30	0xbd74de2b	-0.05978219
31	0x3d34d2c0	0.0441463

params.core.4.weight f4 [64, 32, 3, 3]
0	0x3d6bbc7c	0.0575528
1	0x3d3aabbd	0.04557394
2	0x3cfca40b	0.03083994
3	0xbbd4f3b3	-0.006498778
4	0xbd7c78f0	-0.061638772
5	0x3c1fb5eb	0.0097479625
6	0xbc703323	-0.014660629
7	0x3d82ea20	0.06392312
8	0x3d06d220	0.032915235
9	0xbce992a9	-0.028512316
10	0xbb314722	-0.0027050455
11	0xbb98ead3	-0.004666665
12	0x3d5efa5d	0.054437984
13	0xbd4b81a4	-0.04968418
14	0xbd1bd0c8	-0.038040906
15	0x3dd59f61	0.1043079
16	0x3d53aaae	0.051676445
17	0x3da9c0ad	0.08288703
18	0xbb95f299	-0.004576039
19	0x3cf6d213	0.030129468
20	0xbdd6cdfa	-0.10488506
21	0xbd693ae6	-0.056940936
22	0xbc9a215c	-0.018814735
23	0xbdf6f974	-0.12059298
24	0x3d01c515	0.031682093
25	0x3b1a9b96	0.0023591272
26	0x3dd72c30	0.10506475
27	0x3cf16955	0.029469172
28	0xbc9bcbfa	-0.019018162
29	0xbd1efb81	-0.03881407
30	0xbca03048	-0.019554272
31	0xbce8823f	-0.028382419
32	0xbd4bf665	-0.049795527
33	0xbbd79998	-0.006579589
34	0x3d280541	0.041020636
35	0xbcbbd402	-0.022928242
36	0x3d02d015	0.031936724
37	0xbcb8979c	-0.02253323
38	0x3c326f67	0.010890818
39	0x3c9433cd	0.018091107
40	0xbce72fea	-0.02822109
41	0xbdaa2d21	-0.08309389
42	0xbca78c3c	-0.020452611
43	0xbc86178e	-0.016368654
44	0xbdb14ec3	-0.08657601
45	0x3cf20147	0.029541625
46	0xbd41af0f	-0.04728609
47	0x3d2296a8	0.03969446
48	0xbb4c5c49	-0.0031182936
49	0x39f023f8	0.00045803166
50	0xbdb13229	-0.086521454
51	0x3de40a78	0.11134809
52	0x3da1a7ef	0.07893359
53	0x3da13082	0.0787058
54	0xbd9fd0f4	-0.078035265
55	0xbd5ae1b9	-0.053437922
56	0xbc80ea95	-0.015736857
57	0x3d5fa942	0.054604776
58	0x3d1d9985	0.038476486
59	0x3db8578c	0.09001073
60	0x3bb1aa18	0.005421888
61	0x3cd618d9	0.026134895
62	0xbd2078b3	-0.039177608
63	0xbd993425	-0.07480649
64	0x3a71f1c8	0.00092294486
65	0xbc8413d7	-0.016122742
66	0xbc893e4c	-0.016753338
67	0xbc280c0a	-0.010256777
68	0xbb4c7615	-0.0031198312
69	0xbd59d1c0	-0.05317855
70	0x3cbcbf42	0.023040418
71	0x3cf3f1a5	0.029778311
72	0x3db6cbae	0.089255676
73	0x3dba13a7	0.0908578
74	0x3d470f4f	0.048598584
75	0xbca065a4	-0.019579716
76	0xbce9ab66	-0.028524112
77	0xbde6aef9	-0.11263842
78	0x3d355097	0.04426631
79	0xbd4ba40b	-0.04971699
80	0xbad05401	-0.0015894176
81	0x3d4d6c00	0.050151825
82	0xbd8a1ebd	-0.06744144
83	0x3d266cfa	0.040631272
84	0x3d0cd626	0.034383915
85	0xbcbc632d	-0.02299651
86	0xbde5099d	-0.11183474
87	0xbb9a7e6d	-0.004714778
88	0x3d313c2e	0.043270282
89	0xbd04960e	-0.032369666
90	0xbc18abc3	-0.009318295
91	0xbcd0f620	-0.025507987
92	0xbc02461f	-0.0079512885
93	0x3cc3064d	0.023806715
94	0x3d01f9b7	0.031732287
95	0xbd873f6f	-0.06603896
96	0x3cc29d47	0.023756636
97	0xb920ce82	-0.00015335719
98	0x3cb1fc1b	0.021726659
99	0x3d5deb44	0.054179445
100	0x3cfe4a2b	0.031041225
101	0xbcab9fe3	-0.020950263
102	0xbd2cc244	-0.042177454
103	0x3b85cbb2	0.0040831203
104	0xbdd8f138	-0.10592884
105	0x3ceed5af	0.029154627
106	0xbcad3f62	-0.021148387
107	0xbcb1df4c	-0.021712922
108	0x3d7c8094	0.06164606
109	0x3c37e9fe	0.011225222
110	0xbce9b0c6	-0.028526675
111	0x3c85a61d	0.01631456
112	0xbcef8e70	-0.029242724
113	0xbce35bdd	-0.027753765
114	0xbc2708dc	-0.010194983
115	0x3d9445d5	0.07239882
116	0x3d620490	0.055180132
117	0x3cb5ac87	0.022176994
118	0xbd8d7c0c	-0.06908426
119	0xbd81ce07	-0.06338125
120	0x3d6536c3	0.055960428
121	0x3c80773c	0.015681855
122	0x3d62e481	0.0553937
123	0x3ddf6bf3	0.109092616
124	0x3d341cd5	0.04397281
125	0x3dd6a8eb	0.10481437
126	0xbbd449ea	-0.006478538
127	0x3d16f88a	0.03685812
128	0x3cb5f895	0.02221326
129	0xbb5704f8	-0.0032809358
130	0xbd37ad67	-0.044843104
131	0x3cb2549a	0.021768857
132	0xbd438ba7	-0.047740605
133	0xbc8e4a2c	-0.017369352
134	0xbcd5342a	-0.02602585
135	0xbce9db74	-0.028547026
136	0xba886827	-0.0010407016
137	0x3ce50792	0.027957711
138	0xbd264ff2	-0.040603586
139	0xbd2f6c37	-0.04282781
140	0xbcce9b80	-0.025220633
141	0x3cf5885a	0.029972244
142	0xbd11a560	-0.035558105
143	0x3c98004c	0.018554829
144	0x3c6cd4fc	0.014455076
145	0xbd6df4e2	-0.058094867
146	0x3d6333f3	0.055469465
147	0x3cfd48de	0.030918535
148	0xbd4b5b80	-0.049647808
149	0x3d637cc1	0.055538896
150	0xbd137007	-0.03599551
151	0xbbe8d678	-0.007105645
152	0xbd07e508	-0.033177406
153	0xbcfd9069	-0.03095265
154	0xbd2b689e	-0.041847818
155	0xbd03aa1e	-0.03214466
156	0x3c50377f	0.012708544
157	0x3cd82a02	0.026387218
158	0x3daaa404	0.08332065
159	0xbc91c185	-0.017792473
160	0xbda2e786	-0.07954316
161	0xbdb8ad82	-0.09017469
162	0x3bd88972	0.0066081816
163	0x3d4d6004	0.050140396
164	0x3d88da28	0.06682235
165	0x3dc4170e	0.0957471
166	0x3d4f4335	0.050601203
167	0x3db3c75b	0.087782584
168	0xbd5012de	-0.050799243
169	0x3c76052c	0.0150158815
170	0xbe18c083	-0.14917187
171	0x3ccf4c96	0.025305074
172	0xbd2d76cd	-0.042349625
173	0xbce01f1d	-0.027358586
174	0xbd76f04b	-0.060287755
175	0x3b971f56	0.00461189
176	0xba8267f6	-0.0009949196
177	0x3ccae52e	0.024767485
178	0x3d72cf5c	0.059279785
179	0x3d72797a	0.05919788
180	0xbd13dd20	-0.036099553
181	0xbc86cbbc	-0.01645457
182	0xbd0d886d	-0.034553934
183	0xbc99eed0	-0.018790632
184	0xbd09905b	-0.033584934
185	0xbc613591	-0.013745681
186	0x3d5dc462	0.054142363
187	0x3bececed	0.007230392
188	0xbc2427f3	-0.01001929
189	0xbd842ef4	-0.06454268
190	0xbd210108	-0.039307624
191	0xbd6ac344	-0.057315126
192	0x3d3aed1a	0.045636274
193	0x3d670fef	0.05641168
194	0x3d99d66e	0.07511602
195	0x3d925a74	0.07146159
196	0xbc31e707	-0.010858304
197	0x3d5f1a50	0.054468453
198	0x3d3f55f7	0.04671284
199	0x3da8e898	0.08247489
200	0x3d6db846	0.058037065
201	0x3c9ac351	0.018891962
202	0x3c0b0af5	0.008486499
203	0xbdb56f8b	-0.08859166
204	0x3cfdfeaa	0.031005222
205	0x3d92bb0e	0.07164584
206	0x3d8ac2a3	0.06775405
207	0x3d8288f4	0.06373778
208	0x3d624a9a	0.055246927
209	0xbc31a8fd	-0.010843513
210	0xbd10bf4a	-0.035338677
211	0xbd49d6f2	-0.049277253
212	0xbdbac219	-0.091190524
213	0xba4121b2	-0.0007367387
214	0x3ca57292	0.020196233
215	0x3cd12fc6	0.025535475
216	0x3cc5cd3c	0.024145715
217	0xbcdfabfd	-0.02730369
218	0xbab90587	-0.0014116027
219	0xbd600c67	-0.054699328
220	0xbc6c4d90	-0.014422789
221	0xbd462ab9	-0.048380587
222	0x3d52c1ad	0.051454235
223	0x3745ba8a	1.1785547e-05
224	0x3cc8bbbd	0.024503583
225	0x3da419ef	0.08012759
226	0xbac1a59b	-0.0014774086
227	0x3d12d354	0.03584607
228	0x3d04486a	0.032295622
229	0xbd8646c3	-0.065564655
230	0xbd7b973a	-0.061423518
231	0x3e091bde	0.13389537
232	0x3d92b9f2	0.071643725
233	0x3d630e7f	0.055433746
234	0xbd7e65e8	-0.062108904
235	0x3d6e270b	0.058142703
236	0x3d68d873	0.056847047
237	0xbd6be761	-0.057593707
238	0x3c16468d	0.009172094
239	0x3dbb254c	0.09137973
240	0xbe122958	-0.14273584
241	0x3d7c9bbd	0.06167196
242	0x3d22a2ef	0.039706167
243	0xbcde5933	-0.027142143
244	0xbd4d776b	-0.050162714
245	0x3c65ec47	0.014033384
246	0xbd1144eb	-0.035466116
247	0x3cf5627a	0.029954184
248	0xbd0d11c8	-0.034440786
249	0x3d18b6fc	0.037283882
250	0x3d366351	0.04452831
251	0xbce60eb6	-0.028083187
252	0x3d0bb2ec	0.03410618
253	0xbb3100cc	-0.0027008532
254	0xbcd7878d	-0.026309753
255	0xbd4d82d3	-0.05017359

params.core.4.bias f4 [64]
0	0x3d81adde	0.06331991
1	0xbd823013	-0.06356826
2	0xbd77eae6	-0.06052675
3	0x3cc6c2f9	0.024262892
4	0x3d81bfbb	0.06335398
5	0xbce82061	-0.028335752
6	0x3d335ba5	0.04378857
7	0xbccfbebf	-0.02535951
8	0xbd0b5f77	-0.03402659
9	0x3d3f1f37	0.04666063
10	0xbd3f9a91	-0.046778265
11	0xbc4c2b6b	-0.0124615235
12	0x3d77bc80	0.060482502
13	0xba367552	-0.0006960231
14	0xbd0c56db	-0.03426252
15	0xbb8a3b0e	-0.0042184656
16	0xbd4d3d79	-0.050107453
17	0x3d9884c0	0.07447195
18	0xbdb9c846	-0.09071402
19	0xbcda2ac5	-0.026631722
20	0xbd06c932	-0.03290672
21	0xbda306da	-0.07960291
22	0xbd94dd92	-0.07268824
23	0x3ca78b8b	0.020452281
24	0x3d8919c6	0.06694369
25	0x3d18dcea	0.037320055
26	0x3dd8250d	0.10553942
27	0x3d219984	0.039453045
28	0xbd93fa20	-0.07225442
29	0xbcdcabe2	-0.026937429
30	0xbd8574b0	-0.06516397
31	0x3d1dc3db	0.03851686
32	0x3d3e457c	0.046452984
33	0x3d815039	0.063141294
34	0x3dbb5345	0.09146742
35	0x3ca32c68	0.019918635
36	0x3c31747a	0.010830993
37	0x3d7c0da9	0.061536465
38	0xbcdd56a8	-0.02701886
39	0xbc59460b	-0.013261328
40	0x3d472963	0.048623454
41	0xbae3d3db	-0.0017381863
42	0xbe02840a	-0.12745681
43	0x3c2f808a	0.010711798
44	0x3db4a85b	0.08821174
45	0xbd617813	-0.055046152
46	0xbd89ee9b	-0.067349635
47	0x3c810d7a	0.015753496
48	0x3d75b0ba	0.059982993
49	0x3d82a7f2	0.06379689
50	0xbb94d3b5	-0.004541839
51	0xbb75a0e1	-0.0037479925
52	0xbca270ee	-0.01982924
53	0x3d42b822	0.047538884
54	0x3d80d909	0.06291396
55	0x3d4fdad0	0.050745785
56	0xbd75c8a4	-0.0600058
57	0x3d352a55	0.044229824
58	0xbd7d4656	-0.061834656
59	0xbcb4c4dd	-0.022066528
60	0x3d0bb87a	0.034111477
61	0xbd65c4fb	-0.05609606
62	0x3bd81826	0.0065946756
63	0xbb9437b2	-0.004523241

params.core.6.weight f4 [64, 64, 3, 3]
0	0xba8740c9	-0.001031899
1	0xbc18430d	-0.00929333
2	0x3cf3c89d	0.029758746
3	0xbcf5477b	-0.029941311
4	0xbc207ed1	-0.00979586
5	0x3c2b4af1	0.010454879
6	0xbd77495b	-0.06037269
7	0xbd1fe79d	-0.039039243
8	0xbcaf1f88	-0.02137734
9	0xbd2cf485	-0.04222538
10	0xbd79bcb2	-0.06097097
11	0xbd9fd0c8	-0.07803494
12	0x3d2fc59c	0.042913064
13	0xbd3c1fd0	-0.045928776
14	0xbd2f9ced	-0.042874265
15	0x3c02b08f	0.007976665
16	0xbd12df47	-0.035857465
17	0xbbea1b13	-0.007144341
18	0xbc6e4b2d	-0.0145442905
19	0xbd259a48	-0.040430337
20	0xbc328bdd	-0.010897604
21	0xbcc00506	-0.023439895
22	0x3bc12759	0.005894583
23	0xbd0f3fc5	-0.034972925
24	0xbbb61a21	-0.005557314
25	0x3d22ffa7	0.03979459
26	0xbb9573d6	-0.004560928
27	0xbc06cf58	-0.008228146
28	0x3d4f814d	0.05066042
29	0x3bc3f7c5	0.005980464
30	0x3d334e94	0.04377611
31	0x3d3ee1f0	0.04660219
32	0x3d7d2f5e	0.06181275
33	0x3d4a5cd7	0.049404945
34	0x3dc609e9	0.09669859
35	0x3d83bf9a	0.064330295
36	0x3c96f3eb	0.018426856
37	0x3d834f64	0.06411627
38	0x3d6ba863	0.057533633
39	0xbd0537bd	-0.03252386
40	0xbc348a88	-0.011019357
41	0x3c8c0f05	0.017097006
42	0x3cd22e94	0.025656976
43	0x3e18a4a8	0.14906561
44	0x3e310e3c	0.17290586
45	0xbcbcea85	-0.023061046
46	0x3c9b91d3	0.018990433
47	0xbcb14dbb	-0.02164351
48	0xbc22d24c	-0.009937834
49	0x3d598126	0.05310168
50	0x39a0bb73	0.0003065724
51	0xbd1741d3	-0.03692801
52	0xbd133001	-0.035934452
53	0x3b40f52f	0.0029443016
54	0x3d25700a	0.040390052
55	0x3d1653ee	0.036701135
56	0x3d2e267b	0.042517167
57	0x3d43d355	0.047808964
58	0x3df40ed3	0.1191689
59	0x3dca5788	0.098799765
60	0x3d0f1864	0.03493537
61	0xbd02f454	-0.03197129
62	0xbcb5d5da	-0.022196699
63	0x3c7c3f17	0.015395901
64	0xb9ab8295	-0.00032712953
65	0x3d24ea41	0.040262464
66	0xbd8b30e0	-0.067964315
67	0xbd0314d5	-0.03200229
68	0x3d17ebb2	0.03709001
69	0xbd84d1b5	-0.06485311
70	0xbcc26902	-0.023731712
71	0xbd579594	-0.052632883
72	0x3cad00ac	0.021118484
73	0x3d0cd518	0.03438291
74	0x3cf1698d	0.029469276
75	0x3d949d65	0.07256583
76	0x3e104481	0.14088632
77	0x3e1647d8	0.14675844
78	0xbd15f767	-0.036612894
79	0x3d79ec3f	0.061016317
80	0x3d1208c5	0.035652895
81	0xbd0152ac	-0.031572983
82	0x3cb5ad13	0.022177255
83	0xbd51daba	-0.051233985
84	0x3b46230e	0.0030233297
85	0x3cbc651f	0.022997437
86	0xbd0aa529	-0.033848915
87	0x3d939a3c	0.07207152
88	0x3bc78ed1	0.006090023
89	0xbd5d46a4	-0.054022446
90	0x3cae91cb	0.021309754
91	0x3cd9ae9a	0.026572514
92	0xbc17364c	-0.009229254
93	0x3d2064ff	0.039158817
94	0x3cf027a2	0.029315773
95	0x3cf32a94	0.029683389
96	0xbd2159d0	-0.039392292
97	0x3ccf6b3c	0.025319688
98	0x3d2e7bf9	0.0425987
99	0xbceef8da	-0.029171396
100	0x3ad365f0	0.0016128402
101	0x3d2c1173	0.04200883
102	0xbc29a7e3	-0.010354969
103	0xbbff2f51	-0.007787623
104	0x3d8efe03	0.06982043
105	0x3c87551e	0.01652008
106	0x3ca337e6	0.019924115
107	0xbc9ff6ad	-0.019526804
108	0x3c9c1f31	0.019057842
109	0xbd5160b9	-0.051117633
110	0xbdb3a2c7	-0.08771282
111	0x3d305f70	0.043059766
112	0xbd855430	-0.06510198
113	0xbdc949fc	-0.098285645
114	0x3d833d8a	0.06408222
115	0xbc0033aa	-0.007824818
116	0xbd707bbb	-0.05871175
117	0x3cca475e	0.024692234
118	0x3c160ffa	0.009159083
119	0x3d9175cf	0.07102548
120	0x3ac82721	0.001527045
121	0xbd61e6cf	-0.055151757
122	0xbc97d433	-0.018533802
123	0xbdbdc86a	-0.092667416
124	0xbe009298	-0.12555921
125	0xbdbedbc0	-0.09319258
126	0x3d14fc26	0.03637328
127	0xbd2a08ee	-0.041512422
128	0xbcab3827	-0.020900799
129	0xbd060fa2	-0.032729752
130	0x3cca0118	0.024658725
131	0xbbad0340	-0.0052799284
132	0xbd0c8978	-0.034310788
133	0x3baf143a	0.0053429874
134	0xbb460757	-0.0030216777
135	0x3d6e47c1	0.0581739
136	0xbd651b95	-0.055934507
137	0xbc0cd67b	-0.008596058
138	0xbd2bf59b	-0.041982275
139	0xbceea58b	-0.029131671
140	0xbcf54c62	-0.029943649
141	0xbd3da18f	-0.046296652
142	0xbd620395	-0.055179197
143	0xbca10765	-0.019656846
144	0x3cf7e3e2	0.03026003
145	0xbce1e5d8	-0.027575418
146	0xbcede953	-0.029041922
147	0x3d28059f	0.041020986
148	0xbc8af3e2	-0.016961996
149	0x3b487258	0.0030585732
150	0x3ca2e4f1	0.019884558
151	0xbd1798e8	-0.037011057
152	0x3d142e82	0.036177166
153	0xbc257a47	-0.010099954
154	0xba12e879	-0.0005604099
155	0xbd595aed	-0.05306523
156	0xbc65c0cb	-0.014023016
157	0x3cc6ba67	0.024258805
158	0xbc6b0411	-0.014344231
159	0xbda0ecea	-0.07857688
160	0xbd324b8b	-0.043529075
161	0xbd8b1307	-0.067907386
162	0x3b8ab0e3	0.0042325123
163	0x3d412fe1	0.0471648
164	0x3b998486	0.0046849875
165	0x3b8f5eca	0.0043753134
166	0x3d2c2416	0.0420266
167	0x3d247b06	0.040156387
168	0xbda0fdd0	-0.07860911
169	0xbccd23ca	-0.02504148
170	0xbda6efaf	-0.08151185
171	0xbd0a2d9b	-0.0337349
172	0x3c892068	0.016739085
173	0xba0ddca0	-0.0005411599
174	0xbb1174a6	-0.0022194772
175	0x3cc2ba60	0.023770511
176	0x3d41d07b	0.047317963
177	0x3cfdfe0d	0.03100493
178	0x3cfbb316	0.030725043
179	0xbc07ad12	-0.008281009
180	0x3d1940a9	0.03741518
181	0x3c7e91f5	0.015537729
182	0xbbf0755c	-0.007338209
183	0xbcc6abd5	-0.024251858
184	0x3c828145	0.015930781
185	0x3cc7ce46	0.024390351
186	0x38c098ff	9.183771e-05
187	0xbc9e4667	-0.01932068
188	0xbd950ace	-0.072774515
189	0xbc5c6c13	-0.013453501
190	0xbd9cad9a	-0.07650299
191	0xbde29087	-0.11062723
192	0x3cdfc868	0.02731724
193	0xbd5533c1	-0.05205131
194	0xbd793412	-0.060840674
195	0x3b186c49	0.0023257902
196	0x3cab7ef7	0.020934565
197	0xba6c3df5	-0.0009011918
198	0x3c435ce5	0.011924003
199	0xbd28f04b	-0.041244786
200	0xbcb5bcbd	-0.022184724
201	0x3bfd5b6c	0.0077318456
202	0xbc369b83	-0.011145475
203	0xbd6f75aa	-0.058461823
204	0x3dec1e58	0.11529225
205	0x3e366631	0.1781242
206	0x3e096917	0.13418995
207	0xbc49c154	-0.012314159
208	0xbdc0229b	-0.093816005
209	0xbdcee836	-0.101028845
210	0x3c96b802	0.018398289
211	0xbac961a2	-0.001536418
212	0xbc8aa57d	-0.016924614
213	0x3ca35818	0.019939467
214	0xbc2e9532	-0.010655688
215	0x3a108a53	0.0005513776
216	0x3c3e5206	0.011616236
217	0x3ce0e5f4	0.0274534
218	0x3c71d743	0.014760795
219	0x3d0ce372	0.034396596
220	0x3d7ddff5	0.06198116
221	0x3dc827a6	0.09773187
222	0x3bcfe91f	0.006344929
223	0xbc993355	-0.018701235
224	0xbd4d2a57	-0.050089207
225	0x3cf30a50	0.029668003
226	0x3c2143e6	0.009842848
227	0x3d10ce2c	0.03535287
228	0xbd82d389	-0.063880034
229	0xbb54a1c6	-0.0032445057
230	0x3d006f57	0.031356182
231	0xbd432b74	-0.047648862
232	0x3d733487	0.059376266
233	0x3c4b5c55	0.01241215
234	0xbc16b8a0	-0.0091992915
235	0x3ca479ea	0.020077664
236	0xbd42a473	-0.047520112
237	0x3cca97c2	0.024730567
238	0xbc935fd4	-0.01799003
239	0xbca94f88	-0.020667806
240	0xbcd3dc8e	-0.025862005
241	0xbb312304	-0.0027028928
242	0xbdb2406f	-0.08703696
243	0x3c58866c	0.013215642
244	0x3cb318bb	0.021862378
245	0x3ad527ff	0.001626253
246	0x3c387377	0.011257998
247	0xbc256afd	-0.010096309
248	0x3cec40ac	0.028839432
249	0x3da59966	0.08085899
250	0x3da7c905	0.08192638
251	0x3d77c1d5	0.060487587
252	0x3d371586	0.04469826
253	0x3c9980ba	0.01873814
254	0x3d9292f2	0.07156934
255	0x3cef0e2f	0.029181568

params.core.6.bias f4 [64]
0	0xbbaf39a4	-0.0053474475
1	0x3c8d9eb0	0.017287582
2	0x3c23c674	0.009996045
3	0xbc16e0db	-0.009208883
4	0xbb8f1654	-0.0043666754
5	0x3d8e95b8	0.0696215
6	0xbc29ce3d	-0.010364112
7	0x3b0c328e	0.0021392438
8	0xbca21ddc	-0.019789629
9	0xbc0601fc	-0.008179184
10	0xbd161589	-0.03664163
11	0xbc3dee5e	-0.011592476
12	0xba999122	-0.0011716227
13	0x3cdba14e	0.026810315
14	0xbd35c78f	-0.044379767
15	0x3c124642	0.008927884
16	0x3c8f45d2	0.017489348
17	0xbdd0a3af	-0.1018747
18	0xbd456d0a	-0.04819969
19	0xbbb2d599	-0.0054575917
20	0x3cfecfe1	0.031104984
21	0xbcd6fc99	-0.026243495
22	0x3cd5b2ce	0.026086237
23	0x3c86458c	0.016390584
24	0x3cae5a21	0.021283211
25	0xbbf7e74d	-0.007565415
26	0xbb1258cc	-0.002233076
27	0xbd273efb	-0.040831547
28	0x3d75a672	0.059973188
29	0xbc460270	-0.012085542
30	0x3c5535d7	0.013013325
31	0x3d2ef477	0.04271361
32	0x3b9ebb85	0.0048441314
33	0xbc307143	-0.010769191
34	0xbcdf9374	-0.02729199
35	0xbd0eb6db	-0.034842353
36	0xbd1a5d8b	-0.037686866
37	0x3d74b38b	0.059741538
38	0xbc7f7bfe	-0.015593527
39	0x3d8e0294	0.069340855
40	0xbd229ed6	-0.03970226
41	0x3dcac3fa	0.09900661
42	0x3ca8697b	0.02055811
43	0x3d7c16e9	0.061545286
44	0x3d87f5c2	0.066386715
45	0x3d44fbfb	0.04809187
46	0xbd233a85	-0.03985073
47	0x3c60433f	0.013687908
48	0xbcfbc78a	-0.030734796
49	0xbd277107	-0.040879276
50	0x3c882494	0.016619004
51	0x3d1668b6	0.036720954
52	0x3b76f4ca	0.0037682527
53	0xbcf595a9	-0.02997859
54	0xbc0f0c44	-0.008730952
55	0xbca14b96	-0.019689362
56	0xbd38c14a	-0.04510621
57	0x3d24e308	0.040255576
58	0x3d7622da	0.06009183
59	0x3c861c06	0.016370784
60	0xbd1bc59b	-0.038030248
61	0xbc500e9b	-0.012698795
62	0x3cecd8f4	0.028912045
63	0x3a99f35f	0.0011745504

params.core.8.weight f4 [64, 64, 3, 3]
0	0x3adfc88a	0.0017073315
1	0x3ce561ac	0.028000675
2	0x3cfdd563	0.03098554
3	0xbba35eb4	-0.0049856547
4	0xbc77d8b4	-0.01512735
5	0x3b6be635	0.0035995368
6	0xbbd42459	-0.0064740595
7	0xbc9bdcaa	-0.01902612
8	0x3cd352e8	0.025796369
9	0xbcbd1168	-0.023079589
10	0x3c3f9ea4	0.011695538
11	0xbd19acf6	-0.037518464
12	0xbd02ce73	-0.031935167
13	0xbcdbf546	-0.026850354
14	0xbd187386	-0.037219547
15	0xb9cd22f0	-0.00039126677
16	0x3cdaef2e	0.026725378
17	0x3d14799f	0.0362488
18	0xbbcfff80	-0.0063475966
19	0xbd10a19a	-0.035310365
20	0x3cb03d66	0.021513652
21	0xbcd75a83	-0.026288277
22	0xbcae45c7	-0.021273507
23	0x3cb321de	0.021866735
24	0xbd29997b	-0.041406136
25	0x3cae396e	0.021267619
26	0x3a4be268	0.00077775726
27	0x3c977af9	0.018491255
28	0x3b9ee838	0.00484946
29	0x3cf43803	0.029811865
30	0x3cf6b1e9	0.030114131
31	0xb978c203	-0.00023723398
32	0xbccf6b4d	-0.02531972
33	0x3d03f264	0.032213584
34	0xbc0c093f	-0.008547126
35	0xbb590f96	-0.0033120862
36	0x3aef0e7b	0.0018238568
37	0x3d0622f6	0.032748185
38	0x3b97bc9f	0.0046306397
39	0x3bd7fc10	0.0065913275
40	0xbcf8b6b2	-0.030360553
41	0x3d0406f9	0.032233212
42	0xbd2699a5	-0.04067387
43	0xbd298351	-0.041385
44	0xbc67a204	-0.014137749
45	0x3bff68c2	0.0077944705
46	0x3c90e8dc	0.017689161
47	0xbccf74bb	-0.025324216
48	0x3c8acd81	0.016943695
49	0xbd328a82	-0.043589123
50	0xbd365c6b	-0.04452173
51	0xbb824846	-0.003975901
52	0xbd164fd9	-0.036697242
53	0x3cf07fac	0.029357754
54	0x3cdd807a	0.027038801
55	0xbd0c360b	-0.034231227
56	0xbbbc2606	-0.0057418374
57	0x3ccfc896	0.025364202
58	0x3d1f9533	0.038960647
59	0xbcc42cdb	-0.02394717
60	0xbca2bd34	-0.01986561
61	0x3cbbb7ee	0.022914853
62	0xbceede58	-0.029158756
63	0xbbf5cd70	-0.0075012967
64	0xbca3f274	-0.020013072
65	0xbce6ea70	-0.02818796
66	0x3c559afc	0.013037439
67	0xbcf1a766	-0.029498767
68	0x3c835206	0.016030323
69	0x3d11c20b	0.035585444
70	0xbd166b96	-0.036723696
71	0x3ce7ae82	0.028281454
72	0x3c486044	0.012229983
73	0xbcbbc00f	-0.02291873
74	0xbb863f0c	-0.0040968712
75	0xbd0dd4a2	-0.03462661
76	0xbcdeca53	-0.027196085
77	0x3ba25a14	0.004954586
78	0xbcac1fb4	-0.021011211
79	0x3c77bf38	0.015121274
80	0x3bbe1b9c	0.005801631
81	0x3c379b68	0.011206485
82	0xbccf57b6	-0.025310379
83	0xbd041317	-0.032244768
84	0xbd1b9ffc	-0.03799437
85	0xbd164d1a	-0.036694624
86	0xbcabede7	-0.020987464
87	0xbac96148	-0.0015364075
88	0xbd1cc422	-0.038272984
89	0xbc0d2c88	-0.008616574
90	0xbb52a178	-0.00321397
91	0xbcc82dbe	-0.024435874
92	0xbd076214	-0.03305252
93	0x3d0b4ec9	0.034010682
94	0x3c52443c	0.012833651
95	0x3c812a7a	0.015767325
96	0x3cea5cba	0.028608669
97	0xbd0beb0b	-0.0341597
98	0xbd0c2bd0	-0.03422147
99	0xbbee73b4	-0.0072769765
100	0x3cfd14dc	0.030893736
101	0x3d057341	0.032580618
102	0xbcbc564d	-0.02299037
103	0xbcb5c873	-0.022190308
104	0xbcb8575a	-0.02250259
105	0xbc75d381	-0.01500404
106	0x3d0c0d8d	0.03419261
107	0x3be45a40	0.0069687665
108	0xbc426570	-0.011865005
109	0x3b0b586e	0.0021262425
110	0xbc9ad170	-0.018898696
111	0x3c18e539	0.009331995
112	0x3d055dfb	0.03256033
113	0xbcbe64a7	-0.023241354
114	0xbc22e845	-0.009943073
115	0xbc070c28	-0.008242644
116	0xbc766c2b	-0.015040438
117	0x3c2e0ddd	0.010623422
118	0x3c5ae807	0.013360984
119	0xbcf58c3f	-0.029974101
120	0xbce6cf06	-0.028174888
121	0xbc81f18f	-0.015862254
122	0xbd11d27e	-0.03560113
123	0x3c932ee3	0.017966693
124	0x3d00775c	0.03136383
125	0x3c1c6905	0.009546523
126	0x3c76d9dc	0.01506659
127	0xbac18688	-0.0014764825
128	0x3b99f06c	0.00469785
129	0x3c5685cc	0.013093423
130	0x3cfd0eda	0.03089087
131	0xb97da068	-0.00024187716
132	0x3c436b48	0.011927433
133	0xbbc5e070	-0.006038718
134	0x3ce7bd1a	0.028288413
135	0x3bc3ad48	0.0059715845
136	0x3c9dc564	0.019259162
137	0x3d0cbf0d	0.034361888
138	0xb950b068	-0.00019902142
139	0xbd2d49ff	-0.042306896
140	0xbcae1408	-0.021249786
141	0x3c6adf54	0.014335472
142	0xbabb47e7	-0.0014288396
143	0x3cfce57a	0.030871142
144	0x3c88b4cf	0.016687779
145	0xbc433f47	-0.011916942
146	0x3cd923bf	0.026506303
147	0xbcbc9c46	-0.023023736
148	0x3ccfbe10	0.025359184
149	0xbd12c3f6	-0.035831414
150	0xbd3a445d	-0.045475353
151	0x3cb69546	0.022287976
152	0x3cfe9cc1	0.031080605
153	0x3c3968f0	0.011316523
154	0x3c89e6d4	0.0168337
155	0x3c2c7984	0.010527018
156	0xbd01846e	-0.031620435
157	0xbc948cd4	-0.018133558
158	0x3bd64bd0	0.0065397993
159	0xbce1fd28	-0.027586535
160	0xbb6cba28	-0.00361217
161	0xbb27bc84	-0.0025594542
162	0xbd2fd34b	-0.042926114
163	0x3a8f96b4	0.0010954947
164	0xbce615fb	-0.028086653
165	0xbcc7f1b9	-0.024407255
166	0xbbcc37e0	-0.0062322468
167	0xbb2466c4	-0.0025085667
168	0x3cf36c8f	0.02971485
169	0x3c9345ce	0.017977621
170	0x3cd3f662	0.02587432
171	0xb9a65449	-0.00031724785
172	0xbd3b5e87	-0.045744445
173	0xbb4a3194	-0.0030852305
174	0x3c1782e6	0.009247517
175	0xbc35ba39	-0.011091762
176	0xbd13409a	-0.03595028
177	0xbd0ded0d	-0.034649897
178	0xbcf7d597	-0.030253215
179	0xbbb434d1	-0.0054994603
180	0x3c22382d	0.009901089
181	0xbc1801f0	-0.009277806
182	0xbd0741bf	-0.033021685
183	0x3ca38e33	0.019965267
184	0xbcf7c669	-0.030245977
185	0x3c4703cf	0.012146904
186	0x3c2cf1c7	0.010555691
187	0xbc79ce66	-0.015246963
188	0xbd1e5d13	-0.03866298
189	0xbc87e1a4	-0.016587086
190	0xbd13604b	-0.035980504
191	0xbc937247	-0.017998828
192	0x3b128434	0.0022356631
193	0x3d202e8d	0.039106894
194	0xbd14b57a	-0.036305882
195	0x3be237e8	0.006903637
196	0xbbba6c4c	-0.0056891795
197	0xbaa97c94	-0.0012930804
198	0x3c3cbd86	0.011519795
199	0xbd08b652	-0.033377
200	0x39cad881	0.0003868975
201	0xbcdb57c0	-0.02677524
202	0x3b860264	0.0040896405
203	0x3cfae0b4	0.030624725
204	0xbd0242ea	-0.031802095
205	0x3ce92275	0.028458813
206	0x3d01adfd	0.03166007
207	0xbbcffe74	-0.006347472
208	0xbd0b97f7	-0.03408047
209	0x3cfc46ed	0.030795539
210	0xbb8ace11	-0.004235991
211	0xbd03bfe4	-0.032165423
212	0xbd2585aa	-0.040410675
213	0x3cb1f621	0.021723809
214	0x3ca54182	0.020172838
215	0xbc228204	-0.009918693
216	0xbcf78801	-0.030216219
217	0xbbaadb7e	-0.005214154
218	0xbd1ea4ad	-0.038731266
219	0x3c4009ef	0.011721118
220	0xbc86a36c	-0.016435347
221	0xbc802fe9	-0.015647845
222	0x3c65cd12	0.014025943
223	0xbd29f99b	-0.041497808
224	0xbd3ddb4d	-0.04635172
225	0xbd3a7df3	-0.04553027
226	0x3c2485a1	0.010041625
227	0x3c5a2791	0.013315097
228	0x3b3eb5d9	0.002910009
229	0x3c0b6402	0.00850773
230	0xbd255009	-0.04035953
231	0xbcea2b0b	-0.028584978
232	0xbc085ff8	-0.008323662
233	0xba284448	-0.0006418866
234	0xbd02ca53	-0.031931233
235	0x3c7dca42	0.015490117
236	0x3b72a51a	0.0037024678
237	0x3b24a00f	0.0025119816
238	0xbcacb999	-0.021084594
239	0x3c392126	0.011299407
240	0xbd20b69b	-0.039236646
241	0x3c8ab839	0.016933547
242	0xbcd342bb	-0.025788656
243	0xbc0c90e5	-0.008579467
244	0x3bd4b108	0.0064908303
245	0xbd1f3e73	-0.038877916
246	0x3cc92a3e	0.024556275
247	0xbc3c8c5a	-0.011508072
248	0xbce683fe	-0.02813911
249	0x3c6b5a18	0.014364742
250	0x3c2677d8	0.010160409
251	0xbd29a3f6	-0.04141613
252	0xbca8de87	-0.020613922
253	0x3ca6a39b	0.020341685
254	0x3d00a162	0.031403907
255	0x3b9c2ca7	0.004766065

params.core.8.bias f4 [64]
0	0xb9923bbd	-0.00027891799
1	0xbd4bcc42	-0.049755342
2	0xbd0599b1	-0.032617275
3	0x3d2abefe	0.04168605
4	0x3d5ce9b7	0.053933825
5	0x3db7cca6	0.089745805
6	0xbd1e1028	-0.038589627
7	0x3cfa7d81	0.030577423
8	0x3bea0c4c	0.007142579
9	0xbd42f36f	-0.047595438
10	0x3c6e525f	0.014546006
11	0xbd3b4bf7	-0.045726743
12	0xbc07e94e	-0.00829537
13	0xbd510052	-0.051025696
14	0x3dacc210	0.08435452
15	0xbcb4e702	-0.02208281
16	0x3c136870	0.008997068
17	0x3caccf83	0.021095043
18	0x3c91baf6	0.017789345
19	0xbbf2d95a	-0.007411164
20	0x3ba01823	0.00488569
21	0x3bb5e4af	0.005550943
22	0xbd25c6da	-0.040472843
23	0x3ce950a9	0.028480845
24	0x3d268df2	0.040662713
25	0xbbb6632e	-0.0055660224
26	0x3c473935	0.012159635
27	0x3d655088	0.055985004
28	0xbd4244af	-0.047428783
29	0x3aa28553	0.0012399353
30	0x3ce62c98	0.028097436
31	0x3d5c6270	0.053804815
32	0xbd15af27	-0.03654399
33	0x3de44b92	0.111472264
34	0xbcd6e7aa	-0.026233513
35	0xbcb32d1c	-0.021872096
36	0x3d920e58	0.07131642
37	0xbcc64cab	-0.02420648
38	0x3c8ae5d2	0.01695529
39	0x3c4c7b45	0.012480562
40	0x3d1e6d8c	0.03867869
41	0xbd40bcdb	-0.047055107
42	0x3cf6252c	0.030047022
43	0x3ccedd7f	0.025252102
44	0x3d5c98f2	0.053856798
45	0xbd13e256	-0.036104523
46	0x3d06845c	0.03284107
47	0xbd1ca3db	-0.038242202
48	0x3d0874c1	0.03331447
49	0x3c85655d	0.016283685
50	0xbd527089	-0.051376853
51	0xbcc4210e	-0.023941543
52	0x3bf45573	0.0074564754
53	0xbc23c50b	-0.009995709
54	0x3c913942	0.017727498
55	0xbd4c64f2	-0.049900956
56	0x3d5778b6	0.052605353
57	0x3d41b8bb	0.047295313
58	0x3c193087	0.009349949
59	0x3d882d81	0.06649304
60	0x3d3e580e	0.046470694
61	0x3cd29f67	0.025710775
62	0xbd2ab7f8	-0.041679353
63	0x3cc81313	0.024423158
